nvda_lstm_v7_multistock/best_finetune.pth (torch, 384951 bytes, 15 tensors)

lstm.weight_ih_l0 f4 [256, 36]
0.11553307 0.1955961 -0.008987239 0.1409494 -0.069630556 0.11309978 -0.046980653 0.09886131
0.18583456 -0.07538167 0.16961198 0.09969021 0.10824081 0.010922877 0.04450673 0.08832
0.08534763 0.12303182 -0.041629657 -0.17351958 -0.05688832 0.06861721 -0.0986886 0.11891182
-0.08837531 -0.061328102 -0.038422767 -0.044767633 0.088500574 0.001602288 0.24859484 -0.011026154
0.20372865 0.07006131 0.06997124 0.0787248 0.04185571 0.21166298 0.04320619 0.0013229013
0.07714085 -0.07233329 0.080479644 0.14030714 0.24379899 -0.049261283 0.1119507 0.0408453
0.08037863 -0.032278754 0.005469375 0.010495174 -0.07671507 0.2208068 0.07042198 0.27832946
0.07626286 -0.037268855 0.13388321 -0.08147728 -0.050562102 -0.021256948 0.107594565 -0.034669023
-0.021501327 -0.050544742 0.08430493 -0.102195196 0.037020355 -0.136726 0.20543328 0.0512448
0.12683173 -0.12284544 -0.11362528 -0.078404054 -0.088475466 0.05210565 0.052761704 0.112812564
-0.04617765 -0.07225499 0.04379787 -0.068636395 0.08676052 -0.026921295 0.06470796 -0.07954496
-0.05493101 0.062395986 0.034730796 -0.038658757 0.07341 0.0883447 -0.08050014 -0.06263955
0.11766805 -0.004334598 -0.04561259 -0.11567614 -0.058411647 0.0068883025 0.0013990123 -0.087735824
0.025967391 -0.087269805 -0.09151216 -0.08075162 -0.07467614 -0.08515348 0.16523384 0.025436493
0.1386242 -0.14537176 -0.041661784 -0.011458616 0.052723736 -0.07810739 -0.03878467 -0.03135744
0.058840096 0.013793157 -0.10208133 -0.16635956 -0.04767961 -0.12854883 0.0004519187 -0.094666936
0.26180977 -0.047485597 0.1678224 0.07002592 0.020473119 0.09436072 -0.056953833 -0.007982806
-0.1312247 -0.1373276 0.04376447 -0.067851596 0.05309897 -0.08253115 0.07155858 -0.03495162
0.00063826423 0.05811217 0.07914539 0.123467185 0.101768 -0.0896485 0.027532822 -0.05788583
0.05450593 -0.06967499 0.14887819 -0.025091913 0.06901178 0.04543149 0.05205276 -0.059866138
0.08409339 0.08185199 0.032862566 -0.2522734 0.051281996 -0.011297378 -0.13899302 0.1313561
0.047947098 -0.056182057 -0.09683353 0.010310276 0.11370381 0.04359868 -0.014752515 -0.030851606
-0.048880816 0.046759754 0.12458474 -0.12447498 0.10399541 0.030687127 0.09931442 0.021621035
0.14917535 0.07885451 0.07604793 0.09856876 0.0013053591 0.06882537 0.019175531 -0.006731747
0.12526712 0.1900796 0.2273423 -0.05852993 0.012604126 0.111730464 0.09558881 -0.06589361
0.010538581 -0.047452513 0.08082189 0.17101295 0.032594398 -0.026641289 -0.038072906 -0.007337071
-0.0819003 -0.016503751 0.074818894 0.069848545 0.11385249 -0.11360084 -0.076416254 0.18787703
0.01439839 0.03842694 0.058022197 -0.037399605 -0.087687984 0.096688725 -0.0700662 -0.04335946
-0.08161376 0.092734374 0.10441447 0.022830412 -0.09163254 -0.12895417 0.05755124 0.09487062
0.04377466 0.1061872 0.07392052 -0.025595296 -0.0018666199 -0.08803645 -0.11716594 -0.118333824
0.06071356 -0.04314659 0.021164253 -0.075151734 -0.03467281 -0.09725529 -0.09113472 0.045527007
-0.05307074 0.080863036 -0.007850613 -0.1141087 0.034935076 -0.123567544 0.013602139 -0.028889734
00000000: 9a9c ec3d 584a 483e 363f 13bc 0a55 103e
00000010: 779a 8ebd dca0 e73d c96e 40bd cc77 ca3d
00000020: 6a4b 3e3e b461 9abd c3ae 2d3e 612a cc3d
00000030: 5cad dd3d def5 323c b04c 363d 1ee1 b43d
00000040: bdca ae3d 1bf8 fb3d dc83 2abd 1eaf 31be
00000050: ba03 69bd 2e87 8c3d 401d cabd 0a88 f33d
00000060: 1dfe b4bd 2d33 7bbd 3161 1dbd 445e 37bd
00000070: ca3f b53d dd03 d23a a58f 7e3e 0ba7 34bc
00000080: 3e9e 503e 4e7c 8f3d 154d 8f3d 783a a13d
00000090: e570 2b3d 2ebe 583e f9f8 303d 3465 ad3a
000000a0: 06fc 9d3d 7a23 94bd 83d2 a43d adac 0f3e
000000b0: 71a6 793e 33c6 49bd 6946 e53d 674d 273d
000000c0: 8d9d a43d ba36 04bd 7138 b33b f3f3 2b3c
000000d0: ca1c 9dbd 2e1b 623e 6639 903d 3381 8e3e
000000e0: b42f 9c3d 3aa7 18bd ae18 093e 8fdd a6bd
000000f0: 351a 4fbd 0d23 aebc 8a5a dc3d 1b01 0ebd
00000100: 8d23 b0bc 0108 4fbd 10a8 ac3d b74b d1bd
00000110: a8a2 173d e701 0cbe 1a5d 523e 11e6 513d
00000120: 2de0 013e 6496 fbbd 5fb4 e8bd 4e92 a0bd
00000130: a032 b5bd bc6c 553d a81c 583d 460a e73d
00000140: c724 3dbd 6dfa 93bd 6565 333d 3d91 8cbd
00000150: 80af b13d 0c8a dcbc 9b85 843d 78e8 a2bd
00000160: 57ff 60bd ef92 7f3d e141 0e3d a558 1ebd
00000170: fb57 963d 11ee b43d 42dd a4bd 2a49 80bd
00000180: f2fb f03d 3e09 8ebb 44d4 3abd 9de7 ecbd
00000190: 0d41 6fbd 45b7 e13b 105f b73a d7ae b3bd
000001a0: 91b9 d43c 83ba b2bd ba6a bbbd 1b61 a5bd
000001b0: ceef 98bd f364 aebd 0f33 293e 3160 d03c
000001c0: 81f3 0d3e 56dc 14be 8ca5 2abd ebbc 3bbc
000001d0: d8f4 573d c4f6 9fbd addc 1ebd a970 00bd
000001e0: 5002 713d b2fc 613c 0410 d1bd 295a 2abe
000001f0: b24b 43bd 4ea2 03be 80ef ec39 bde0 c1bd
00000200: ee0b 863e 4280 42bd a3d9 2b3e c069 8f3d
00000210: 3eb7 a73c 3140 c13d 6c48 69bd 51ca 02bc
00000220: c55f 06be 9b9f 0cbe 5f42 333d c7f5 8abd
00000230: 4e7e 593d 1706 a9bd 4e8d 923d 6e29 0fbd
00000240: 3051 273a 0707 6e3d fa16 a23d 5ddc fc3d
00000250: be6b d03d a299 b7bd 838c e13c b119 6dbd
00000260: 9c41 5f3d c3b1 8ebd 8673 183e 8e8d cdbc
00000270: 0c56 8d3d 5f16 3a3d 4635 553d 3236 75bd
00000280: 2839 ac3d 04a2 a73d e69a 063d fb29 81be
00000290: 120d 523d a318 39bc 3054 0ebe 3782 063e
000002a0: 2d64 443d 281f 66bd a850 c6bd 6fec 283c
000002b0: 8bdd e83d 8894 323d 88b4 71bc 82bc fcbc
000002c0: 4037 48bd 2887 3f3d 4926 ff3d bdec febd
000002d0: 8cfb d43d 9263 fb3c 5c65 cb3d 991e b13c
000002e0: 6cc1 183e 797e a13d 04bf 9b3d 6bde c93d
000002f0: 9518 ab3a 51f4 8c3d 0116 9d3c fd95 dcbb
00000300: 0646 003e 3aa4 423e 6bcc 683e 14bd 6fbd
00000310: 8981 4e3c f1d2 e43d 11c4 c33d 3bf3 86bd
00000320: 03aa 2c3c 915d 42bd f285 a53d 051e 2f3e
00000330: b481 053d d53e dabc 56f2 1bbd d06b f0bb
00000340: 58bb a7bd e032 87bc a63a 993d c10c 8f3d
00000350: 7f2b e93d 8fa7 e8bd 2080 9cbd d662 403e
00000360: 3ae7 6b3c 9165 1d3d afa8 6d3d 5430 19bd
00000370: c295 b3bd bd04 c63d de7e 8fbd b099 31bd
00000380: 1d25 a7bd 85eb bd3d 41d7 d53d d806 bb3c
00000390: d7a9 bbbd 900c 04be d9ba 6b3d 874b c23d
000003a0: 0f4d 333d ad78 d93d a463 973d 3aad d1bc
000003b0: 5fa9 f4ba 744c b4bd b2f4 efbd 0159 f2bd
000003c0: c8ae 783d 7bba 30bd a860 ad3c 27e9 99bd
000003d0: 1405 0ebd c82d c7bd d7a4 babd 877a 3a3d
000003e0: b460 59bd 859b a53d dc9f 00bc d2b1 e9bd
000003f0: 1518 0f3d fb10 fdbd 82db 5e3c 2aaa ecbc

lstm.weight_hh_l0 f4 [256, 64]
0.114400715 -0.0990024 -0.03777048 -0.069611855 0.16178393 0.043736164 0.17205119 -0.0811191
0.101225354 -0.033270117 0.07881061 0.13685977 0.080734916 -0.093814194 -0.124818996 0.034039486
0.036592856 0.03457877 -0.11282618 0.026675776 -0.02499254 -0.058131035 0.060594026 -0.15934765
0.047309935 0.16796242 0.104261674 -0.10258687 0.05116279 -0.08592647 0.18984827 -0.017382236
0.07026541 -0.13899314 0.008158445 -0.056188494 0.09717371 0.07102158 -0.075990185 0.15878141
-0.13663884 -0.2890464 0.04109729 -0.0070876917 0.07493643 -0.03239433 0.1319223 -0.07925527
-0.03495239 0.010250172 0.0041321204 -0.0436998 -0.08126849 -0.24918094 0.09716893 0.07829089
-0.06369506 0.26878184 0.0058811605 0.040720433 -0.02079102 -0.01971866 0.03987835 -0.17580847
-0.21391164 -0.19483127 -0.11376238 -0.002525602 0.0011693484 -0.039346125 0.052447747 -0.002353166
-0.005904362 -0.011883697 0.11440742 0.11948208 0.035147253 0.04853295 -0.0711456 0.13288017
0.06123792 -0.05447208 -0.14880244 0.027198842 0.07361791 -0.07879485 0.018079888 0.0659446
0.08987869 0.052880537 -0.03421833 0.073604785 -0.12983061 0.049651917 -0.012087358 -0.19088484
-0.12050547 -0.17986509 0.032107197 0.09125518 0.049994852 0.049410507 -0.079446025 0.13462482
0.13008867 -0.04211575 0.010109935 -0.047558904 0.1145516 -0.10526444 -0.038236618 -0.046982646
-0.046374656 0.09137569 0.021908805 -0.07375089 0.16676679 0.092525296 0.11042509 -0.1747724
0.15441854 0.08385594 -0.02460931 -0.10289666 0.06839558 -0.075658165 0.09332401 0.05119326
0.038844753 0.0337161 0.08341308 0.029486883 -0.027046923 -0.0045955777 0.10899719 -0.008575913
-0.0966497 -0.1122925 -0.10165501 0.020845123 0.097128145 0.0877524 0.048435878 0.04393259
-0.023062432 0.13675228 0.045438748 -0.08485167 -0.074784994 -0.10377776 -0.041568045 0.096431375
0.018137055 -0.054077137 0.038565774 -0.08634386 0.027978174 0.07503978 0.06842805 -0.04801536
-0.047531214 0.061384022 0.06680666 -0.025151744 0.0054909913 -0.022728655 -0.032908376 -0.109641455
-0.10318476 0.08020656 -0.063837476 0.10507186 0.07152212 -0.022767283 -0.057044163 -0.0025379597
-0.021159576 -0.0599783 0.12666374 0.0049995757 -0.0015074101 -0.09999114 0.0305781 0.02485412
0.12346818 -0.058623783 0.060238466 0.0005045352 0.056722634 0.016681261 0.042967938 -0.028664878
-0.11788435 0.16642427 -0.06275538 -0.07842681 0.096712776 -0.15361512 -0.091361344 -0.068004645
0.09809546 -0.07093276 -0.11761675 0.0017625653 -0.05966918 -0.03941514 -0.029635647 0.15152548
-0.032224637 0.08570176 0.004938787 -0.056402344 -0.03947089 -0.06925048 -0.110247016 -0.10398087
-0.0041577737 0.082372524 0.10339859 0.03792147 -0.037436146 0.004459856 -0.033685267 0.06398127
-0.07781115 0.009092093 -0.105656244 -0.10272529 -0.020017931 -0.038602937 -0.10024389 0.072638534
-0.05429447 0.24820074 -0.12611222 0.08232058 -0.104683444 -0.08273185 -0.11141493 -0.13100839
-0.13134973 0.000812863 0.093374655 0.16255401 -0.03976291 0.06798665 -0.033504903 -0.04408734
-0.08232894 -0.17513733 0.064806975 -0.05610612 -0.10688212 0.043792475 0.03558989 0.19028059
00000000: ec4a ea3d c5c1 cabd 38b5 1abd a990 8ebd
00000010: b0aa 253e b124 333d 302e 303e c521 a6bd
00000020: 3d4f cf3d 3f46 08bd 7567 a13d f824 0c3e
00000030: 5958 a53d a821 c0bd 1aa1 ffbd fd6c 0b3d
00000040: 64e2 153d 78a2 0d3d 6a11 e7bd 2887 da3c
00000050: 28bd ccbc cf1a 6ebd 7131 783d 082c 23be
00000060: 10c8 413d 57fe 2b3e 2587 d53d 1119 d2bd
00000070: 1390 513d 38fa afbd 9667 423e 3165 8ebc
00000080: 50e7 8f3d 3854 0ebe 00ab 053c e825 66bd
00000090: 0303 c73d c373 913d bea0 9bbd 9897 223e
000000a0: 0deb 0bbe e4fd 93be a255 283d de3f e8bb
000000b0: 4578 993d ebaf 04bd a416 073e 9650 a2bd
000000c0: 3d2a 0fbd 56f0 273c bd66 873b 90fe 32bd
000000d0: 1870 a6bd 4a29 7fbe 8100 c73d f956 a03d
000000e0: 8e72 82bd c69d 893e c0b6 c03b 78ca 263d
000000f0: ee51 aabc 0789 a1bc 7b57 233d 2307 34be
00000100: a70b 5bbe d981 47be 40fc e8bd 9284 25bb
00000110: d244 993a 6729 21bd 73d3 563d 9337 1abb
00000120: 6179 c1bb d6b3 42bc 704e ea3d 05b3 f43d
00000130: 91f6 0f3d 7dca 463d c9b4 91bd bd11 083e
00000140: 9dd4 7a3d 1e1e 5fbd ab5f 18be 1bd0 de3c
00000150: fdc4 963d 325f a1bd 461c 943c f60d 873d
00000160: 5212 b83d 4399 583d 8528 0cbd 1bbe 963d
00000170: 51f2 04be cf5f 4b3d 0e0a 46bc 5177 43be
00000180: 92cb f6bd 8e2e 38be d682 033d ffe3 ba3d
00000190: 67c7 4c3d ac62 4a3d 99b4 a2bd 17db 093e
000001a0: f735 053e 9181 2cbd 24a4 253c 20cd 42bd
000001b0: 079a ea3d e294 d7bd 009e 1cbd e070 40bd
000001c0: 5af3 3dbd 2e23 bb3d 187a b33c b50a 97bd
000001d0: eac4 2a3e e77d bd3d 8d26 e23d 89f7 32be
000001e0: e51f 1e3e aabc ab3d 7799 c9bc 7cbb d2bd
000001f0: fb12 8c3d abf2 9abd a920 bf3d 06b0 513d
00000200: ad1b 1f3d e519 0a3d 7ad4 aa3d 7a8e f13c
00000210: 8291 ddbc 8096 96bb eb39 df3d fc81 0cbc
00000220: 47f0 c5bd 9cf9 e5bd 8030 d0bd 64c3 aa3c
00000230: 1feb c63d 88b7 b33d b364 463d a9f2 333d
00000240: 6ded bcbc ca08 0c3e fb1d 3a3d b6c6 adbd
00000250: e028 99bd 6f89 d4bd 4143 2abd d07d c53d
00000260: 2994 943c fd7f 5dbd 25f7 1d3d 0dd5 b0bd
00000270: 7c32 e53c 75ae 993d 0124 8c3d c1ab 44bd
00000280: 17b0 42bd d06d 7b3d eed1 883d 080b cebc
00000290: c6ed b33b 7231 babc efca 06bd b38b e0bd
000002a0: 8852 d3bd 5643 a43d 39bd 82bd ea2f d73d
000002b0: 307a 923d 7482 babc 24a7 69bd e653 26bb
000002c0: d956 adbc ceab 75bd 24b4 013e 7bd3 a33b
000002d0: 4a94 c5ba 28c8 ccbd ec7e fa3c de9a cb3c
000002e0: e3dc fc3d 7e1f 70bd 9cbc 763d c942 043a
000002f0: fe55 683d 24a7 883c 26ff 2f3d 9bd2 eabc
00000300: 5a6d f1bd 206b 2a3e e585 80bd 3c9e a0bd
00000310: 5911 c63d 484d 1dbe a81b bbbd 0546 8bbd
00000320: 46e6 c83d 3245 91bd 0de1 f0bd e105 e73a
00000330: ac67 74bd c571 21bd 75c6 f2bc 7f29 1b3e
00000340: fbfd 03bd 6884 af3d 8cd5 a13b 2506 67bd
00000350: 3aac 21bd 32d3 8dbd 30c9 e1bd ecf3 d4bd
00000360: ef3d 88bb edb2 a83d a4c2 d33d 8b53 1b3d
00000370: a556 19bd fc23 923b 90f9 09bd 9d08 833d
00000380: 745b 9fbd 01f7 143c 4d62 d8bd a361 d2bd
00000390: a5fc a3bc 1d1e 1ebd ab4c cdbd 83c3 943d
000003a0: e163 5ebd 5628 7e3e 9023 01be b197 a83d
000003b0: 4664 d6bd 516f a9bd 832d e4bd 1027 06be
000003c0: 8b80 06be 5016 553a 363b bf3d 8f74 263e
000003d0: 6fde 22bd 963c 8b3d 703c 09bd ed94 34bd
000003e0: 139c a8bd 3357 33be 85b9 843d 88cf 65bd
000003f0: 03e5 dabd bd5f 333d b4c6 113d ead8 423e

lstm.bias_ih_l0 f4 [256]
-0.0891776 -0.03826589 0.09927011 -0.04595728 -0.03809457 0.08327221 0.009047814 0.15716273
-0.046272166 0.061343297 -0.07323207 0.056315057 0.057612572 -0.024672193 0.09939016 0.097529404
0.0030197594 -0.08299558 0.08253077 -0.10323982 0.028795723 0.008283241 0.049487427 0.07624279
-0.054432493 0.00865045 -0.0640621 0.0957459 0.073259935 0.112699784 0.1843319 0.095426686
0.07477492 0.04195829 -0.07778519 -0.045267694 -0.019452386 -0.052873757 -0.033043064 -0.12385659
0.07870172 -0.006872609 -0.11659942 0.05734935 -0.10017226 0.016340962 -0.008751362 0.095357575
0.110021725 0.11544418 -0.08005768 0.020716194 0.06352603 -0.051066563 -0.10386092 -0.08712689
-0.06400309 0.07448278 -0.047516398 0.07091626 -0.068886615 -0.020282201 0.048523717 0.2026351
0.059863932 -0.0714284 0.103324175 0.04010421 0.12811622 0.05346908 -0.09826964 0.08528402
-0.04917715 -0.031985454 0.014117455 0.04471384 -0.066440016 -0.037950143 -0.040328134 0.10061588
0.10130333 -0.013445324 -0.02541507 -0.0446637 0.0053408197 0.027285596 -0.046481296 -0.03043602
-0.082147375 0.109577574 -0.045386296 0.11644968 -0.0015070953 -0.027496455 0.026039788 0.008808693
-0.009073134 0.07813949 -0.04859891 0.108707234 0.04323992 -0.01297314 -0.051699415 0.020457884
0.059345007 0.029259564 -0.12423752 0.05671592 0.033346348 0.0703067 -0.07559077 0.109647624
0.09886799 0.066409595 0.11225674 -0.09314174 0.08834867 0.01836853 0.04574424 0.1004744
0.037238147 0.056376826 0.041340724 0.14756782 -0.094132364 0.13362324 0.052105617 0.10117924
0.0016156088 -0.0373733 -0.021852385 -0.028003942 -0.08570133 0.08987455 0.06304486 -0.120761745
0.04753306 -0.09969405 -0.059323113 0.10556291 -0.014425466 0.07504588 0.069744065 0.0064497082
-0.12862153 0.07383484 -0.05285344 -0.06406885 -0.036031693 0.0881212 -0.03389453 0.052684166
0.008217754 -0.061868228 0.01540413 0.095341764 0.10097984 -0.0012962447 -0.017613335 0.07875046
-0.03242981 -0.040474154 0.07809123 0.061275695 0.005535908 -0.006389483 -0.101170816 0.009454075
-0.111653484 -0.017294122 0.020057302 0.042881653 0.094344355 0.012306708 0.016170174 -0.04994426
-0.0950133 -0.11657293 0.019710576 0.019880448 0.091549255 0.07756809 -0.008877922 -0.043580744
0.0754856 -0.10272656 -0.015628427 0.03396522 -0.11294894 0.08815234 -0.035214804 0.11974802
0.016644558 -0.04865852 0.06706412 -0.051946376 -0.06531006 0.025055462 0.07749129 0.108442254
0.1269938 -0.007961941 0.00096928235 -0.04505115 0.1300457 0.004250749 -0.10844894 0.030617472
-0.023715053 0.029184889 0.051286016 -0.06225187 -0.0984586 -0.0124998065 -0.082640305 0.13536322
-0.040383283 -0.028511498 0.10229207 -0.014476403 0.03380905 -0.12040039 0.1436314 0.138823
-0.12424382 0.15686634 0.10670189 0.071817614 0.019382065 -0.01282635 0.14349332 0.05669871
-0.023917459 0.003716922 0.10370704 -0.049839083 -0.02832079 -0.0995446 0.035065267 0.0011415324
0.11716582 -0.0058105374 0.05661299 -0.044809792 -0.099515334 -0.08801637 0.017944483 0.05324646
0.06493085 0.14764337 0.05080972 0.020323073 0.066784754 -0.11085672 0.18309177 -0.026152495
00000000: bfa2 b6bd b2bc 1cbd 214e cb3d b33d 3cbd
00000010: 0d09 1cbd 9f8a aa3d 483d 143c 44ef 203e
00000020: e287 3dbd 1c43 7b3d b2fa 95bd 9eaa 663d
00000030: 29fb 6b3d 571d cabc 118d cb3d 7fbd c73d
00000040: 28e7 453b 96f9 a9bd e405 a93d 666f d3bd
00000050: 02e5 eb3c 6eb6 073c 54b3 4a3d 2e25 9c3d
00000060: 9bf4 5ebd 9eba 0d3c fe32 83bd 6d16 c43d
00000070: 4e09 963d 25cf e63d 80c1 3c3e 116f c33d
00000080: 9823 993d 75dc 2b3d d74d 9fbd 9e6a 39bd
00000090: 9c5a 9fbc 2792 58bd 2a58 07bd 86a8 fdbd
000000a0: 5e2e a13d 9f33 e1bb adcb eebd 27e7 6a3d
000000b0: 1d27 cdbd 7bdd 853c df61 0fbc d54a c33d
000000c0: 1253 e13d 006e ec3d 48f5 a3bd 02b5 a93c
000000d0: ef19 823d 2c2b 51bd 09b5 d4bd 956f b2bd
000000e0: 0d14 83bd 6e8a 983d 8ea0 42bd 8b3c 913d
000000f0: 6d14 8dbd dc26 a6bc cec0 463d 937f 4f3e
00000100: e233 753d 0e49 92bd a09b d33d 5044 243d
00000110: e630 033e 6502 5b3d 9841 c9bd 63a9 ae3d
00000120: fb6d 49bd 2e03 03bd e64c 673c dc25 373d
00000130: b411 88bd 9c71 1bbd 1d2f 25bd b30f ce3d
00000140: 1f78 cf3d c749 5cbc 4433 d0bc 49f1 36bd
00000150: 0b02 af3b 0b86 df3c 2c63 3ebd f654 f9bc
00000160: e23c a8bd 356a e03d fbe6 39bd 2b7d ee3d
00000170: ba89 c5ba 3f40 e1bc 6551 d53c 5652 103c
00000180: 7ba7 14bc 9907 a03d a70f 47bd e6a1 de3d
00000190: 581c 313d 4b8d 54bc c4c2 53bd 4b97 a73c
000001a0: c013 733d c1b1 ef3c 3e70 febd f44e 683d
000001b0: 2e96 083d f6fc 8f3d 55cf 9abd ef8e e03d
000001c0: 4d7b ca3d c101 883d dde6 e53d 19c1 bebd
000001d0: 26f0 b43d 9979 963c 505e 3b3d 86c5 cd3d
000001e0: 0787 183d 63eb 663d e454 293d 051c 173e
000001f0: 78c8 c0bd 88d4 083e b36c 553d 1037 cf3d
00000200: d6c2 d33a bf14 19bd c603 b3bc 8668 e5bc
00000210: 2e84 afbd 2610 b83d aa1d 813d ef51 f7bd
00000220: 07b2 423d 652c ccbd cbfc 72bd 5e31 d83d
00000230: ca58 6cbc a8b1 993d fad5 8e3d 1358 d33b
00000240: 5db5 03be b836 973d d97c 58bd 8736 83bd
00000250: f895 13bd e378 b43d fed4 0abd 5acb 573d
00000260: c2a3 063c 8a69 7dbd 9b61 7c3c 8b42 c33d
00000270: 85ce ce3d c1e6 a9ba d749 90bc ec47 a13d
00000280: 1fd5 04bd 3ac8 25bd 4bee 9f3d 39fc 7a3d
00000290: 9066 b53b de5e d1bb a532 cfbd 44e5 1a3c
000002a0: 95aa e4bd 67ac 8dbc 364f a43c aca4 2f3d
000002b0: 9d37 c13d 13a2 493c 5077 843c 5a92 4cbd
000002c0: 5596 c2bd cabd eebd 1378 a13c 52dc a23c
000002d0: 2d7e bb3d 05dc 9e3d b474 11bc b981 32bd
000002e0: 3298 9a3d 4d62 d2bd 3007 80bc 1d1f 0b3d
000002f0: c651 e7bd 3789 b43d 663d 10bd 733e f53d
00000300: 2b5a 883c 284e 47bd ea58 893d b9c5 54bd
00000310: 48c1 85bd 1d41 cd3c c1b3 9e3d f916 de3d
00000320: aa0a 023e cd72 02bc 7017 7e3a 8e87 38bd
00000330: b32a 053e de49 8b3b 7a1a debd 7ed1 fa3c
00000340: 1246 c2bc 2615 ef3c 4911 523d d1fb 7ebd
00000350: aaa4 c9bd fdcb 4cbc 523f a9bd a89c 0a3e
00000360: f168 25bd f290 e9bc 817e d13d 6f2e 6dbc
00000370: 5c7b 0a3d 7b94 f6bd 1c14 133e 9e27 0e3e
00000380: 8b73 febd 92a1 203e 8586 da3d 1d15 933d
00000390: 23c7 9e3c 9c25 52bc eaef 123e e83c 683d
000003a0: 8cee c3bc 9a97 733b 5b64 d43d 1124 4cbd
000003b0: 0001 e8bc 0ade cbbd 99a0 0f3d 799f 953a
000003c0: a2f4 ef3d 5266 bebb 06e3 673d 798a 37bd
000003d0: b2ce cbbd ed41 b4bd 4f00 933c f618 5a3d
000003e0: 77fa 843d d32f 173e da1d 503d 937c a63c
000003f0: 72c6 883d d908 e3bd 697c 3b3e c23d d6bc

lstm.bias_hh_l0 f4 [256]
0.09997038 -0.053925812 0.12864405 0.06990467 0.0855843 0.1174705 -0.052949138 0.07407767
0.0684136 0.07711663 0.042917103 0.09659441 -0.0064803753 -0.08332891 0.06919673 0.10453982
0.16428989 -0.059594635 0.019463666 0.029272025 0.010665437 0.055225406 -0.11058841 0.08249338
-0.024766503 0.023550995 -0.016537262 -0.10466663 0.085811555 0.0058226367 0.07429766 0.13622381
0.10264906 -0.012198033 -0.017991353 -0.031450897 -0.059060406 -0.11110082 -0.025577692 -0.07289868
0.03658305 0.061542667 0.08099576 0.0075936075 0.08238513 -0.1311664 -0.013443185 0.010086672
0.045476828 0.13980809 0.10432476 0.056913864 0.060101364 0.13822517 0.1204248 0.07611207
-0.057138734 0.102512985 0.025456576 0.107285075 0.038385168 0.045829166 0.07682478 0.16327293
0.14264281 0.15452081 -0.09983121 0.09533744 0.11607785 -0.0103224255 -0.106462434 0.13007224
0.033525266 0.15635073 0.053490445 0.093033575 -0.10599219 -0.040487826 -0.11034401 0.0256178
0.15272479 -0.074656986 0.097400784 -0.1088006 0.09394377 -0.10732497 -0.095528804 -0.041936718
0.045802698 -0.116124116 0.065272234 -0.110887684 0.0009845658 -0.038897254 0.04725831 -0.069982424
0.117922686 0.16157445 -0.11413641 -0.016472187 -0.08238523 -0.0987145 -0.008657493 0.06881722
-0.04963605 0.16391176 0.09998682 0.061112046 0.112214945 0.014793296 0.056268398 0.09875321
-0.10844349 0.07010333 0.013555169 -0.094271965 0.104200065 0.018267216 0.018979436 -0.05393445
0.10012235 0.06624344 -0.06065112 -0.028532458 0.026448727 -0.09235192 0.08543443 -0.070455045
-0.07297776 0.0055752294 -0.06940667 0.040018216 -0.058095735 -0.040095422 0.0508414 0.068118915
-0.042192098 0.037542768 -0.10477888 -0.02695576 0.07484745 -0.015655797 -0.1117845 -0.017442457
-0.027436575 0.029142506 -0.026495488 -0.06841608 0.029364826 0.07971517 -0.029302916 0.036136113
0.01552375 0.01787764 -0.022073673 -0.010800278 -0.1213185 0.073150106 -0.10404935 -0.093664184
-0.061616454 0.019238804 -0.012175433 -0.09987862 0.059589013 -0.055514004 -0.08157625 0.07927616
-0.08095086 -0.075117454 -0.015626132 -0.066216856 -0.011352259 -0.05002499 0.0013285244 -0.0017334905
0.08197618 0.073268 -0.06793939 0.0498868 -0.12988685 -0.092408456 -0.09864922 -0.057141248
-0.13026853 0.07855744 0.09305361 -0.10737628 -0.10484038 -0.04589262 0.094242424 0.046658687
0.045590926 0.14558712 0.10588572 0.08836546 -0.04067734 0.031039296 -0.019849535 0.04494811
0.05860599 0.11307551 -0.06945814 -0.12574194 -0.09836893 0.02800361 -0.07283479 0.06648484
0.10322472 0.04966882 -0.03005698 0.062131885 0.09894493 0.04013096 0.010106737 0.06690883
0.025234032 0.031223275 0.060770676 0.11835089 0.0121288365 0.06744411 0.18569928 -0.051215824
-0.0052943807 -0.06819556 -0.07050734 0.08794711 -0.07279636 0.11748666 0.14083695 -0.08766463
-0.06411182 0.051898092 -0.121042825 0.08099766 -0.027577255 0.018046493 -0.0050261915 0.014534077
-0.06482015 0.08388379 0.067243494 0.04690784 -0.019617314 -0.019649329 -0.039397076 0.058898553
0.06291434 -0.026268285 -0.06463631 0.12577434 0.07765482 -0.113292776 -0.009578462 0.075872645
00000000: 45bd cc3d 50e1 5cbd 44bb 033e 2e2a 8f3d
00000010: d246 af3d 6094 f03d 32e1 58bd 09b6 973d
00000020: 6e1c 8c3d 53ef 9d3d d8c9 2f3d 4ad3 c53d
00000030: 5459 d4bb 59a8 aabd 04b7 8d3d f918 d63d
00000040: 9c3b 283e 8119 74bd 4472 9f3c e3cb ef3c
00000050: 16be 2e3c 0934 623d 2d7c e2bd 4af2 a83d
00000060: 1fe3 cabc 04ee c03c 2779 87bc 755b d6bd
00000070: f8bd af3d d1cb be3b 5f29 983d 417e 0b3e
00000080: ac39 d23d 42da 47bc 9a62 93bc a8d2 00bd
00000090: 53e9 71bd d488 e3bd 4f88 d1bc e74b 95bd
000000a0: 1cd8 153d 2a14 7c3d 1be1 a53d ccd3 f83b
000000b0: 89b9 a83d 7c50 06be ce40 5cbc 9242 253c
000000c0: e945 3a3d da29 0f3e 38a8 d53d 831e 693d
000000d0: d92c 763d e68a 0d3e 47a1 f63d a5e0 9b3d
000000e0: 4e0a 6abd 54f2 d13d 4f8a d03c 47b8 db3d
000000f0: c439 1d3d 5db7 3b3d 4f56 9d3d 0531 273e
00000100: f510 123e b43a 1e3e 4e74 ccbd 4740 c33d
00000110: 39ba ed3d 641f 29bc fa08 dabd a831 053e
00000120: ca51 093d 681a 203e cc18 5b3d 6388 be3d
00000130: 6f12 d9bd 90d6 25bd 0afc e1bd 6cdc d13c
00000140: e363 1c3e c3e5 98bd 107a c73d d9d2 debd
00000150: 9765 c03d 32cd dbbd 9ba4 c3bd d6c5 2bbd
00000160: 9c9b 3b3d 7bd2 edbd 73ad 853d 1519 e3bd
00000170: 8c0c 813a ba52 1fbd ee91 413d f252 8fbd
00000180: 7381 f13d c673 253e 5ac0 e9bd aef0 86bc
00000190: 96b9 a8bd d42a cabd 28d8 0dbc 0bf0 8c3d
000001a0: 2c4f 4bbd 7cd8 273e e4c5 cc3d a050 7a3d
000001b0: f3d0 e53d 955f 723c b179 663d 1f3f ca3d
000001c0: 9f17 debd 5692 8f3d 8016 5e3c a911 c1bd
000001d0: d866 d53d 21a5 953c c37a 9b3c 5fea 5cbd
000001e0: f20c cd3d a4aa 873d 4f6d 78bd e7bc e9bc
000001f0: 00ab d83c 0123 bdbd 3ff8 ae3d bc4a 90bd
00000200: 5d75 95bd 6ab0 b63b 1625 8ebd 24ea 233d
00000210: cbf5 6dbd 193b 24bd 123f 503d ee81 8b3d
00000220: 9fd1 2cbd 72c6 193d 4f96 d6bd 53d2 dcbc
00000230: 9f49 993d 9640 80bc 46ef e4bd 7ce3 8ebc
00000240: abc2 e0bc 44bc ee3c 110d d9bc bb1d 8cbd
00000250: 818e f03c b541 a33d ab0c f0bc 7603 143d
00000260: 5457 7e3c 2174 923c d9d3 b4bc a6f3 30bc
00000270: d575 f8bd b9cf 953d d317 d5bd 02d3 bfbd
00000280: 8961 7cbd b29a 9d3c 787b 47bc 298d ccbd
00000290: 9c13 743d a762 63bd 7311 a7bd 8a5b a23d
000002a0: 91c9 a5bd 2ed7 99bd 6002 80bc b49c 87bd
000002b0: d3fe 39bc 01e7 4cbd e221 ae3a 4a36 e3ba
000002c0: 21e3 a73d 880d 963d cf23 8bbd 1a56 4c3d
000002d0: 0f01 05be a540 bdbd 9a08 cabd f10c 6abd
000002e0: 1d65 05be b9e2 a03d e492 be3d 18e8 dbbd
000002f0: 8eb6 d6bd e6f9 3bbd 2c02 c13d 2e1d 3f3d
00000300: 8dbd 3a3d ca14 153e 9dda d83d f3f8 b43d
00000310: 489d 26bd 1f46 fe3c 7e9b a2bc 821b 383d
00000320: d60c 703d 2294 e73d 1240 8ebd 7fc2 00be
00000330: a675 c9bd d467 e53c 682a 95bd 3429 883d
00000340: 7b67 d33d 8871 4b3d 0e3a f6bc 017e 7e3d
00000350: a4a3 ca3d 5d60 243d ba96 253c 7f07 893d
00000360: 9ab7 ce3c f4c7 ff3c acea 783d f461 f23d
00000370: 07b8 463c 2320 8a3d f427 3e3e afc7 51bd
00000380: 7c7c adbb 1daa 8bbd 2766 90bd 9d1d b43d
00000390: 4216 95bd d99c f03d 9037 103e 8389 b3bd
000003a0: 0f4d 83bd 1893 543d 4de5 f7bd 1ae2 a53d
000003b0: b2e9 e1bc 3dd6 933c c0b2 a4bb 5620 6e3c
000003c0: 6dc0 84bd 44cb ab3d f5b6 893d 6f22 403d
000003d0: 7db4 a0bc a1f7 a0bc d45e 21bd 9c3f 713d
000003e0: 3cd9 803d 9630 d7bc 0b60 84bd fdca 003e
000003f0: 7e09 9f3d 0b06 e8bd fbee 1cbc 1e63 9b3d

lstm.weight_ih_l1 f4 [256, 64]
-0.039248526 -0.02661873 -0.05898372 -0.1360994 -0.07579912 0.032134853 0.028234135 0.10319064
0.124559194 -0.07757022 0.075724795 -0.021720313 0.058567192 -0.10405712 -0.04686013 -0.005722219
0.00837903 0.07425706 0.1209444 0.09405583 -0.08196236 -0.017327333 0.000787757 0.027669445
-0.07256186 0.061481573 0.035941105 0.075233534 -0.03845497 0.006481006 0.10300433 0.08236681
-0.033963833 0.08784634 -0.04077412 0.0642714 -0.038272843 0.030211994 -0.11922494 0.13309248
-0.12644461 -0.1303526 -0.040230203 -0.037097823 0.103315204 0.1038329 0.06073407 -0.06994265
0.09752075 0.124097645 -0.0023872643 -0.029039202 0.11283602 0.06685256 0.03903977 -0.11341757
-0.09267285 0.097584754 -0.1067471 0.06802844 0.07834032 -0.010040786 -0.15105788 -0.12610827
0.09346524 0.03179102 0.056909278 -0.06525916 -0.0631419 0.04824819 -0.081974246 0.06253305
0.004301482 0.05454073 -0.06943 -0.046332058 -0.09418592 0.065567985 -0.02566131 -0.04669497
-0.1285858 0.12990202 0.115385994 -0.07980327 -0.01813947 -0.0411518 -0.07981996 -0.092999816
-0.010444131 0.062945284 -0.08285697 0.12713398 -0.022855466 -0.089538455 -0.057262555 0.11370839
-0.021468267 0.10328492 0.009173746 0.10900258 -0.0861758 0.042243905 0.05347398 -0.02635876
-0.040846676 -0.052002154 -0.012824379 -0.06554242 -0.09818536 0.041086886 0.009569438 -0.08356234
-0.03299263 0.001787343 0.068668485 0.055529658 0.12007569 0.0011584525 0.04165201 -0.08965322
0.056381874 -0.06543955 0.09949667 0.047058783 -0.010584746 -0.032591477 0.048461713 0.02272526
0.025525145 -0.062603734 -0.10060924 -0.06666465 -0.12947102 -0.06017739 -0.021941125 -0.09236285
0.11441027 0.14683245 0.038214404 0.06474536 0.13424577 0.10587586 -0.0076472834 0.1016062
-0.21064995 0.0033405237 0.06509706 -0.14989606 -0.05659986 0.006689779 0.00024814365 0.053369798
-0.027737964 0.14725487 0.032321684 -0.023751713 -0.10651696 0.043976385 0.1764477 -0.12089684
-0.124126166 -0.015244457 -0.13823843 -0.09635335 0.063867375 -0.044601407 -0.10756256 -0.04820843
0.052470766 -0.0036409767 -0.09990585 -0.06365562 0.06511347 -0.020233931 0.018968796 -0.049214095
0.02174296 -0.13225956 -0.087787196 0.040719964 0.1447297 0.005683347 0.03257535 -0.03887372
0.01618083 -0.0154923955 -0.15020977 0.06876295 -0.066707045 -0.14416708 0.107443094 0.0385601
-0.017019786 -0.1081441 0.06608157 -0.06684126 0.060913134 -0.13308457 0.115163684 -0.045443505
0.13560656 0.04949979 0.09846521 0.021655861 -0.07163863 0.0069659427 0.101807244 -0.11262727
0.057998057 0.05519737 0.079660214 -0.08942281 -0.09036976 0.030509578 -0.032035165 -0.049101613
0.02766123 0.09916492 -0.09454402 -0.0052254004 -0.05227898 -0.01147179 -0.039028104 0.09881383
0.06967028 0.056815125 -0.03287084 0.08259483 -0.05560656 -0.1071294 -0.0659087 -0.048225623
-0.031800374 0.023262773 -0.0038204936 -0.036284756 -0.06980341 0.111423366 0.104913205 -0.0875059
0.108522944 0.010244796 -0.029420963 0.036936283 -0.14023402 -0.12623373 -0.010135407 0.082058035
0.08991442 0.114324085 0.06892815 0.044698633 0.026683545 -0.05892938 0.14281356 0.025518859
00000000: 10c3 20bd 860f dabc ea98 71bd a45d 0bbe
00000010: 923c 9bbd d69f 033d 464b e73c 9d55 d33d
00000020: e418 ff3d 23dd 9ebd 9a15 9b3d ccee b1bc
00000030: 27e4 6f3d e61b d5bd 68f0 3fbd 7481 bbbb
00000040: 3348 093c 1614 983d b3b1 f73d 58a0 c03d
00000050: e2db a7bd 0df2 8dbc 7a81 4e3a 08ab e23c
00000060: 509b 94bd 1ad4 7b3d fb36 133d 0a14 9a3d
00000070: f582 1dbd 9e5e d43b eff3 d23d eeaf a83d
00000080: a91d 0bbd c8e8 b33d c302 27bd b9a0 833d
00000090: fcc3 1cbd 257f f73c 352c f4bd 6549 083e
000000a0: b27a 01be 277b 05be 6dc8 24bd e3f3 17bd
000000b0: ec96 d33d 58a6 d43d 4ac4 783d 183e 8fbd
000000c0: f5b8 c73d e826 fe3d a673 1cbb 9fe3 edbc
000000d0: 9216 e73d ffe9 883d 2ae8 1f3d 7947 e8bd
000000e0: 43cb bdbd 84da c73d 399e dabd 7f52 8b3d
000000f0: e470 a03d 1c82 24bc ebae 1abe 8722 01be
00000100: b46a bf3d 4d37 023d b419 693d 98a6 85bd
00000110: 8a50 81bd e59f 453d 1de2 a7bd 5411 803d
00000120: 72f3 8c3b 1a66 5f3d 5131 8ebd afc6 3dbd
00000130: 8ce4 c0bd 8248 863d ab37 d2bc 3a43 3fbd
00000140: ffab 03be 0905 053e 7e4f ec3d e66f a3bd
00000150: 3a99 94bc ca8e 28bd a678 a3bd b076 bebd
00000160: dc1d 2bbc 75e9 803d eab0 a9bd 692f 023e
00000170: 633b bbbc f05f b7bd 248c 6abd f2df e83d
00000180: 38de afbc 0b87 d33d 7b4d 163c bf3c df3d
00000190: f07c b0bd f207 2d3d 8807 5b3d 54ee d7bc
000001a0: d84e 27bd 3600 55bd 581d 52bc 1b3b 86bd
000001b0: 6815 c9bd b94a 283d 22c9 1c3c bb22 abbd
000001c0: 4823 07bd 4745 ea3a 10a2 8c3d 1173 633d
000001d0: 3eea f53d 37d7 973a 4c9b 2a3d 1b9c b7bd
000001e0: aef0 663d 2c05 86bd e9c4 cb3d b6c0 403d
000001f0: a46b 2dbc a47e 05bd ca7f 463d 532a ba3c
00000200: 1c1a d13c 6336 80bd 380c cebd 7a87 88bd
00000210: 0d94 04be 917c 76bd e0bd b3bc bc28 bdbd
00000220: ee4f ea3d 3f5b 163e b586 1c3d 3799 843d
00000230: b977 093e 71d5 d83d 1096 fabb e916 d03d
00000240: 9fb4 57be b0ec 5a3b 9b51 853d 5a7e 19be
00000250: 41d5 67bd ef35 db3b 4719 8239 4a9a 5a3d
00000260: ba3a e3bc fbc9 163e be63 043d f492 c2bc
00000270: 9025 dabd 9520 343d b5ae 343e c398 f7bd
00000280: dc35 febd e3c3 79bc 608e 0dbe e854 c5bd
00000290: e6cc 823d f7af 36bd c249 dcbd 3476 45bd
000002a0: 96eb 563d 749d 6ebb 709b ccbd e15d 82bd
000002b0: 365a 853d a1c1 a5bc 7364 9b3c b894 49bd
000002c0: 4b1e b23c 0d6f 07be c6c9 b3bd fac9 263d
000002d0: 0634 143e 5f3b ba3b bb6d 053d 0d3a 1fbd
000002e0: a98d 843c d1d3 7dbc 97d0 19be 97d3 8c3d
000002f0: b49d 88bd 89a0 13be 200b dc3d 32f1 1d3d
00000300: 146d 8bbc a77a ddbd c655 873d 12e4 88bd
00000310: 0d80 793d 5247 08be f0da eb3d f822 3abd
00000320: 72dc 0a3e 4bc0 4a3d 21a8 c93d a267 b13c
00000330: 46b7 92bd 9042 e43b 5180 d03d 20a9 e6bd
00000340: 5f8f 6d3d a316 623d e524 a33d 4e23 b7bd
00000350: c813 b9bd 39ef f93c 4e37 03bd c61e 49bd
00000360: ce99 e23c fa16 cb3d 4ca0 c1bd d639 abbb
00000370: 7c22 56bd 2df4 3bbc efdb 1fbd e85e ca3d
00000380: 4baf 8e3d fab6 683d 93a3 06bd 7a27 a93d
00000390: b4c3 63bd a966 dbbd 24fb 86bd 3b88 45bd
000003a0: 1c41 02bd 9291 be3c 3f61 7abb 539f 14bd
000003b0: 17f5 8ebd ef31 e43d bcdc d63d 4b36 b3bd
000003c0: 4741 de3d cad9 273c 3b04 f1bc 804a 173d
000003d0: 8299 0fbe 6a43 01be fa0e 26bc 0b0e a83d
000003e0: 0d25 b83d bf22 ea3d 342a 8d3d ea15 373d
000003f0: 7397 da3c ef5f 71bd b83d 123e ed0c d13c

lstm.weight_hh_l1 f4 [256, 64]
-0.014659705 0.09725158 0.07481258 -0.049545683 0.13602267 -0.0031050488 0.021795157 -0.0031884955
0.022995178 -0.06691739 0.07618501 0.08244655 -0.02802718 -0.124059476 0.04175856 0.045536473
-0.0852264 -0.09854627 -0.07637118 -0.02892985 0.088900276 0.014133734 0.04379859 -0.08698824
0.080096774 0.10080243 -0.01075372 0.09080992 0.02517103 0.12610798 -0.005870204 -0.012784863
0.10856915 -0.06293109 0.10781447 -0.03907872 -0.004237633 0.02797325 -0.023188714 0.13834335
-0.12793125 -0.031304706 0.018717928 -0.033466734 0.028132316 0.113934666 0.05329975 -0.022848379
-0.05116227 -0.07587522 -0.08661216 -0.05588404 0.09577118 -0.11909448 0.061982337 -0.06066173
-0.0076884273 -0.11231075 -0.049703903 0.022262441 -0.09520281 -0.055813473 -0.04285562 0.062261056
0.05761972 0.004918194 -0.052942745 0.027616313 -0.06191246 -0.032638486 0.007965576 -0.11315202
0.04066242 0.071172915 0.0020979743 0.020062147 -0.02811428 -0.035950817 -0.096408844 0.10105393
-0.028727612 -0.048556257 0.06928011 0.10437512 0.105749644 -0.048764408 -0.009460356 -0.027689036
-0.009986847 -0.10472258 -0.0018410286 0.12299087 0.011726352 -0.07272648 0.017805776 0.070746794
0.008291701 0.09902086 -0.104963 0.12904309 -0.11864029 0.09536685 -0.048197463 0.07094617
0.09460299 0.02937946 0.0043634884 0.12584127 0.061854865 0.041113522 -0.037626218 0.08448513
0.09849645 0.023192244 0.052687768 0.11141442 0.0723705 -0.04873313 0.112822555 -0.057345834
0.04131894 -0.09159207 0.0694813 -0.030539976 -0.019720864 -0.03885548 0.12156056 0.04032898
-0.10045678 0.05352698 -0.09865224 0.13196073 0.16312766 -0.0024895056 -0.130142 0.0094906315
0.06279094 -0.08692987 0.10307564 0.04859254 0.046861954 0.063524224 -0.03348081 0.1411604
0.078426294 0.023449186 -0.0004785414 -0.04394144 0.061554145 -0.13295448 -0.09382515 -0.061913878
0.07606336 0.0003897922 0.18373811 0.10528619 -0.14300777 0.0959933 -0.04714642 -0.0032696796
-0.10568199 -0.052908283 0.05947633 0.07639669 -0.037836432 0.22060399 0.16645473 -0.04799204
0.036520787 -0.04162171 0.034308456 0.13301097 -0.042504158 0.075300485 0.007958506 -0.02756961
0.025223829 -0.022149833 0.018937223 -0.048222277 0.11021784 -0.05359295 -0.0066544623 -0.08445245
0.11699699 0.060905855 0.12790757 -0.14041238 0.00588767 0.015807964 0.063296884 0.13254465
-0.015201584 0.12062266 0.11831633 -0.08303533 0.01662739 0.08228031 0.0016097293 -0.11417632
0.029453633 0.11903254 0.057356793 -0.102447845 0.0037704946 0.067404196 -0.016658368 -0.05447126
-0.121165976 0.018183613 -0.06338823 -0.089198 0.006846036 0.038790833 -0.08517074 -0.07077735
0.02508276 -0.114618324 -0.12048577 -0.09246629 -0.113998815 0.11926378 0.117799535 0.050326023
0.05821973 0.090444125 0.066915534 -0.037445813 -0.108972974 -0.0126137715 -0.054357827 0.06807881
0.0055621457 -0.066559464 -0.056636274 0.0064529846 -0.05654208 -0.009778146 -0.11381335 -0.0825582
0.04408467 0.01500201 -0.031150583 0.04742073 -0.036633566 0.11508352 -0.10824593 0.049104534
-0.009163644 0.08184318 -0.11230636 0.023564834 -0.031645413 -0.049824003 0.029414898 0.0009928719
00000000: 422f 70bc d62b c73d 5737 993d 6af0 4abd
00000010: 8749 0b3e 137e 4bbb c28b b23c 14f6 50bb
00000020: 6260 bc3c fc0b 89bd e306 9c3d bdd9 a83d
00000030: 4299 e5bc e512 febd 060b 2b3d 7484 3a3d
00000040: 2e8b aebd a0d2 c9bd 7e68 9cbd 4bfe ecbc
00000050: 5911 b63d 2d91 673c 2666 333d e426 b2bd
00000060: c709 a43d 8171 ce3d 5f30 30bc 8dfa b93d
00000070: 7a33 ce3c 7322 013e d75a c0bb 9a77 51bc
00000080: 8159 de3d 04e2 80bd d5cd dc3d 0211 20bd
00000090: d8db 8abb 2828 e53c 42f6 bdbc e1a9 0d3e
000000a0: 6900 03be 5d39 00bd 5756 993c 6a14 09bd
000000b0: be75 e63c 9456 e93d d750 5a3d 862c bbbc
000000c0: 878f 51bd 7864 9bbd b761 b1bd aae6 64bd
000000d0: ae23 c43d cfe7 f3bd 31e1 7d3d 6f78 78bd
000000e0: 34ef fbbb 2e03 e6bd 5296 4bbd b95f b63c
000000f0: b1f9 c2bd ab9c 64bd 6089 2fbd 7305 7f3d
00000100: a802 6c3d cd28 a13b 7eda 58bd 9b3b e23c
00000110: eb97 7dbd efaf 05bd 0c82 023c 3fbc e7bd
00000120: a38d 263d 1bc3 913d 2b7e 093b 5f59 a43c
00000130: eb4f e6bc 2a41 13bd 0072 c5bd 5df5 ce3d
00000140: 2b56 ebbc ede2 46bd bbe2 8d3d 9fc2 d53d
00000150: 4593 d83d 30bd 47bd 9cff 1abc 1ed4 e2bc
00000160: df9f 23bc cb78 d6bd ab4e f1ba a3e2 fb3d
00000170: e31f 403c 9ff1 94bd 6bdd 913c b2e3 903d
00000180: ead9 073c 73cb ca3d d7f6 d6bd df23 043e
00000190: aef9 f2bd b24f c33d b46a 45bd 3a4c 913d
000001a0: 36bf c13d 31ad f03c 98fb 8e3b 89dc 003e
000001b0: 875b 7d3d a766 283d f31d 1abd 8a06 ad3d
000001c0: 82b8 c93d a9fd bd3c 21cf 573d 3e2d e43d
000001d0: fc36 943d 649c 47bd 830f e73d 77e3 6abd
000001e0: 0d3e 293d a094 bbbd 364c 8e3d f92e fabc
000001f0: a68d a1bc ec26 1fbd bef4 f83d 0030 253d
00000200: 49bc cdbd 1b3f 5b3d 300a cabd b720 073e
00000210: f00a 273e f926 23bb f243 05be 987e 1b3c
00000220: 8998 803d 4a08 b2bd 5219 d33d f908 473d
00000230: 52f2 3f3d fd18 823d 2c23 09bd 5a8c 103e
00000240: f79d a03d 8218 c03c bde4 fab9 f0fb 33bd
00000250: 3320 7c3d 3825 08be 6627 c0bd 6899 7dbd
00000260: 1bc7 9b3d 065d cc39 d825 3c3e 49a0 d73d
00000270: a170 12be 2398 c43d 9b1c 41bd 1f48 56bb
00000280: cd6f d8bd 5bb6 58bd 749d 733d de75 9c3d
00000290: 60fa 1abd 03e6 613e 1c73 2a3e 4d93 44bd
000002a0: d296 153d 877b 2abd 0687 0c3d 0734 083e
000002b0: d718 2ebd 2437 9a3d 6564 023c aad9 e1bc
000002c0: 34a2 ce3c 9173 b5bc 3c22 9b3c b984 45bd
000002d0: e4b9 e13d 4884 5bbd ad0d dabb 68f5 acbd
000002e0: 1e9c ef3d 6b78 793d 34fa 023e 43c8 0fbe
000002f0: 5bed c03b b47f 813c cca1 813d c9b9 073e
00000300: 1110 79bc 0309 f73d d54f f23d 6d0e aabd
00000310: 2a36 883c 9482 a83d 8dfd d23a 46d5 e9bd
00000320: bf48 f13c 55c7 f33d f5ee 6a3d 2dd0 d1bd
00000330: 671a 773b 360b 8a3d 2177 88bc 421d 5fbd
00000340: de25 f8bd cdf5 943c b0d1 81bd 71ad b6bd
00000350: b654 e03b 23e3 1e3d ff6d aebd b7f3 90bd
00000360: 5c7a cd3c 03bd eabd 3ec1 f6bd f75e bdbd
00000370: 3678 e9bd 9240 f43d e240 f13d a922 4e3d
00000380: d077 6e3d c53a b93d 030b 893d c860 19bd
00000390: 392d dfbd fea9 4ebc 50a6 5ebd e76c 8b3d
000003a0: a942 b63b 5450 88bd 70fb 67bd 8f73 d33b
000003b0: ab98 67bd 8434 20bc f916 e9bd 4614 a9bd
000003c0: 2092 343d feca 753c 822f ffbc 3d3c 423d
000003d0: 140d 16bd e9b0 eb3d 0bb0 ddbd d621 493d
000003e0: 1c23 16bc 669d a73d e000 e6bd 0a0b c13c
000003f0: 9f9e 01bd 4114 4cbd 83f7 f03c 4123 823a

lstm.bias_ih_l1 f4 [256]
-0.09951265 -0.05117241 0.060758207 -0.028417727 -0.041642785 0.011849097 -0.13014922 0.092455834
0.051402062 -0.10047028 -0.10072828 0.010265332 0.03507299 -0.07046712 -0.059118476 0.0875788
-0.02615232 0.018650182 0.0789408 -0.017409902 0.07808381 -0.115954004 -0.07468292 -0.06660247
-0.085165374 0.0567994 -0.00466021 -0.041051634 0.04041564 0.11324037 -0.1156724 0.033960357
0.07602488 0.081631124 -0.008151744 -0.13956684 -0.10516496 -0.054029427 0.08064428 0.08657966
-0.119276896 -0.12968054 0.08575436 0.03787252 0.095254354 0.0031853728 -0.060763493 0.054856464
-0.0054471274 -0.084933504 0.033648513 -0.09223021 0.023605736 -0.07942584 -0.09439107 -0.03323256
0.010992087 0.057974163 -0.110158764 -0.04821705 -0.04785893 0.118714385 0.12360197 -0.08123374
0.013294123 -0.111067355 -0.10099309 0.042913057 0.018423844 -0.12016852 0.0022532658 -0.079858445
0.020059938 0.11873003 -0.047233116 -0.12035511 -0.055459015 0.03082839 -0.029708922 -0.06313207
-0.109657176 -0.017754292 0.11096407 0.013935111 -0.10946651 -0.08798418 0.071190715 -0.10267659
0.022348441 0.053697173 -0.041810326 0.0708341 0.062654294 0.0889341 -0.11790629 -0.0855739
0.06153662 -0.01692991 0.07348635 -0.03900045 -0.022860626 -0.10191554 0.01784603 -0.056881566
-0.03524756 0.043636285 0.09150616 -0.0060285097 0.048537742 0.026667831 -0.09297104 -0.103246495
-0.04378056 -0.13373742 0.08844989 0.039738145 -0.12274613 0.09847416 -0.066840604 -0.0060096704
-0.031863112 0.05924625 -0.062004596 -0.02959661 -0.09094539 -0.08398898 0.11701168 -0.0065915473
-0.0847338 -0.054401744 -0.05051017 0.11893643 0.014394389 -0.0498882 -0.05171358 0.101813555
0.026049897 -0.020632615 0.012897546 0.051274564 -0.08486155 -0.091776036 0.0484395 0.06598886
-0.048074853 0.06682872 -0.06624834 -0.08670815 -0.05643872 -0.10510656 0.108398326 0.099076755
-0.060283296 0.04803462 -0.0435582 0.117020205 -0.07808481 0.11406075 0.07147951 0.025798235
-0.048358526 0.08070915 0.056256194 0.091812655 -0.08576853 -0.098810256 -0.030046169 -0.011828899
-0.10674565 -0.024237975 0.00401725 0.09791866 0.1152316 0.03771219 0.09299971 -0.10778797
-0.057901777 -0.06851594 -0.072091736 -0.07073413 0.003199387 -0.007622182 -0.018289223 -0.051127616
0.091258295 -0.062106926 0.043548413 -0.10354871 0.058803074 0.029627113 -0.0030985884 -0.004798546
0.048625868 0.07455449 0.11359276 -0.12690288 0.13160515 0.059682235 0.016572071 0.023023799
0.06577256 -0.022909421 0.017098462 -0.09425622 -0.072349235 0.029460842 -0.112221494 0.1230735
0.014022279 -0.032538302 -0.11039817 0.023801446 0.10928997 -0.10643037 -0.019862063 0.12290904
0.06483138 0.12321334 -0.04305305 -0.0030695458 0.063525364 -0.042869207 -0.09962754 0.09838968
-0.120567456 -0.061859578 0.004466987 0.099469736 -0.029461136 -0.08505339 -0.0060224403 -0.1020809
0.07279636 -0.11388801 0.053445376 0.11289199 0.0773057 -0.023522902 0.05344788 -0.11750113
0.01696835 -0.0037533778 -0.10748519 -0.10047349 -0.07860069 -0.08781753 0.10012549 0.0975413
0.066595376 0.09910407 -0.019806722 -0.11421934 0.028538302 0.018229116 -0.050260384 0.08046518
00000000: 4acd cbbd 299a 51bd 99dd 783d 4bcc e8bc
00000010: a091 2abd b722 423c d645 05be 7c59 bd3d
00000020: f88a 523d 5dc3 cdbd a14a cebd ec2f 283c
00000030: b2a8 0f3d 1151 90bd 3726 72bd 845c b33d
00000040: 643d d6bc 44c8 983c b7ab a13d 369f 8ebc
00000050: 68ea 9f3d 4b79 edbd 5cf3 98bd e066 88bd
00000060: 2f6b aebd 7da6 683d adb4 98bb c225 28bd
00000070: df8a 253d 91ea e73d a7e5 ecbd 041a 0b3d
00000080: efb2 9b3d 382e a73d e48e 05bc 9cea 0ebe
00000090: ba60 d7bd f64d 5dbd d428 a53d ad50 b13d
000000a0: 7247 f4bd faca 04be fb9f af3d 3720 1b3d
000000b0: b714 c33d b0c1 503b 24e3 78bd 2cb1 603d
000000c0: d17d b2bb 9ef1 adbd 06d3 093d 31e3 bcbd
000000d0: d160 c13c 04aa a2bd 1b50 c1bd dd1e 08bd
000000e0: 2818 343c 5176 6d3d eb9a e1bd 3e7f 45bd
000000f0: ba07 44bd 8720 f33d 0823 fd3d e05d a6bd
00000100: 98cf 593c 4877 e3bd 77d5 cebd 9ac5 2f3d
00000110: 9aed 963c ea1a f6bd 87ab 133b d38c a3bd
00000120: bd54 a43c bb28 f33d 8377 41bd bd7c f6bd
00000130: fe28 63bd d28b fc3c 2060 f3bc 634b 81bd
00000140: f193 e0bd 7371 91bc 2141 e33d 1850 643c
00000150: fa2f e0bd 0d31 b4bd 70cc 913d 1b48 d2bd
00000160: 1414 b73c 91f1 5b3d 4e41 2bbd 7811 913d
00000170: e550 803d 1523 b63d da78 f1bd 5e41 afbd
00000180: d30d 7c3d 98b0 8abc 0380 963d f0be 1fbd
00000190: 3546 bbbc 18b9 d0bd d631 923c a5fc 68bd
000001a0: bf5f 10bd f6bb 323d 9567 bb3d ce8a c5bb
000001b0: 83cf 463d 7f76 da3c 9a67 bebd e672 d3bd
000001c0: 3f53 33bd 76f2 08be 3725 b53d 77c4 223d
000001d0: 5362 fbbd d2ac c93d bae3 88bd c5ec c4bb
000001e0: e582 02bd 32ac 723d 88f8 7dbd 9774 f2bc
000001f0: 9441 babd 6a02 acbd d2a3 ef3d e8fd d7bb
00000200: ea88 adbd 5dd4 5ebd c1e3 4ebd f194 f33d
00000210: 72d6 6b3c 9257 4cbd 9ed1 53bd a083 d03d
00000220: 9866 d53c bb05 a9bc 3b50 533c 4705 523d
00000230: e4cb adbd 13f5 bbbd 7f68 463d 2b25 873d
00000240: 23ea 44bd 7fdd 883d 36ad 87bd 0b94 b1bd
00000250: 4a2c 67bd 1c42 d7bd f1ff dd3d c1e8 ca3d
00000260: 9eeb 76bd f3bf 443d 156a 32bd 4aa8 ef3d
00000270: eeea 9fbd af98 e93d d963 923d d256 d33c
00000280: 9713 46bd d74a a53d e56c 663d 4608 bc3d
00000290: 69a7 afbd 085d cabd 6223 f6bc 00ce 41bc
000002a0: 779d dabd b88e c6bc 23a3 833b 9489 c83d
000002b0: 8cfe eb3d 1978 1a3d a276 be3d f0bf dcbd
000002c0: 6a2a 6dbd 1652 8cbd d5a4 93bd 0edd 90bd
000002d0: cfac 513b 7fc3 f9bb 48d3 95bc 316b 51bd
000002e0: a1e5 ba3d d563 7ebd d25f 323d 5911 d4bd
000002f0: 7edb 703d 8fb4 f23c b011 4bbb 1f3d 9dbb
00000300: eb2b 473d 06b0 983d 52a3 e83d d4f2 01be
00000310: 80c3 063e 5c75 743d 27c2 873c 689c bc3c
00000320: c4b3 863d 8aac bbbc 1312 8c3c 6809 c1bd
00000330: d62b 94bd dd57 f13c 62d4 e5bd f60d fc3d
00000340: b3bd 653c e246 05bd 7018 e2bd 40fb c23c
00000350: 6bd3 df3d 2af8 d9bd c4b5 a2bc bcb7 fb3d
00000360: 51c6 843d 4757 fc3d 6558 30bd 6f2a 49bb
00000370: 9619 823d 9f97 2fbd 8609 ccbd 8780 c93d
00000380: 12ec f6bd 7860 7dbd ce5f 923b cab6 cb3d
00000390: 7b58 f1bc 7930 aebd e457 c5bb ca0f d1bd
000003a0: 4216 953d 1e3e e9bd 8ae9 5a3d ea33 e73d
000003b0: 7352 9e3d 1ab3 c0bc 2aec 5a3d 6fa4 f0bd
000003c0: 3601 8b3c 3bfb 75bb 3221 dcbd 0cc5 cdbd
000003d0: 66f9 a0bd add9 b3bd 980e cd3d bcc3 c73d
000003e0: 2863 883d 13f7 ca3d b541 a2bc d4eb e9bd
000003f0: 28c9 e93c 3a55 953c d5dd 4dbd eeca a43d

lstm.bias_hh_l1 f4 [256]
-0.04435309 0.003009042 -0.08011548 -0.10847513 0.0380764 0.1385266 0.1094603 -0.023396049
0.038174964 -0.118112154 -0.124076135 0.094725706 0.020989385 0.0030785156 0.018192472 -0.055112023
0.09603269 0.11463436 0.051447477 0.12339995 0.036300167 0.09443166 -0.08098252 0.042465635
-0.08498784 -0.0037088753 -0.06336627 0.03435113 -0.11455047 -0.04122178 -0.049993597 0.07258231
-0.08582335 -0.05333209 0.113400005 0.029774142 0.09842263 0.12707593 -0.07535447 0.021169752
-0.08962481 -0.047580227 -0.01940864 -0.07175553 0.027853722 0.0018436679 0.025136515 0.06405028
-0.04734238 0.081982195 -0.003279225 0.08654774 0.0988963 0.117645845 -0.07482629 -0.043110773
-0.1005455 -0.04841415 0.11356527 -0.0075921114 -0.06367456 -0.09793454 -0.09129429 -0.068348564
0.048625693 -0.06523165 -0.029936658 -0.10809229 -0.12147929 -0.075490326 -0.13138597 -0.009860259
-0.06617427 -0.060856692 -0.14399314 0.04533621 0.05159875 -0.033518128 0.05193152 0.110128105
-0.05326533 -0.09520184 0.0785592 -0.022057708 -0.05149003 0.07312632 0.03601313 -0.09178879
0.030477073 0.064129874 0.1118405 -0.06647402 0.06391456 -0.023914736 0.01797993 -0.12564813
-0.110704474 0.07014129 0.0046730894 0.04232727 -0.07315113 0.07211752 -0.04639467 -0.08414484
0.103748575 -0.08193733 -0.071962394 -0.10412987 0.057189327 -0.033604033 -0.016568199 0.034235246
-0.060505323 0.0048435335 -0.06619127 -0.027990984 0.07220342 0.026909657 0.06955373 0.11950189
0.085946724 -0.04038916 -0.10604723 -0.046867862 -0.00856733 0.11617538 0.014481558 -0.016860573
0.08683455 0.05164175 0.072719224 0.016784832 -0.012066146 0.058321856 0.0007379583 -0.073059365
-0.021660972 -0.055289835 -0.014612553 0.08450436 0.033783257 -0.054599132 -0.042797405 -0.06867582
-0.039657183 -0.06344705 0.038666066 -0.025729407 -0.061714668 0.055393197 0.012511507 0.025199356
0.075192034 0.06777015 -0.06782293 0.062792465 -0.08165753 -0.10688434 0.121062 -0.068813436
0.0012080019 0.04975567 -0.07544229 -0.06582506 0.019818893 -0.001294986 0.07157052 0.025733687
0.0047535696 0.017331423 0.12198862 -0.08132394 0.102226466 0.020181619 0.06958693 0.034020405
-0.04880918 0.11756985 0.06662696 -0.11178003 0.11139336 0.08881563 0.09633257 0.04141129
0.03462178 -0.031804647 0.07811951 -0.08220654 0.029757798 0.07991555 -0.03160929 0.08053208
0.07315752 0.015585617 0.016998356 -0.06306398 0.026415683 -0.1025734 0.05277797 0.06287727
0.03854894 -0.056061275 -0.14590074 -0.07354508 0.034219608 -0.124928884 0.09298329 0.11696269
0.06976253 -0.04905603 0.01286155 -0.008186982 0.01903059 0.0062456853 0.09355437 0.097550616
0.10342409 0.079319626 0.093651704 0.076113164 0.09828706 0.04510394 -0.0798122 0.10291948
0.02796082 -0.06635811 -0.0028747811 0.023141468 -0.09913077 -0.08218046 -0.05099083 0.08877717
0.05131226 0.059478324 0.0553137 0.10029663 0.11249105 0.10196808 0.07718207 0.055267736
0.016360365 0.08329076 -0.11535402 0.05986398 0.122603975 0.042650614 -0.011618269 -0.039677504
0.028112294 -0.056739297 0.043133598 -0.019743856 0.049340498 -0.08049678 -0.0755329 -0.100896254
00000000: 96ab 35bd 5933 453b 9613 a4bd 3528 debd
00000010: 00f6 1b3d ebd9 0d3e b92c e03d 12a9 bfbc
00000020: 5a5d 1c3d c9e4 f1bd a11b febd 8dff c13d
00000030: eef1 ab3c ecc0 493b 6108 953c 25bd 61bd
00000040: c9ac c43d 6bc5 ea3d 97ba 523d 1db9 fc3d
00000050: 7caf 143d 6365 c13d 2ada a5bd 72f0 2d3d
00000060: 1b0e aebd 9a10 73bb 2dc6 81bd c5b3 0c3d
00000070: 7099 eabd 2bd8 28bd 16c6 4cbd 09a6 943d
00000080: 27c4 afbd c072 5abd 433e e83d e7e8 f33c
00000090: ce91 c93d 3120 023e 7253 9abd 306c ad3c
000000a0: 368d b7bd 7ce3 42bd defe 9ebc 90f4 92bd
000000b0: 7d2d e43c 3ba7 f13a 18eb cd3c cb2c 833d
000000c0: 15ea 41bd 48e6 a73d 44e8 56bb f13f b13d
000000d0: 258a ca3d 4ef0 f03d 873e 99bd ec94 30bd
000000e0: cdea cdbd ea4d 46bd e994 e83d 3fc7 f8bb
000000f0: cf67 82bd e791 c8bd 80f8 babd 55fa 8bbd
00000100: bc2b 473d 2c98 85bd b93d f5bc 7e5f ddbd
00000110: 22ca f8bd ac9a 9abd 0b8a 06be ec8c 21bc
00000120: 6086 87bd de44 79bd f072 13be 76b2 393d
00000130: 3659 533d 4e4a 09bd 25b6 543d d88a e13d
00000140: bf2c 5abd 2ff9 c2bd a5e3 a03d 5eb2 b4bc
00000150: 36e7 52bd 41c3 953d 8182 133d c3fb bbbd
00000160: 0eab f93c 8656 833d a20c e53d 8823 88bd
00000170: a3e5 823d d6e8 c3bc a54a 933c e7a9 00be
00000180: 07b9 e2bd 3da6 8f3d b720 993b 5c5f 2d3d
00000190: 42d0 95bd 5ab2 933d 5608 3ebd 2154 acbd
000001a0: 227a d43d c2ce a7bd 0561 93bd 0b42 d5bd
000001b0: 5b3f 6a3d 62a4 09bd 08ba 87bc 423a 0c3d
000001c0: 6ed4 77bd 81b6 9e3b 4a8f 87bd 594d e5bc
000001d0: 63df 933d a471 dc3c 3072 8e3d 68bd f43d
000001e0: d604 b03d 1b6f 25bd 4a2f d9bd 84f8 3fbd
000001f0: fd5d 0cbc 5ced ed3d 0f44 6d3c 2f1f 8abc
00000200: 50d6 b13d 4d86 533d d1ed 943d 5880 893c
00000210: 16b1 45bc e6e2 6e3d 8b73 413a 26a0 95bd
00000220: 5a72 b1bc 9877 62bd 7d69 6fbc 9f10 ad3d
00000230: 5060 0a3d 57a3 5fbd 554c 2fbd e9a5 8cbd
00000240: 926f 22bd 87f0 81bd 4f60 1e3d 7ac6 d2bc
00000250: 85c8 7cbd fae3 623d 10fd 4c3c e16e ce3c
00000260: 48fe 993d 14cb 8a3d c0e6 8abd 5699 803d
00000270: 103c a7bd 2de6 dabd 5bef f73d 0fee 8cbd
00000280: d155 9e3a 9acc 4b3d 7d81 9abd 4acf 86bd
00000290: 3b5b a23c 85bc a9ba 9193 923d 74cf d23c
000002a0: d5c3 9b3b a1fa 8d3c 2bd5 f93d 2a8d a6bd
000002b0: 1c5c d13d ec53 a53c 9883 8e3d fb58 0b3d
000002c0: 22ec 47bd 76c8 f03d b773 883d eeec e4bd
000002d0: 3422 e43d f8e4 b53d 034a c53d e39e 293d
000002e0: 91cf 0d3d 9745 02bd 1ffd 9f3d e75b a8bd
000002f0: a0c6 f33c c4aa a33d be78 01bd 01ee a43d
00000300: 9cd3 953d d15a 7f3c 2340 8b3c b027 81bd
00000310: b465 d83c 0112 d2bd b62d 583d ccc5 803d
00000320: 7ee5 1d3d 82a0 65bd 0167 15be ce9e 96bd
00000330: dc29 0c3d b7da ffbd 066e be3d 238a ef3d
00000340: a8df 8e3d faee 48bd 40b9 523c b122 06bc
00000350: 0ae6 9b3c 9ba8 cc3b 6f99 bf3d 9ec8 c73d
00000360: 02d0 d33d 5472 a23d 77cc bf3d 38e1 9b3d
00000370: ba4a c93d e9be 383d 9474 a3bd 73c7 d23d
00000380: 170e e53c c3e6 87bd d366 3cbb 2d93 bd3c
00000390: 1305 cbbd 3b4e a8bd c3db 50bd ced0 b53d
000003a0: ce2c 523d 8b9f 733d 9e90 623d 5268 cd3d
000003b0: b561 e63d a4d4 d03d a211 9e3d 6c60 623d
000003c0: 2c06 863c 5994 aa3d ba3e ecbd ef33 753d
000003d0: cb17 fb3d 69b2 2e3d 8d5a 3ebc e184 22bd
000003e0: c14b e63c 7767 68bd dbac 303d debd a1bc
000003f0: 4319 4a3d 7fdb a4bd feb0 9abd b2a2 cebd
