nvda_lstm_v7_multistock/V7_2 Sieu Bot 144 loi nhuat_catlo_7_%/Bot thong minh thu 2/best_pretrain.pth (torch, 373378 bytes, 15 tensors)

lstm.weight_ih_l0 f4 [256, 27]
00000000: 7573 c73d 02e2 0c3e 69f4 173d 5bb3 883d
00000010: e662 a4bd c0d3 d73d 4445 e7bd ad4a 8b3b
00000020: 7de0 853d 29f5 d3bd 84d3 f23d 794f 113d
00000030: 3edb 0dbd e3db 81bd 03a9 dc3b 743d 2fbd
00000040: c5e8 55bd abc8 08bd f095 ac3d a5a0 7db9
00000050: 5966 e43d 151f 93bd 7815 c13c b11e ecbd
00000060: 3aed 1d3b 1f4e cd3d 10f2 a23d 088a 0f3e
00000070: 239c 0d3e 3c89 20bd d4ec b43b 905e a8bb
00000080: afa3 893e c5f6 503c bda4 6a3d 9d98 0d3d
00000090: 530f 7f3d 538d 3c3d 2b71 d4bc 148f 5dbd
000000a0: 00db 0b3d a2a2 56bd 8cb0 f13d 57f7 21be
000000b0: 6434 b63e eff3 4a3c ea41 d13c e7ab 133e
000000c0: fdb1 7c3d 787a aebd 44ee 98bd cc86 8d3d
000000d0: 860a b63b 5d5a 133e d7b2 863a d374 033d
000000e0: f08f 283d 56df d8bd 2fa7 103e e79f 0ebd
000000f0: 08d2 163e fa3b 84bd b3a4 58bc 8e48 f53d
00000100: 9630 c2bd 3e45 12bd 7afa 9d3d a0b2 97bd
00000110: 804f 623d b1bf 5b3d 7433 e9bc 397b 76bd
00000120: 359a ef3d e749 f93d e76c 05bd 97e6 b33d
00000130: c8e8 543e cc4c 24be 7332 9fbd 0f4c de3d
00000140: f3d2 14bd a8c4 9b3d d127 423d e1f9 65bd
00000150: 9e8d 00be f454 93bb d4b0 2b3c 6c76 8f3c
00000160: b8df 473c 97f8 ad3d c2b0 963c 3a43 d73d
00000170: 634e 513c fef2 1e3d c567 0a3e 24ee a73d
00000180: cc63 913d 2bd5 8a3d 51ab 2d3e ed8e a3bd
00000190: 8f71 49bd 2136 aabd 54a6 0ebd 2ab1 623d
000001a0: ccea 053e c219 3d3b 2548 ee3d 59bb e23d
000001b0: ebc2 103e 307b 593c 6146 84bd 9e1d b1bc
000001c0: db39 91bd 15f9 933c dc7c 873d 50b1 cbbd
000001d0: dee8 abbd a3fc ac3d b947 a63d 3964 0abd
000001e0: 1d88 2dbd 9eec c9bd 3ae2 04bd 887c 893d
000001f0: e667 cb3d faae fbbd 98d7 aabb fc60 033e
00000200: c6c1 0f3e 5fb0 993d b6bd 6e3d b9a8 003c
00000210: 2583 723d d4f5 023c afde f5bd 1fa1 cb3d
00000220: 2c59 003d a7e9 37bc d253 1c3e 4ac7 a13c
00000230: 759a 163c 471a 993d 0947 e5bb 6d2f 94bd
00000240: a8a7 2abd 49e9 9fbb e877 623d c69b eabb
00000250: 20b2 2cbd 8ce6 9e3d 51b2 053d e7d8 ccbd
00000260: 3189 313e f3f7 b43d a24b 90bc 41de 82bd
00000270: 035d da3d fa92 fc3c 9647 4f3d db5d 1fbd
00000280: 7110 1ebd 1658 c9bd 0f59 643e 5208 683d
00000290: 1bbd 1bbd f003 70bc da4b 7fbd 2d6b 503b
000002a0: ac2a a43c 5a65 353d e357 743d bfbc aabc
000002b0: b9dd eb3d b4ff e0bc 8153 b3bd 7c4f f23c
000002c0: 07a3 b8bd 75f0 76bd 314f 26be 0bae 013e
000002d0: 104b 7b3b d35c 313d 736d a23d 16b1 7a3d
000002e0: a929 553c 18fb 0f3e 6b32 4abe 0523 333d
000002f0: 42e8 16bd 4131 073e 5729 813c 98cb b53d
00000300: 85cd e13d b95f c43d 8d18 be3c 43d6 2c3d
00000310: c41e 10bb fa63 4f3d 4919 133e bcce 943d
00000320: e0fa 153d 17a4 213e f10a 80bd 9dd9 0a3e
00000330: 59e2 073e 23bc 863d 1e38 31bd 8278 013e
00000340: 16c9 303e 2842 49bd c01f f9bd 46c7 563d
00000350: c66a 353e 466d 88be 92eb 033e 7beb 333d
00000360: 95d2 bb3d f038 573d 6950 0b3e 72b9 6c3d
00000370: 939c 0d3e a124 f53b 9c47 703d 7544 f2bc
00000380: 1e41 b63d 5183 d73d aeeb 98bc 695a 213e
00000390: 61a1 0f3e 4922 34bc c9a9 68bd adc2 373d
000003a0: b8c2 993d 8093 9abe 262b f93c fa8b 1ebd
000003b0: aa49 023e 7e23 a03d 8bb2 b93c adb1 0f3d
000003c0: 2e04 39bc c5ca a73c 67fe 263e 0ad3 a33d
000003d0: 9679 97bd d611 93bd b439 9cbd 1935 9a3b
000003e0: b6f1 133e 850b f33d b2e4 713d 9ac5 8b3b
000003f0: bbd0 b33d b6e7 c9bd 1691 07bd ef61 22bd
0.097388186 0.1375809 0.037098322 0.06674834 -0.08026676 0.10538435 -0.11292508 0.0042508454
0.06536958 -0.10349495 0.1185675 0.03547618 -0.034632914 -0.06340768 0.006734015 -0.042783216
-0.05222394 -0.033394497 0.08427036 -0.00024187805 0.11152334 -0.07183663 0.023569807 -0.115292914
0.0024097697 0.10024666 0.07956326 0.14017498 0.13829093 -0.039193377 0.005521396 -0.005138226
0.26882693 0.012754147 0.057286013 0.03456937 0.062270474 0.046033215 -0.025932869 -0.054091528
0.0341444 -0.052401192 0.11801252 -0.15817009 0.35586846 0.01238726 0.025544126 0.14421044
0.06169318 -0.08519453 -0.074673206 0.06910476 0.0055554537 0.1438994 0.0010276687 0.032093834
0.041152894 -0.10589473 0.14126275 -0.034820464 0.14728558 -0.06456752 -0.013222861 0.11976729
-0.09481923 -0.035710566 0.0771379 -0.07407117 0.0552516 0.053649608 -0.028466918 -0.060176108
0.116993345 0.12172299 -0.03257456 0.08784216 0.20791924 -0.1604492 -0.07773294 0.10854351
-0.03633399 0.076058686 0.047401253 -0.056146506 -0.12554023 -0.004496211 0.010479171 0.017512523
0.012199335 0.084946804 0.018394832 0.10510869 0.0127750365 0.038805954 0.13516147 0.081997186
0.07099113 0.0677894 0.16959883 -0.07986245 -0.049180564 -0.083111055 -0.03482659 0.055344738
0.13077849 0.0028854464 0.11634854 0.1107089 0.14136855 0.013273999 -0.06458736 -0.021620568
-0.07091113 0.018063108 0.06615612 -0.09945929 -0.08394025 0.08446624 0.08119149 -0.033786986
-0.042366136 -0.09859584 -0.03244231 0.067132056 0.099319264 -0.122892335 -0.005213689 0.12829965
0.14038762 0.07504343 0.05828639 0.007852727 0.0592071 0.00799318 -0.12005364 0.09942841
0.03133504 -0.011225141 0.1526635 0.019748349 0.009192099 0.07475715 -0.0069969934 -0.07235608
-0.041663796 -0.0048801047 0.055290133 -0.007159683 -0.04216206 0.07758817 0.03264076 -0.10002308
0.1733749 0.08836355 -0.01761419 -0.06390048 0.10662272 0.030831803 0.05060538 -0.038907867
-0.0385899 -0.09831254 0.22299598 0.05664856 -0.038022142 -0.014649376 -0.062328197 0.0031802163
0.020039879 0.04428611 0.059654128 -0.020841954 0.115168996 -0.027465679 -0.087561615 0.029578917
-0.0901547 -0.06028791 -0.16241147 0.12664048 0.0038344301 0.043301415 0.07931032 0.06120404
0.013010421 0.14060628 -0.19745795 0.04373457 -0.036842592 0.13202383 0.015766783 0.08876723
0.11025528 0.0958857 0.023205066 0.042196523 -0.0021990994 0.050632454 0.14365114 0.07265994
0.036616206 0.15785252 -0.06252087 0.13559575 0.13269939 0.06578853 -0.04326641 0.12643626
0.17264208 -0.049135357 -0.12164259 0.052436136 0.17716512 -0.2664587 0.12882832 0.043925744
0.09171025 0.052544534 0.13604893 0.057794042 0.1382926 0.007481173 0.058662042 -0.029573658
0.08899139 0.105230935 -0.018667068 0.15757145 0.14026405 -0.010994502 -0.056802545 0.04486339
0.07507843 -0.3019066 0.030416083 -0.03870771 0.12723413 0.078192696 0.022668144 0.035081554
-0.0112925 0.02048243 0.16307984 0.07999237 -0.073962376 -0.07181136 -0.076281935 0.0047060368
0.14447674 0.118674316 0.05905599 0.0042654993 0.087800466 -0.098586485 -0.03309735 -0.039644178

lstm.weight_hh_l0 f4 [256, 64]
00000000: a2c1 a43c 19f6 70bd d548 db3d b1a2 fe3d
00000010: ca6a d0ba d3e0 aa3d c11f 023c d5b3 87bd
00000020: 9237 efbd a376 54bd 2fed d53d fecb b4bc
00000030: b614 293e 062d bbbd e86b 943d 6734 59be
00000040: 317f 3cbe 25a5 ac3d 0193 c3bd 298d 2a3b
00000050: 44fc 10bd 7d31 b1bd 3e7a 833d 70af f43b
00000060: 15c4 4bbd cba1 7ebd b674 34be 1088 a03d
00000070: 4d34 763c e1ee 0abe e1be e13d db2f 663d
00000080: 4b22 2e3b d444 6c3d 28ba 7bbd 7f75 bd3d
00000090: a8e0 d73d e8f1 cb3c ce9f c3bd cf1b dd3c
000000a0: 52de fd3d 237e 75ba 0c61 543e a33f aebd
000000b0: 209e aa3d c141 503c f796 173d 3f12 12be
000000c0: 7690 123e 2657 f83d e965 1ebd b7b9 2bbd
000000d0: b595 c83d e91e d7bc 2a3b 063e 5ef5 76bd
000000e0: 5cf6 183d d046 f8bc e458 643e 1e97 d0bd
000000f0: b63a 773c 44b1 b8bc 6950 dabd 7a93 36be
00000100: 6854 a9bc e4a9 1a3b d807 153d 1bb0 e53c
00000110: 9c07 94bd 9b2c 97bd b96b 60bd 4b42 03bd
00000120: 12f3 1d3d a3f1 24bc 043a 3dbd 4758 7f3c
00000130: b90a 163e d798 1b3d be6c d6bd 03e5 2bbe
00000140: 0c5e c53d d2b7 783e e562 bfbd d13a a5bd
00000150: 930e 93bd 6659 3ebd 41ca 843e 1ca3 dfbd
00000160: 4fba 923d 7fe0 d3bd e1c6 90bc 94bb 9f3d
00000170: af5f d2bc 9d9f 133b 5f0f 22be 5a9e 97bd
00000180: ea18 d2bd c483 4d3d 0d70 d53c bdb5 e53d
00000190: 0a18 253e 40c5 fabd 9d6c 86bb f6cb 50be
000001a0: 5541 24be 9e0a 98bb 68c0 c6bd 2eac e03d
000001b0: 78bd ff3a 0c5c c6bc 44b5 0abe 595c fdbc
000001c0: 742f 293d 7afc 003d 2bc1 19be 1cba 05bd
000001d0: 2bd0 0fbd ad14 073e 1d90 bebd 1e07 cb3d
000001e0: 500a b7bd a089 4bbc 70c0 e33c f3c5 953a
000001f0: ee61 eebd 1493 e2bd 2221 743d 1bcd 6bbd
00000200: a801 7f3d d69a 8c3c 202b 193d f0e5 1b3e
00000210: dc13 b13d edf3 e53d c344 ce3d 4344 00be
00000220: 5460 d13d 34aa edbd 202a d4bd 8eb5 dabd
00000230: 734e 00be 4ffa 8c3d 1e3a 9cbd ba5a a3bd
00000240: a9ec 0fbc ce4c 4dbd 5567 1d3d 67ed 95bc
00000250: 9eea cdbd f3fb 1e3c cc8b 3dbe b3d9 273d
00000260: 65e0 cabd a716 30bc cc6a 8e3d 9393 fa3a
00000270: f770 d1bd ebcc 0b3c 0ff3 1bbc 13a7 82bb
00000280: 051d a43d 6541 883d 019c 493d 7e56 aa3d
00000290: d210 933b eb60 a3bd 7b72 24bd 4d2e c13d
000002a0: b7a3 07bd fcca 8c3d 716a 17bc 70c3 a63d
000002b0: ba71 ae3d 6052 e2bd 563f 383d 3a95 c53d
000002c0: 2a14 9b3d 3b58 f8bc a6ff ae3d 10da a3bd
000002d0: 080a c1bd ff9e 3fbc 7763 9bbd bae3 f4bd
000002e0: 9f0c bebd b2c2 8bbc 16cf fe3d a814 e13d
000002f0: c651 4b3e 99e2 a13c 676e 9bbc 88fb 1dbd
00000300: 122f 93bc 8ea6 fcbd 1a37 183e 219b c9bd
00000310: b25e d83d c866 8f3d 86fc 1bbe ffdc 24be
00000320: 3222 72bb 78bd 47bd 8102 a33c 7ebc 34bd
00000330: 96ff 5a3d b3cd 193d 8a03 223e 20aa a93c
00000340: 249b 093d 7a77 05bd 384f 153e e2fd b23c
00000350: 2503 173e cc17 21bd ae15 2ebe b0b0 07be
00000360: 39d6 d13d 6f1d d8bb f8f6 ab3d 9fd1 373d
00000370: 517a 9f3d 1fa4 973c c2aa 03be 1597 bfbd
00000380: 34e6 223d ea2b 2b3e da6e 55bd d35f ce3d
00000390: 653b dc3d 056e b23d 6a21 f23d 320d 8bbd
000003a0: 202d 92bd 927e 9fbd aafe 0ebb e70e 20bd
000003b0: a3a2 d7bd 76fa c6bd 5f7a b8bb 7159 973d
000003c0: 979c 953d f311 4ebd f781 cb3d 4db5 89bc
000003d0: 64fd 3f3a 7fd0 84bd d120 b53d 6e83 1c3e
000003e0: 5a37 e93c aaa9 75bd a228 cf3d 2395 e7bd
000003f0: c2ca 133e 334f 2e3e 3e24 3c3e 71ff c73d
0.020111863 -0.058828447 0.10707251 0.12433375 -0.0015900966 0.08343663 0.007942141 -0.06626097
-0.11680521 -0.051870953 0.1044563 -0.022069927 0.16511807 -0.09139447 0.07247144 -0.21211396
-0.18407895 0.08429936 -0.09549523 0.002602408 -0.03539683 -0.08652017 0.064198 0.007467203
-0.049747545 -0.062166017 -0.17622647 0.07838452 0.015027118 -0.13567688 0.110227354 0.056197982
0.0026570733 0.057682827 -0.06145683 0.09250926 0.10540897 0.024895623 -0.09551965 0.0269908
0.1239592 -0.0009364804 0.20740145 -0.085082315 0.08330941 0.012710989 0.037009206 -0.14264773
0.1431292 0.12125997 -0.038671408 -0.04192516 0.09794179 -0.026259856 0.13108507 -0.060292594
0.03734432 -0.030307204 0.22299534 -0.10185073 0.015089681 -0.022545464 -0.10659868 -0.17829695
-0.02067013 0.0023599798 0.036384434 0.028038075 -0.07228014 -0.07381555 -0.054790232 -0.032045644
0.038561888 -0.010067376 -0.046197906 0.015585012 0.14652528 0.037987556 -0.1046996 -0.1678658
0.09637079 0.24288872 -0.093450345 -0.08067859 -0.07180514 -0.046471976 0.25935557 -0.109197825
0.07164442 -0.103455536 -0.017672958 0.077994496 -0.025680391 0.0022525557 -0.15826176 -0.0740325
-0.10258658 0.05017449 0.026054407 0.112163045 0.16122451 -0.12244654 -0.004102303 -0.20390305
-0.16040547 -0.0046399375 -0.09704667 0.10970341 0.0019511422 -0.024213813 -0.1354571 -0.030927824
0.04130502 0.03149078 -0.15015094 -0.03264819 -0.035110634 0.13191481 -0.09304831 0.09913467
-0.08937514 -0.012422949 0.027801722 0.0011426791 -0.11639772 -0.11063209 0.05960191 -0.05756865
0.06225744 0.017163675 0.037394643 0.15224433 0.08646366 0.11228166 0.10071709 -0.1252604
0.10223451 -0.11604729 -0.10359597 -0.1067916 -0.12529926 0.0688368 -0.076282725 -0.07976289
-0.0087844515 -0.050122075 0.038428623 -0.018301679 -0.10054515 0.009703624 -0.1851036 0.0409791
-0.09906081 -0.010747588 0.06953964 0.0019117467 -0.102266245 0.008532743 -0.009518399 -0.003987202
0.080133475 0.06653098 0.049221043 0.08317278 0.004488089 -0.0797747 -0.04014824 0.09432659
-0.033115115 0.06874654 -0.009241686 0.081427455 0.08517785 -0.11050868 0.044982277 0.09647603
0.07572205 -0.030315509 0.08544855 -0.080005765 -0.094257414 -0.0116956225 -0.07587331 -0.11957498
-0.09279751 -0.017060611 0.12441842 0.10990268 0.19855413 0.01976137 -0.018973542 -0.038569957
-0.01796678 -0.12336455 0.1486477 -0.098440416 0.10564937 0.07002026 -0.15233049 -0.16099928
-0.0036946652 -0.048764676 0.019898655 -0.044125073 0.053466402 0.037549686 0.15821663 0.020711005
0.03359522 -0.032584645 0.14581001 0.021849576 0.14747293 -0.039329335 -0.17000458 -0.13250995
0.10245938 -0.0065953056 0.08396715 0.044877645 0.07787002 0.018510876 -0.12858108 -0.093549885
0.03977032 0.1671597 -0.05210767 0.10076871 0.10753516 0.08712391 0.118227795 -0.06789626
-0.07137513 -0.07787813 -0.0021819272 -0.039076712 -0.10529067 -0.097157404 -0.005629822 0.073901065
0.07305258 -0.050310086 0.09936898 -0.016810084 0.000732383 -0.0648508 0.0884415 0.15284511
0.028468776 -0.059976257 0.10115172 -0.113077424 0.14432815 0.170224 0.183732 0.097655185

lstm.bias_ih_l0 f4 [256]
00000000: eb62 68bc 57fc c43d 52f3 b63d 4f2e d6bc
00000010: 4c7a 393d 426f 0e3d 6408 073d 1385 c43d
00000020: 6dfe 01bd d707 87bd cf30 c33d 6961 9bbc
00000030: 86f7 0f3d 1a8d 6e3d b8df 673c afb7 203e
00000040: d809 333e 1ea7 de3d 0bae d3bd 07cc c33c
00000050: add8 c5bc 3f3a a8bd 8a3e 223c a294 023d
00000060: a7ce 36bd 5db6 0e3e c32d 273e 20a0 e5bb
00000070: 7b2c e23d 1478 d2bd 85cc 253e e3c0 b33d
00000080: 8c0e 19bd 70d4 4ebd aa65 aa3d cc55 a23d
00000090: 8a56 f83d 24f2 413d 9d31 503d 4171 64bd
000000a0: 8c87 be3d 186a 43bd 08e8 533e 738f c83d
000000b0: 7a93 fc3d b037 bc3b 8946 79bd fd5f 113e
000000c0: f8de 513c 8533 d73c 4b94 babd 5129 a1bc
000000d0: 8074 bd3b 2b18 d83d 1cfc e53d b0b4 a73c
000000e0: c3a3 b4bd cfe6 7fbc aaba 893d 4e5d 553d
000000f0: 43a7 143d 1dc3 e23d fa8b 28bd 6953 f53d
00000100: cd3b 93bd 809d 053e 4685 133e 8dd6 073e
00000110: e0ad ab3d 178d 0a3d 4a82 f03c e9ae 143e
00000120: 3db6 083e d5ef 3b3c afb6 013e 7a4d ac3d
00000130: aa24 1b3d 493d 8e3d 2971 a8bd b65d 6f3d
00000140: 36da e1bb 6634 03bd d5af 8f3d 3278 dbbd
00000150: 8f29 573e 4df1 443d aa53 533d 4279 043d
00000160: 272e abbd 1471 273e c1c0 213e 1e90 6abd
00000170: c12e 533d edb2 043e 2be9 743a 3d6d a53a
00000180: 840a fe3d 3cc7 8fbd c283 72bd 0720 973d
00000190: 3525 363e 2223 8dbc e511 33bd 7eaf 583d
000001a0: 58f4 8b3c 1cfd 1a3d f45e 1d3e 46b5 47bd
000001b0: 70c1 87bd 48cf 563d 494b 353d a57c dd3d
000001c0: 2b28 a23d 9e7c e63b 2bc4 003e 9f4a b3bd
000001d0: 8486 bcbc 66af 843d 895f 3f3d 9bfc f33c
000001e0: 300c b0bd 3a7d ad3d 6d3b d73d 4090 853d
000001f0: cf87 48bb 8c66 c2bc 0f18 133e 5925 f53d
00000200: 00a0 113d 0069 82bd 12af 313d fec0 733d
00000210: 6387 c6bd d10a f83d 4c2c 5ebc 8675 e53c
00000220: 5706 b6bc 1dc6 da3c 130f babc ecd7 d7bd
00000230: 76e9 db3d fbb7 b4bd e8be be3d 3808 003e
00000240: 5882 d03c e6e5 83bc 9990 d33d 995c c8bc
00000250: 6298 ebbd ac69 c4bd 8c76 ad3d 1ca7 eabd
00000260: 567e 97bc 20e1 53bd c1f4 f7bc 341d 8b3c
00000270: e1ee c03c 442e 87bd 1e2e 403d b198 24bc
00000280: f263 943d 927c a33d e5b6 b5bd de85 ef3d
00000290: 7741 b93d 7ed5 463c 9541 113b de0f 99bd
000002a0: 5be3 a0bd 4a93 af3d a5d5 923c 45e1 56bc
000002b0: 1e01 513c 6037 3cbd 4ccc 2cbd 7dd0 eb3d
000002c0: 1470 2ebd 89e7 0a3d 9baf bc3a 6e28 16be
000002d0: 58e3 d43d 992d fa3c 1003 7ebd b0fd b93c
000002e0: e053 953b 90c0 8e3d 095d 39bd 9ea0 dfbd
000002f0: 3a2b 003e 64fa 8cbd b566 ffbd 6337 393d
00000300: bd97 45bb e335 5a3d 6b40 be3d 5f7b c53d
00000310: b602 c23d 3ea7 47bd 5930 e2bd 28b5 18bb
00000320: 32f2 1dbc 67b2 e7bd 6bdb 8fbd d6f2 cebd
00000330: a5d3 12bd 1d61 b33d ec1a 79bc 01ab 393d
00000340: d52f 343d 00b4 bdbc 28ca 193d 0d9c 88bd
00000350: 6388 ef3d 0fe8 92bd b8fc 0cbd 9557 c63d
00000360: 75b1 a13d 1c9a 053e 488a 643d 6a6b 24b8
00000370: 923c 133e 39c9 5e3d ecc8 1a3e d02a f3bd
00000380: 3248 633c 5ade 5bbc 835b e13d 47c4 f7bd
00000390: ddf9 1a3c 62a9 8dbd 31ee 88bd 8883 ad3d
000003a0: 0b9b c63d a31b 143d 5b22 6db8 5f62 b3bd
000003b0: 4e7d ad3c fe2d d0bc 4050 c83d 07c4 1e3e
000003c0: 4308 ce3d dcbb 313d 7dbf 013e f4ec f3bc
000003d0: c14f f53d d02e 33bd 0ec5 a9bc f0e8 aebd
000003e0: 9191 6d3d 4526 b73d 3aa9 da3d 834f 1ebd
000003f0: cf14 5f3d 8e11 6dbd 5bfa a3bd 8c03 2d3c
-0.01418374 0.096184425 0.089331284 -0.026145129 0.045282647 0.034774072 0.032966986 0.095956944
-0.03173678 -0.06593292 0.09530794 -0.018967347 0.035148166 0.058240034 0.01415246 0.1569507
0.17484224 0.10871719 -0.103359304 0.023900999 -0.02415117 -0.082142346 0.009902606 0.03188003
-0.044630673 0.13936754 0.1632605 -0.007007614 0.1104364 -0.10276809 0.161913 0.087770246
-0.03736739 -0.050495565 0.08320172 0.07926521 0.12125881 0.047350064 0.050828565 -0.05577207
0.09303197 -0.0477086 0.20693982 0.09792986 0.123328164 0.005743943 -0.060858283 0.14196773
0.012809508 0.026269684 -0.09110316 -0.019673022 0.00578171 0.10551485 0.11229727 0.0204719
-0.088202976 -0.015618994 0.067250565 0.052090935 0.036292326 0.11072371 -0.041149117 0.119788
-0.071891405 0.13048363 0.14406309 0.13265438 0.083827734 0.03382596 0.029359002 0.14519848
0.13350768 0.011470755 0.12667345 0.08413215 0.037876762 0.06945283 -0.082247086 0.05843898
-0.006892468 -0.032032393 0.07015959 -0.10716285 0.21011947 0.048081685 0.05159346 0.032342203
-0.08358412 0.1635173 0.15796186 -0.057266347 0.05155826 0.1295888 0.0009342606 0.0012621057
0.124043494 -0.07020423 -0.059207685 0.073791556 0.17787631 -0.017228667 -0.043718237 0.052901737
0.017084286 0.03783904 0.15368253 -0.04875686 -0.06628692 0.052443773 0.04426125 0.1081479
0.07917818 0.0070338985 0.12574832 -0.08754467 -0.02301336 0.06478767 0.04672197 0.029783538
-0.085960746 0.08471151 0.105093814 0.06521654 -0.0030598526 -0.023730539 0.14364646 0.11970014
0.03555298 -0.063676834 0.04337985 0.059510224 -0.09693792 0.12111438 -0.013560366 0.028010141
-0.02221982 0.026705796 -0.022712266 -0.10539231 0.107378885 -0.08824154 0.09313756 0.12503135
0.025452778 -0.016100835 0.10330314 -0.024458217 -0.11503674 -0.09590468 0.08469877 -0.11457655
-0.018492859 -0.051728368 -0.030268075 0.016981699 0.023551406 -0.06600621 0.04691898 -0.01004617
0.072456256 0.07982744 -0.08872775 0.11695455 0.090456896 0.012135861 0.0022164334 -0.074737296
-0.078558646 0.08573015 0.01792414 -0.013115232 0.012756614 -0.045951247 -0.04218702 0.11514375
-0.042587355 0.033912215 0.0014395596 -0.1466386 0.10394925 0.03053932 -0.06201464 0.022703975
0.004557118 0.06970322 -0.04525474 -0.10919307 0.1251649 -0.06883696 -0.12470762 0.045218837
-0.0030150258 0.053274047 0.092896305 0.09642672 0.09473173 -0.04874348 -0.11044378 -0.0023301337
-0.009640263 -0.113133244 -0.070242725 -0.10104911 -0.03584637 0.08758757 -0.015204173 0.045329098
0.04399093 -0.02315712 0.037546307 -0.06670389 0.116959356 -0.07173168 -0.0344207 0.09684674
0.07895175 0.1304707 0.055795938 -3.9200684e-05 0.14378574 0.05439112 0.15115708 -0.118734
0.013872193 -0.013419712 0.110037826 -0.12097984 0.009458986 -0.06917073 -0.066860564 0.08472353
0.09697541 0.03615917 -5.65372e-05 -0.08758997 0.021177914 -0.025412556 0.097809315 0.15504466
0.100601695 0.043392047 0.12670703 -0.029776074 0.119781025 -0.043745816 -0.020723846 -0.08540523
0.05800015 0.08942846 0.10676809 -0.038650047 0.054463204 -0.05787807 -0.08006736 0.010559928

lstm.bias_hh_l0 f4 [256]
00000000: 5db8 6fbd 5739 1d3e 1d11 9a3d dd36 0cbd
00000010: 1da6 f7bd 686b 33bd f0b3 f53d 1268 b73d
00000020: 9566 a7bd 9ac6 623d bf98 cabd ba50 e8bd
00000030: 4a1a a43d 8548 df3c c330 62bd 0353 393e
00000040: f361 1a3e 1885 d73d 11a2 e43d a3ac babb
00000050: 8814 c2bc fb98 133a ab50 ddbc a2a0 01bd
00000060: 64ee 023e 2f36 673e 75c4 9a3b 06b0 3f3c
00000070: deba ca3c 323a ba3d 9d3a 17bc 63dc c2bc
00000080: 9add b23c 3c0d b0bd 3798 af3d 5a03 423d
00000090: dac2 3f3e 3cd6 5abc f7eb 72bd 823d 573d
000000a0: 7762 55bc 5608 e43d 537d 0f3e f75e be3d
000000b0: c570 9bbd bc9c d93d 8504 af3d 5c34 933d
000000c0: 3f59 153b 451f 4f3d 5d97 66bd 91be 0ebd
000000d0: 6fd8 e33d 1ae3 093e fc19 d53d 1a25 97bc
000000e0: 06d7 87bc e3d4 0abd 960c 10bd 31b8 cf3d
000000f0: a333 463e 332f 053d cd85 4bba 023f 7abd
00000100: 9c3a 3a3c eb6d b63d 6cfb 20bd 47ec d23d
00000110: 986f 52bc 6c7b a43d ce35 61bd 8d8e 8bbb
00000120: 3977 8a3d 31d9 b5bd b1f1 093e 4261 cdbd
00000130: 2a86 6fbd f7c5 a83d b710 d53c b6ec 153c
00000140: abdd 053e 44bc 293e 11da b2bc 9cc4 92bd
00000150: f290 7a3d 58fe 703d 5e65 8e3c 8dfc 003e
00000160: 596f 3c3d ca23 a13c 132e 09bd bc4b 163c
00000170: 3c3d cc3d e79d e3bc a14c d2bd dbdc bbbc
00000180: 76af 13bd e9aa 243d a4a7 c03c ff6f 993d
00000190: 9d0d f33d 137e 833d 7e76 a3bc bbb6 163e
000001a0: 791c d83c fe34 da3d 8727 283e 9e81 e93d
000001b0: d92b 6dbd db93 cfbd 9a0f d73c cd32 e6bc
000001c0: c8dd df3c 71c3 8e3d b086 a8bd 0af6 ab3d
000001d0: bde9 d7bc 1820 aabc 573c 183b 7912 4a3d
000001e0: fb28 84bd bf4d eabc 25aa bbbd 6c07 dcbd
000001f0: 38c1 cf3d c8db 8bbb 7685 24bd eb85 3e3c
00000200: db30 eb3d 3279 f43c ed08 b13d 0e05 7ebd
00000210: b50c 533d c4d0 b33c f1e0 463d 3ff4 b3bd
00000220: 23e5 c23d b9af 813d 5deb 4bbd 4b1c 2cbd
00000230: 1e76 63bc 1e2a 313d a078 8b3d 107f 49bd
00000240: d27b 293d 4c38 39bd b6b8 99bd a3e8 77bd
00000250: 1c08 8d3d 9a4c 5bbc 599e aa3c b58c 4c3d
00000260: bf20 743d a75e 883d 6ebb e43b e5ad db3c
00000270: 79b5 b73a 1f90 b5bd ade5 7f3b c60b 643d
00000280: 19e5 4dbd 8ef9 c3bd c97d 8f3d be4f f93d
00000290: 992f f2bb 65cc c3bd cb56 b93d 9f63 013c
000002a0: 0cf8 07bd b6e7 98bd 011f a43d a8de 633d
000002b0: b592 b73c b4da a5bd a5be 28bd d217 41bd
000002c0: b5fc c6bd e7e2 c9bc f12a e5bd 38ce bc3d
000002d0: c87e 12bc b296 9f3d f0d5 e43c 2bc8 853d
000002e0: 396b ed3d 3c3c e1bd 536f 81bd f967 66bd
000002f0: 6131 27bd aed0 d63d 0ca7 8c3d af1d 87bd
00000300: fad9 bd3d 8896 43bd 189a df3d b0f1 8f3d
00000310: 9c91 e4bd f3ff de3d 8859 67bd a4d6 44bd
00000320: 87f7 553c 33a5 23bc 879d 11bd e678 03be
00000330: 5c13 223e 77bb 9f3d c9fc 95bc 66ac 0b3e
00000340: 36b2 e93d c317 263e b78c 4f3c 434f a6bd
00000350: 015b 20bd a7ef 94bd d23e a93d f801 8b3d
00000360: c927 acbd f2a3 7b3e 439a 933d 854d 013e
00000370: e539 103e 645f 9ebd 8ce8 b73d 2932 ff3b
00000380: 01cb 883d 33c8 e83d 89d3 da3d 5d83 393d
00000390: 813a 6dbd 85f6 8ebd 1832 603d c44e 343d
000003a0: a2e5 863d 8d8a fabd 3076 f03d 9b5a 0b3d
000003b0: bd26 943d ebb6 ad3c 4db2 0fbd a3bd 0e3e
000003c0: f56e 41bc 9a05 433e 2954 563d 47f8 f7bb
000003d0: 7430 ccbd a294 9fbd b778 8a3b 2210 b6bd
000003e0: 5323 e8ba da13 db3c 50ba dd3c 33c2 073e
000003f0: d1d5 153d de40 f43b 2c56 dcbb 6324 2abd
-0.058525432 0.15353905 0.07522795 -0.03423201 -0.120922305 -0.043803602 0.11997211 0.08955397
-0.08173863 0.055365182 -0.09892415 -0.11343522 0.08012827 0.02725626 -0.055222284 0.18098073
0.15076427 0.105234325 0.11163724 -0.0056968494 -0.02369143 0.0005630401 -0.027016005 -0.031647332
0.12786251 0.22579263 0.0047231265 0.011699682 0.024747308 0.09093131 -0.009230283 -0.02378673
0.021834183 -0.08596274 0.085739546 0.047366478 0.18726674 -0.0133567415 -0.059307065 0.052548893
-0.013023964 0.111344025 0.14012651 0.09295457 -0.075898685 0.10625598 0.08545784 0.07187721
0.002278879 0.05056693 -0.056296695 -0.034849707 0.11125266 0.13465539 0.10405347 -0.018450309
-0.016582023 -0.03389443 -0.035168253 0.101425536 0.19355635 0.032515716 -0.00077637733 -0.061095245
0.011366513 0.08907684 -0.039302275 0.102989726 -0.012843989 0.08031353 -0.054982953 -0.0042589367
0.06761021 -0.088793166 0.13471104 -0.10028316 -0.05847756 0.08240884 0.026008947 0.009150675
0.13072841 0.16575724 -0.021832498 -0.071664065 0.061173387 0.05883631 0.01738232 0.1259634
0.046004627 0.019670386 -0.033491205 0.00917333 0.09972617 -0.027785255 -0.10268522 -0.02293246
-0.036056004 0.040202055 0.023517437 0.07492065 0.11867831 0.06420531 -0.019953962 0.14718144
0.026380764 0.10654639 0.16421328 0.11401676 -0.057903145 -0.10135623 0.026252557 -0.028100396
0.027327433 0.06970871 -0.082288146 0.083965376 -0.026356572 -0.020767257 0.0023229325 0.049334023
-0.06453129 -0.028601525 -0.09163312 -0.10743603 0.101442754 -0.0042681433 -0.04016634 0.011628608
0.11483928 0.029842947 0.086442806 -0.06201654 0.05152579 0.021950133 0.048554365 -0.087868206
0.095163606 0.063323446 -0.049785007 -0.04201917 -0.013883142 0.043253057 0.06810117 -0.049193442
0.04137785 -0.045219705 -0.07505934 -0.060524594 0.06886312 -0.013384962 0.02082746 0.049938876
0.05960154 0.066586785 0.006980351 0.026816318 0.0014015875 -0.088653795 0.003904681 0.05567529
-0.050267313 -0.09569083 0.070064135 0.12173413 -0.007390928 -0.095604695 0.090497576 0.007897287
-0.03319554 -0.0746607 0.08013726 0.055632263 0.022408823 -0.08098355 -0.041197438 -0.047141857
-0.09716169 -0.024644328 -0.11189831 0.092190206 -0.00894136 0.07792415 0.027934045 0.0653232
0.11592717 -0.10997817 -0.063200615 -0.0562515 -0.040818576 0.10489021 0.06867799 -0.065974586
0.09270091 -0.04775098 0.10918063 0.0702852 -0.11160585 0.10888662 -0.056481868 -0.04805626
0.013059503 -0.009988117 -0.03555062 -0.12839088 0.15827698 0.07799428 -0.018309014 0.13639984
0.11410944 0.16220002 0.012667826 -0.08120587 -0.039149288 -0.072722726 0.08263935 0.06787485
-0.08406026 0.24574259 0.072071575 0.12627228 0.14084585 -0.07733038 0.08979902 0.007787962
0.06679345 0.1136631 0.106848784 0.045291293 -0.05791712 -0.069806136 0.054735273 0.04402043
0.06586768 -0.12233458 0.117412925 0.034021955 0.07233951 0.021205386 -0.03508215 0.13939528
-0.011806239 0.19045106 0.052326355 -0.0075674388 -0.09970179 -0.07792021 0.004225816 -0.08889796
-0.0017710723 0.026742864 0.02706638 0.13257675 0.036580864 0.007454022 -0.0067241397 -0.041538607

lstm.weight_ih_l1 f4 [256, 64]
00000000: b806 793c 93be 3b3b 28e1 c53d 44e3 063e
00000010: bff2 f73d 0f3c f0bb 07be 6cbd 4ca1 a33d
00000020: 373b 143d e47d 4abd 4251 9d3c 11d5 d6bd
00000030: 8a0e 1f3d be3c a03d 9820 cbbd 845f 39be
00000040: 26ca 853d 4477 21be 71ea b63c 2c14 e6bd
00000050: 0482 e03d cd2f dfbd 722a 9ebd 1b9b 1cbe
00000060: d9d5 a83d a141 13be 8318 593d 1322 023d
00000070: 4ff4 933d 9b07 10be a935 4e3d 0fea bc3b
00000080: 90b4 8e3d 6ab1 123e f7cb bb3d 1905 d8bd
00000090: 4c14 3abd d676 c9bd 03a3 bbbd 113c 9bbd
000000a0: 8dc4 093d 6d3e 20bd a623 073d 44bc e93d
000000b0: 28fa a53d 4d0d ca3c 2bd4 f3bc 8ae8 f8bd
000000c0: 6a17 e63d c32d d23c d77c 31bc ce3d fd3d
000000d0: 8d23 d83d 3f55 b7bd ba39 c23d 3790 35bc
000000e0: 2ca6 903b dd40 b0bc 315f 743c 9908 9c3c
000000f0: 3033 1e3d 5e82 8dbd 0a5d b0bd 007d 3dbe
00000100: 5d66 7bbc 065e 1c3c 80ca bb3d b495 ca3d
00000110: 663b 963d 135d f0bd 0704 533d 5921 87bd
00000120: c026 c93d ca17 4bbd ae4d a33c dbfe eabd
00000130: ac4d 8f3d 7803 353d ab15 eb3d 00c5 32be
00000140: 60c8 24bd 2ff8 3bbc 1614 033e b1a8 3dbd
00000150: f1aa dc3c 6f0f e63d 9f1a 7ebe b34f ddbd
00000160: 4cc2 843c cd4b 563c ee01 59be 94fb e3bc
00000170: e53e 9f3d 92de 1cbd 5324 cbbd 4edc c4bd
00000180: 7fb1 63bd 94a7 72bd 6f87 22be 32e6 bb3c
00000190: 299e ed3d 9177 f03d 27de d33d fc0d 953d
000001a0: 86c4 c23d e5b8 883d 73ec d83d a3ff 163d
000001b0: fa3a 993d 13cb 5f3c 1346 8bbd 2406 81bd
000001c0: 8979 c03c c8b5 103e 11ec 6cbd 086e c0bb
000001d0: 84a4 883d c488 2abd dd13 183e e120 abbd
000001e0: 61cf df3d 555c 84bd f1d3 cb3d 29de 253d
000001f0: aa7e dabd 2bf4 4e3c a9cb 3fbc 4acd c9bd
00000200: f78f 3f3d a823 933d 9340 f0bd 7a42 cabc
00000210: 8049 3c3d 3e59 43bd 5f6e 2cbc 87ff df3d
00000220: 959d 813d ed32 1b3d a821 a43d 7c8f c6bc
00000230: 7d06 1bbd 8528 dabc fa4b 833d 9c28 9f3d
00000240: 7b79 cebc 089a 8b3d e70f 673d fc6c 513d
00000250: 4e0e 0cbe d083 cebd 092e 54be c068 773d
00000260: dbc8 7d3b 2f37 04bd 2abe 64bd abed c3bd
00000270: 04d9 a6bd f846 733c 96d7 adbd 5021 9f3c
00000280: 0f40 dc3d eec7 093e 8a48 4a3d 1cb2 b93d
00000290: cf4e a3bd 0b08 23bd e847 8abd 1d73 d9bc
000002a0: 9806 f5bd 791f e7bd fe0a cdbd 53bf fcbb
000002b0: 48f3 aebd 18dd 20bc 2ee8 5cbd dade 4e3c
000002c0: 62e8 c3bd 4895 d73c c3e0 cb3d 1eb5 bc3d
000002d0: fc5d 533d 7ead e73d 3ba9 95bd 6633 b7bc
000002e0: 9a9c dc3d 6a99 25bd fb90 8f3d 9ec6 7b3c
000002f0: cf94 443d 0b40 08be 3961 b23d 0565 0dbe
00000300: b7e1 f7bc 0231 b5b8 51df 0bbd 79bb f53d
00000310: fe2c 81bc b5d7 98bd f799 0c3c c09d ee3d
00000320: 3676 433d cdc7 e2bd e915 75bd 9b32 9e3d
00000330: 6596 d23d 17bf b33c a72f e4bd d20d 6cbe
00000340: 4228 6b3c 4b09 8d3d 3358 8abd 7614 a7bd
00000350: 7461 dabd a6f3 123d 648f 403d b190 8f3d
00000360: 308e 42bd 83b4 693d 3c76 0ebe 96c0 6abd
00000370: d81d 963d fe57 42bd ff7b 8a3d 7a41 bebd
00000380: 5bc5 df3d 28cb d83d b89b 493c cf39 ab3d
00000390: 9a41 44bd 2496 15bc 1aa4 b0bd c45f d63c
000003a0: 28fc 113a 67be 113c 1539 c03d c033 93bd
000003b0: 3f38 a6bc c703 6d3d ae8a 493d 6b3e 43be
000003c0: c9ba d13d 84d9 e33a 5e6a f0bc bf1a a43d
000003d0: bf32 21bd f557 e5bd 8c4b 3bbd c268 773d
000003e0: f4ee 0d3e cc9a df3d 122b 0ebe 5453 843c
000003f0: 07bc 02be b770 06be 7e1a d7bc 702a 64bd
0.015199356 0.0028647527 0.09662086 0.13172632 0.12106847 -0.0073313783 -0.05779841 0.07989749
0.036189284 -0.049436465 0.019203786 -0.10489858 0.038832225 0.07824086 -0.09918326 -0.18102843
0.065326974 -0.15768152 0.022328587 -0.11234316 0.109622985 -0.10897789 -0.077229396 -0.15293543
0.08243913 -0.14380504 0.05300189 0.031770777 0.072243325 -0.14065401 0.050344143 0.0057652066
0.06968033 0.1432549 0.091697626 -0.10547847 -0.045429513 -0.09837119 -0.091619514 -0.07579816
0.03363471 -0.039122034 0.03299298 0.11412862 0.08104354 0.024664545 -0.029764256 -0.12153728
0.11234935 0.025656587 -0.010832987 0.12365304 0.10553656 -0.08951806 0.09483667 -0.011081747
0.0044143405 -0.021515304 0.0149152735 0.019047068 0.038623035 -0.06909631 -0.08611496 -0.18504715
-0.0153442295 0.009543901 0.09169483 0.09891835 0.07335548 -0.117365025 0.051517513 -0.065981574
0.09821844 -0.049583234 0.019934501 -0.11474391 0.069972366 0.04419276 0.11478742 -0.17457962
-0.040230155 -0.011472746 0.12800631 -0.046303455 0.02693698 0.112334125 -0.24814843 -0.10806217
0.01620593 0.013079596 -0.21192142 -0.027829923 0.07775668 -0.038298197 -0.09919038 -0.09612332
-0.055589195 -0.059241846 -0.15871976 0.022936914 0.11602432 0.117415555 0.103451066 0.07278058
0.0951014 0.06675891 0.10591974 0.036864888 0.07481952 0.0136592565 -0.06800475 -0.06299999
0.023495452 0.14131844 -0.057842318 -0.0058724917 0.06672004 -0.041634336 0.14851327 -0.083558805
0.10928226 -0.064629234 0.09952534 0.04049507 -0.106686905 0.012631456 -0.011706271 -0.09853609
0.046768155 0.07184535 -0.117310666 -0.024689902 0.045968533 -0.04769253 -0.010524361 0.1093741
0.063288845 0.037890363 0.08014232 -0.02423834 -0.037847985 -0.02663065 0.06410976 0.077714175
-0.02520441 0.068164885 0.05641165 0.051129326 -0.13677332 -0.10083735 -0.20720686 0.06040263
0.0038724456 -0.03227919 -0.055845417 -0.09566816 -0.08146861 0.014848463 -0.084883854 0.019425064
0.10754406 0.13455173 0.049385585 0.09067175 -0.07974016 -0.039802592 -0.06751996 -0.026544148
-0.11964148 -0.112853 -0.10011862 -0.0077132373 -0.08542496 -0.009818338 -0.05393236 0.012626374
-0.09565808 0.0263163 0.09954979 0.09214233 0.051603302 0.11312388 -0.07307669 -0.022363376
0.10772057 -0.04042951 0.07010075 0.015367178 0.047993477 -0.1330568 0.0870995 -0.13808067
-0.030258996 -8.639881e-05 -0.034148518 0.11998648 -0.015768524 -0.07463018 0.00858163 0.11651182
0.047720157 -0.11073265 -0.05983535 0.07724496 0.10282592 0.021941705 -0.111419015 -0.23052147
0.01435286 0.06886538 -0.06755104 -0.081581995 -0.10663119 0.035876893 0.047011748 0.070100196
-0.04749888 0.057056915 -0.1391229 -0.05731257 0.07329911 -0.047447197 0.06761932 -0.092898324
0.109263144 0.10585624 0.012305193 0.083606355 -0.047914125 -0.009130035 -0.0862505 0.026168711
0.0005568885 0.008895493 0.093858875 -0.07187605 -0.020290492 0.05786493 0.04920452 -0.1906678
0.102407046 0.001738355 -0.029347595 0.08012914 -0.039355036 -0.11198417 -0.045726344 0.06040264
0.13860685 0.10918197 -0.13883618 0.016153015 -0.12767039 -0.13128935 -0.02625775 -0.055704534

lstm.weight_hh_l1 f4 [256, 64]
00000000: e5a2 38bd 99c7 583d 086c 0a3d f447 cbbd
00000010: 1ecb 94bd d761 af3c 2aef ab3c 3db7 bcbd
00000020: eeeb 80bc 72ad b6bd 8304 843d 8bc8 fbbd
00000030: dc48 36bd 4f08 873c e3bb 123d a3ac ac3d
00000040: dc85 cc3d 9109 bdbc b1b6 47bc a0d7 c4bd
00000050: 221f 423c 7ca0 cebd cf0c e63b 959d 0fbd
00000060: f6fd 163c b770 d63d 2cc9 6ebd 3ad3 08bd
00000070: 49a5 11bd d784 c13d cf4f cabd eddd 5a3d
00000080: 4d99 c6bd 08ee 8cbc 7d4f 13bd cbf4 9f3d
00000090: dc95 7dbd 4005 713d a06e 8cbd c065 1abd
000000a0: 0d10 573d 74f0 f8bc 2d04 7a3d 269c 98bd
000000b0: e73a de3d f9b7 a63d de22 873d 502a 5d3d
000000c0: 40e2 363d 02fc 6bbc f318 853d 3010 32be
000000d0: 0587 ce3d e64f 793c c2a2 9cbd 0ae6 81bd
000000e0: bb19 e83d 8773 88bd dd89 28bc 0a3a ec3d
000000f0: 2ef5 f3bb 4008 9bbc 3482 843d 27d4 bfbd
00000100: 9497 a4bd 7c96 6f3d 3d9d c2bc abba 28bd
00000110: aea8 c4bd 7b0e d53b 6577 1e3e 5c97 8abd
00000120: 3022 cebd 4a67 69bc a83b 8f3d d086 8a3c
00000130: dfee 95bd 11ed a73c 92cf 76b8 aa30 663c
00000140: 496b a5bd 9e27 8fbd dc97 9cbd c559 d73c
00000150: 6dea 0bba c33b 3fbd 5e28 793d 45c7 98bd
00000160: 11f1 d1bd cd04 edbc 97a4 0cbe 0cc0 00be
00000170: c9ab 29bd ae9d fb3d bd92 353d 097f 49bc
00000180: c876 e43d bad1 753c f749 e5bd 897a a5bd
00000190: cba3 cdbd 1442 403c 79bb 253e a7c8 7a3d
000001a0: b1a4 a73b f403 a5bd 926d b13c 1544 c13d
000001b0: 3316 0bbe 1dd9 9ebc a14d fb3d 5e50 d0bd
000001c0: 5a62 f33d e89d a73d 736e 25be 151d a83d
000001d0: 0726 52bd 37d8 053e 97c8 8c3c edc6 bdbd
000001e0: 3428 ee3d 804c 00be 635b 93b9 a1ff 563c
000001f0: cef8 a53d f92a 2c3d 69b7 89bd 7725 383d
00000200: 54a6 e9bc 2a6e 84bd 3c50 423d 546b 843d
00000210: 9e8f b43d 4902 c3bd d80f 043c e888 6f3d
00000220: 256a 303d f705 553d 8928 0abd eb07 b73d
00000230: 5f1f a2bd 70f7 253d 1aa7 f9bd e99d c33c
00000240: f6d7 5a3d 0720 58bd d11b c8bc f161 94bb
00000250: 81ed 1ebd cc1c 933a dd11 5aba 2694 5e3d
00000260: 89ff 673a 3a5f 70bd d968 d13d e83e 78bc
00000270: 7f02 6fbc 1bad 453c 5645 66bb 7ba1 023e
00000280: 2428 a73d 9af2 883d 06ba 54bd d687 b0bd
00000290: c664 80bc aed1 b33d f95d 6a3d 5700 5dbd
000002a0: 4948 d73d bd04 08bd f61c a43c 99ac 90bb
000002b0: dbad 953d e5e6 9d3d 107c 63bd 3432 c83d
000002c0: 5434 82bd ecb5 c0bd 7e3e ffbd 44d8 3bbd
000002d0: ee38 833b 6c29 fbbd b5a2 69bd e069 693d
000002e0: 7ef2 733c 9037 c53c 95c0 18bc d2f6 fd3b
000002f0: edab 89bd 2791 eb3d 8adb 42bd f892 50bd
00000300: 2fbb 353d 9a9a 843d 9622 cebd d936 03bd
00000310: c6bb 70bd 18aa 52bd 259d be3d f0c7 9c3d
00000320: 74a0 19bd 0f6b fb3d a937 8ebd e30d f93a
00000330: f73c 69bd b6b2 533d 5579 90bc c294 143d
00000340: 76b2 493d 9f3e 57bd ebd7 02bd 5511 963d
00000350: 26a7 843d 3a8a c1bd fa21 07be 4a9d 8f3c
00000360: e569 dc3d a9c2 2fbd 8e4f dabd c711 dabd
00000370: d2aa 903a c889 e53c ae19 383d 369e 02bd
00000380: 1094 c6bc a214 3b3c 6c90 9abd 739b 2a3c
00000390: 2b47 a3bc a634 f5bc df63 8d3c fa50 f23d
000003a0: 279d 193d ac7f 5e3c dd06 d73d 3eed 433b
000003b0: 3ec2 b03d 8553 e93d 3129 c13d 7746 e1bd
000003c0: a0f0 b1bd 55df 463d 7447 1fbd 199c b6bd
000003d0: db4f e83c 518a 973c f52f 4d3c 9f07 e93a
000003e0: 0903 cd3c c15d 0dbc 63f0 d0bc d62e c33d
000003f0: 838e 8cbd 592c 0abd b5e9 f8bd 4f28 dcbc
-0.045077223 0.052924726 0.033794433 -0.09925833 -0.07265304 0.021408958 0.020988066 -0.092146374
-0.0157375 -0.08919801 0.06446173 -0.1229411 -0.044503078 0.016483454 0.035823714 0.08431365
0.09986469 -0.02307585 -0.012189553 -0.0961144 0.011848243 -0.10089204 0.00702057 -0.03506239
0.009215822 0.104707174 -0.05829732 -0.033404566 -0.03555802 0.09449165 -0.098785035 0.0534343
-0.096972086 -0.017203346 -0.035964478 0.078103624 -0.061910495 0.058842897 -0.068570375 -0.037694693
0.05250554 -0.030388094 0.06103914 -0.07451658 0.108510785 0.08140559 0.06598447 0.05399543
0.044649363 -0.014403345 0.06498899 -0.17388988 0.10084347 0.015216803 -0.07648231 -0.063427046
0.11333033 -0.0666266 -0.010286775 0.115345076 -0.007444999 -0.018924832 0.06470147 -0.09366637
-0.08036724 0.058493122 -0.023756618 -0.041193645 -0.096024856 0.0065019703 0.15475233 -0.06767151
-0.100651145 -0.014245817 0.069938004 0.016909987 -0.07320952 0.020498784 -5.8844285e-05 0.014049688
-0.08077104 -0.06989978 -0.076461524 0.026287923 -0.00053373614 -0.046687853 0.060829513 -0.07459883
-0.10251058 -0.028932953 -0.13734661 -0.1257326 -0.041423593 0.122859344 0.044329394 -0.012298354
0.11155468 0.015003616 -0.11195748 -0.08080012 -0.10041007 0.011734504 0.16184796 0.061226513
0.0051160683 -0.080573946 0.021658693 0.09436814 -0.13582687 -0.019390637 0.12270666 -0.10171579
0.118839934 0.08184415 -0.16155414 0.08208672 -0.051305797 0.1307076 0.017185492 -0.09266458
0.11628762 -0.12529182 -0.00028106113 0.01312247 0.08104096 0.04203317 -0.06724436 0.044957604
-0.028521694 -0.064663246 0.0474398 0.06465784 0.08816455 -0.0952192 0.008060418 0.058480173
0.043069977 0.05200764 -0.033730064 0.08937057 -0.0791614 0.040519178 -0.12190075 0.023879008
0.053428613 -0.05276492 -0.024427326 -0.004528277 -0.03880072 0.0011223792 -0.0008318702 0.054340504
0.00088500284 -0.058684565 0.10225076 -0.015151717 -0.014587997 0.012065197 -0.0035136542 0.12756912
0.08161953 0.066868976 -0.05193522 -0.08619659 -0.015673053 0.087802276 0.057218526 -0.053955402
0.10511834 -0.033207644 0.02003334 -0.0044151065 0.07308551 0.07710055 -0.055538237 0.097752005
-0.06357637 -0.09409699 -0.12463091 -0.045860544 0.0040045893 -0.1226376 -0.057039935 0.056985736
0.014889358 0.024074346 -0.009323259 0.0077503705 -0.06722245 0.11502295 -0.04757265 -0.05092141
0.044367965 0.064748004 -0.100651905 -0.03203473 -0.058772825 -0.051431745 0.09307317 0.076553226
-0.037506536 0.12276279 -0.0694421 0.0019001331 -0.056942906 0.051684104 -0.01763598 0.03627468
0.04924246 -0.052549955 -0.031944197 0.073275246 0.064771935 -0.09450193 -0.13196555 0.017531056
0.10762385 -0.04291025 -0.10659705 -0.10647922 0.0011037237 0.0280198 0.044946365 -0.031889163
-0.024240524 0.011418493 -0.075470775 0.010413039 -0.019931396 -0.029932331 0.017259536 0.11831851
0.037503388 0.013580244 0.10499356 0.0029896046 0.08630799 0.11392883 0.09431685 -0.10999768
-0.08688474 0.04855283 -0.038886502 -0.08916492 0.02835839 0.018498572 0.012523641 0.001777876
0.025025861 -0.00862831 -0.02550525 0.095304176 -0.068631195 -0.0337337 -0.12153951 -0.02687469

lstm.bias_ih_l1 f4 [256]
00000000: ffcf 4cbd e5b5 eabc 2594 febd d1df e8bd
00000010: 8aab f2bd 6dbb 4c3a 086e 88bd 5259 783c
00000020: 9463 0e3d e79a 413d a4ec a53d 3382 bfbd
00000030: 9994 febd eeca 083d ba51 bd3d 9714 e3bd
00000040: 81e1 e4bd a85e 933d 40bf 0c3d b48b 963c
00000050: 879a d5bb 9794 293d 2a04 fc3d d559 a43d
00000060: 1f82 d43d 9ad0 f6bc 8ffd cdbd dfa2 7bbd
00000070: 3625 463c 06df 3b3d eeda db3d 3e31 323d
00000080: 5e39 cdbd b8fe 12bd f5d2 ab3d e694 b7b9
00000090: 78db 12bd b3ba 903c a720 8abd b9d1 f3bd
000000a0: 471f 203b b08a 95bd d03f fb3b 5346 13be
000000b0: 8dbe a0bd acda 6c3c 83ee c1bd fc07 973d
000000c0: edac acbd 5d0d b7bd 7339 f53d 2305 ff3d
000000d0: df95 b8bd 64be e2bd a0bd 7f3b b9a7 afbd
000000e0: 15c7 9fbc e959 afbb 9341 0bbc 1490 bfbd
000000f0: 4f23 d93d 98c3 cbbd 6a50 943d d1da 8e3c
00000100: 42bb 233d 88d0 31bd c2a0 b53c 48df edbc
00000110: 4a92 b4bd 2e35 903c b23f f8bd 3bf4 823d
00000120: 824d 7b3d d68d 01bd 7643 47bd 3d41 0bbd
00000130: f605 d2bd 04be 1f3d d94a 20bd 9496 ddbd
00000140: 7937 903c 9ee3 bfbc bea9 b6bc eebf 943d
00000150: 2680 193d a987 ce3d aaf8 28be e79b e5bc
00000160: ef48 8bbc b101 8ebd 8ab2 703d 43a2 a8bd
00000170: aad5 febb 895a 39bd 5971 62bd 21b4 13bb
00000180: ffc9 b93d a85b e0bd 8072 aabc 93fe 90bc
00000190: 0fa0 943d 96e1 b63d 3884 0c3b 87e5 c23d
000001a0: 43dd 833d 0515 83bc 406c fe3d f43b 04bd
000001b0: 2c1e cd3c 9cbb 833c 8d91 663d 5e31 553d
000001c0: 6022 c3bd 9036 c9bd 0088 893c b4a1 c9bd
000001d0: d892 c23d b50c 46bc 3be4 513d ef7d 503d
000001e0: a52c ffbd 8ee9 2cbd 41b6 0c3c 13a4 c9ba
000001f0: 8333 14bd 09e5 e0bc ccff 473d 042b d7bd
00000200: f8b0 a43c 0238 d93d 42df c43d 78d5 61bd
00000210: 5f65 cabd be27 213d 4fec 483c 750c 84bd
00000220: a424 c03d 8877 e7bb 44f3 cbbd 2ed9 b0bd
00000230: b5a7 133d 3a42 d4bb 560f 933d 8777 9bbd
00000240: 0c22 91bc 46e8 253d 23b3 f0bc 8d11 5cba
00000250: 389a 843d 4fac 91bd 76aa b9bd 299c b33d
00000260: 7d2e 1a3d ae3d ca3d a53d 1e3d 9579 44bd
00000270: 593e 993c c32d c83d 01c0 013d 1b3f c1bd
00000280: 18ad dbbc f430 023e 05be 133d a69d 81bd
00000290: e703 8c3d 88cc 023e 1392 d5bd b5ed afbd
000002a0: b60f e7bd 3f0d 47bd d36c 83bd 2413 b83d
000002b0: 662a 89bd 6b2c d53d a4fb 803d 3dcb 8fbd
000002c0: ebe1 813d d444 b7bd 7e58 eabd c62c cdbd
000002d0: 1095 ec3d 6c55 74bd dee3 d73d 8eff 243d
000002e0: 8ac3 823d dfb7 84bd 7c07 dd3d bec6 34bd
000002f0: 0126 c83d 8148 7e3c d8ba d73d d14c acbc
00000300: 2b53 993d ab91 983c 96b6 703c 0a52 9fbd
00000310: df34 6abd fecf ffbd c3db c4bb afd7 ad3c
00000320: b712 b5bd 5391 de3c e4b3 efbd 5e01 abbd
00000330: 23bc a9bd 2a11 813c 4b22 ddbd 855b f53d
00000340: 29b6 c93d 4759 0ebe f350 f53a 4cd4 a5bc
00000350: 215d a8bd a114 983d cd80 cc3c 6f5b ca3d
00000360: faf1 073e 8e54 f7bb 20cd 743b 9f92 babd
00000370: 879c acbd d377 b33b 912f d4bc 320f bb3c
00000380: 0a6b f8bd 1d69 0d3d 49b4 82bb a1f1 8cbd
00000390: e7e9 40bd 880e 0abd e39b 1e3d 6ffc 27bc
000003a0: 0c64 423d d025 c23d 09ec 993d 8908 f2bd
000003b0: 79ca 103d a01c 4b3d 2f2d eebd c063 c13d
000003c0: 1ba7 023d 12cf 2e3d cffa bb3a 284d c93d
000003d0: 6fa0 b43b 15b3 56bd 4cba 713d 43d7 a03d
000003e0: 47d9 e43b 8694 9e3d f918 4abd 4093 f4bd
000003f0: a175 4e3d d9f2 c8bd 424e 383d fa2c 58bd
-0.050003048 -0.028651187 -0.124306 -0.113708146 -0.11849125 0.0007809911 -0.06661612 0.015158014
0.034762934 0.047266867 0.08101776 -0.093510054 -0.124306865 0.033396654 0.09244104 -0.110879116
-0.11175824 0.071957886 0.034362078 0.018377163 -0.0065186652 0.041401472 0.12305482 0.080249466
0.10376381 -0.030128766 -0.10058128 -0.061434623 0.012093833 0.04586699 0.10735117 0.043503992
-0.100207075 -0.03588745 0.08389846 -0.00035015418 -0.035853833 0.01766715 -0.06744509 -0.11905236
0.0024432705 -0.07301843 0.007667519 -0.14382295 -0.07848845 0.014456432 -0.094693206 0.0737457
-0.084314205 -0.08938096 0.11973848 0.124521516 -0.09012961 -0.110714704 0.0039022937 -0.085769124
-0.01950411 -0.0053512943 -0.008499521 -0.093536526 0.10602438 -0.09949416 0.072419 0.017438324
0.039973505 -0.04341176 0.022171382 -0.029037133 -0.08816965 0.017603483 -0.12121524 0.063942395
0.061353214 -0.031629406 -0.04864832 -0.033997763 -0.10255043 0.038999572 -0.03913388 -0.10819736
0.017604576 -0.023423966 -0.022297736 0.0726317 0.037475727 0.10084469 -0.16501108 -0.028028442
-0.01700255 -0.06933916 0.058764018 -0.08234074 -0.0077769356 -0.045252357 -0.055283878 -0.0022537785
0.09071731 -0.10954982 -0.020806551 -0.017699515 0.07257091 0.08929746 0.0021441113 0.09516435
0.06438687 -0.016001234 0.12422991 -0.03228374 0.025038801 0.01608067 0.05629115 0.052049033
-0.09528041 -0.0982486 0.016788483 -0.098452955 0.095006645 -0.0120879905 0.05124305 0.05090135
-0.12459687 -0.042214923 0.008588375 -0.0015383981 -0.036181938 -0.027452962 0.04882793 -0.105062515
0.020103917 0.10606386 0.096128955 -0.05513522 -0.09882616 0.03934454 0.012263372 -0.064476885
0.09381989 -0.00706381 -0.099585086 -0.08635174 0.03604861 -0.0064776214 0.071806595 -0.075911574
-0.01771643 0.040504716 -0.029382294 -0.0008394949 0.064747274 -0.071129434 -0.09065716 0.087700196
0.03764199 0.09875046 0.038633008 -0.047967512 0.018706487 0.09774353 0.03167725 -0.094358645
-0.026815936 0.12713987 0.03606989 -0.06328897 0.06836682 0.12773335 -0.10428252 -0.08590261
-0.112822935 -0.048596617 -0.06417241 0.08988026 -0.0669754 0.10408863 0.06297997 -0.070211865
0.063419186 -0.08948675 -0.1144266 -0.100183055 0.11551869 -0.059651777 0.10541509 0.04028278
0.06384952 -0.06480383 0.10792443 -0.044134848 0.09772874 0.015520216 0.105336845 -0.021032723
0.07486566 0.018624147 0.014691969 -0.077793196 -0.057179328 -0.12490843 -0.006007643 0.02122101
-0.0884146 0.027168905 -0.11704233 -0.0834987 -0.08287837 0.015755255 -0.107975565 0.119803466
0.098491974 -0.13901244 0.0018716141 -0.020242833 -0.08220888 0.0742581 0.02496376 0.09880721
0.132759 -0.0075479215 0.003735371 -0.09109997 -0.08428293 0.0054769306 -0.025901588 0.022834394
-0.12129791 0.034524072 -0.003988777 -0.068820246 -0.047098067 -0.033705264 0.038722884 -0.010253056
0.047458693 0.094798684 0.07515723 -0.11818034 0.035349343 0.049587846 -0.11629712 0.09442854
0.031897645 0.042677946 0.0014341715 0.098291695 0.0055122892 -0.05241688 0.059015557 0.07853558
0.0069839093 0.07743172 -0.049340222 -0.11942148 0.05040515 -0.098119445 0.044996507 -0.052777268
