best_finetune.pth (torch, 377783 bytes, 15 tensors)

lstm.weight_ih_l0 f4 [256, 29]
00000000: 8d06 2a3c db66 0d3e d966 babc c832 e23d
00000010: 0ac7 11bd 10be 8dbd e215 7dbd fff0 923d
00000020: e6bd a53d 0c4e a5bd bddb d23d 856f c53c
00000030: 6bdb ad3d 9ea3 613d 5e8a a13d 27e6 29bd
00000040: 628e ec3d 8165 853d 8757 b5bd 177a 093d
00000050: 7f88 27bd 3216 cf3c 7f9a 72bd 1dea 943d
00000060: 6241 b2bd 9e5f 2bbe 91f9 28bd 3b81 c9bd
00000070: 8cb7 76bc 84d5 29be aa21 193e 70ba dbbd
00000080: b1ca e53d 1f2b 8d3d 0d89 b3bb efc6 633e
00000090: 4a68 05bb 5106 b73d 2197 b33c d844 85bd
000000a0: 5363 513d 4879 4cbc 67ad 7a3d f36d d93d
000000b0: 5bae df3d 3286 4dbd dc34 2a3d 0d50 fb3d
000000c0: 5ade a33d 9a7a 60bd d8d1 bebd 19b3 c3bd
000000d0: ba47 a5bd 6638 1f3e d329 c2bd 33da 853d
000000e0: c344 863d 1558 b03c e029 aa3d 73e1 e1bc
000000f0: 45cf 063d 512d 78bd ea7e bd3d cdad 83bc
00000100: 4575 2a3e 7b97 42bc 943a 003e d23f c9bc
00000110: 8682 91bd eded 10bd 9330 193e 9c8a 983d
00000120: 199d 223e 6517 6ebd e1a9 babd a219 0abe
00000130: a613 58bd 783b cb3d b3aa 9f3d a97c 2a3e
00000140: e7c8 9ebd 0d47 22be f23e 1d3e 52b4 b5bd
00000150: ec8a df3d f24b 423d c257 033e 068e d0bd
00000160: 6c3b 063d 4c87 b33c ee44 cabc e508 38bc
00000170: c13b 823d 755a 223e 8888 fdbd dd3d a3bd
00000180: 27cd e83d edc9 a3bd 99fc 20bd 3300 fbbd
00000190: 6d1f 51bd 3dae cc3b e6ca 2b3a 3d90 d2bd
000001a0: 2396 5abd 366e 3ebe 34ef c9bd 0034 78bd
000001b0: 8436 babd 88b7 1cbe 236c 6d3d b0ef 403e
000001c0: 5aed 0abe 194f e9bd 9710 92bd d71a 3c3d
000001d0: cd48 b7bc c0a2 7ebd eff8 99ba 7d2e d9bd
000001e0: a3f6 5f3d d936 49bd 71e4 e33d 415d 02bd
000001f0: 43fe d9bd c5b5 58bd a30c e63c 6f61 a2bb
00000200: 8cf4 563e 45cd ca3d 2e72 523e b173 c73d
00000210: dab1 17bd 9f7e 053e cf49 e7bd 87d4 aa3b
00000220: 1786 67bd 00b0 11bd 176a 3fbd 8ec6 8abd
00000230: 25ee 333e 46e5 57be b2a7 3d3e a682 393c
00000240: 71c9 b73d 0585 c93c 039b f83d 65d3 123e
00000250: 3561 293e 09b7 83bd 6711 9dbc 83bd 20bd
00000260: 8d7e 0fbd 774f e1bc 8179 193e 6891 04be
00000270: 0757 a43d 1a82 5c3d 4ba8 783d 3c97 5cbd
00000280: 796c 1e3e 38cc 7c3d f65d 5bbd e69b c6bd
00000290: 7b32 c63d fd7e 183c 3793 6bbb f3bb 823c
000002a0: 59ed 133d 3f72 7cbd b728 0ebe 4ee5 063c
000002b0: 179f 063d 46a3 38bd 86ce dcbd 4dc0 8b3b
000002c0: 49a1 10bb b40b 4f3e 4059 973d 4ce7 fabd
000002d0: 262e 173e 3ee9 bc3d 6e29 143e d480 b2bb
000002e0: 001f c13d 15ee f13d e12a 0e3e 64af 1fbe
000002f0: ad00 a8bc 75d9 72ba fb2e 583d adbb 0dbe
00000300: d13a 09be 0d84 d73d 591c c63c 8877 7ebd
00000310: bbdb e43d 1e40 19bd d5f8 133e 5968 8d3e
00000320: b3c9 36bd f4a3 043d bdf9 733e c6e9 0d3e
00000330: 32c1 883d e998 2cbd 6f75 e7bc db41 5dbd
00000340: 1825 803d df01 0e3e d6fd fb3d 3866 983d
00000350: 65b6 86bd 5895 fbbc 0e2e cd3c 10fa 233e
00000360: 9167 533d e40f 373c 3006 b43d 1894 40bc
00000370: dcbc ddbc ef36 803e 11be ed3c 786b 533d
00000380: d13e a8bd 6ad7 bd3c 4219 933e 8d88 83bc
00000390: 0abb f23b 1755 bbbd 6e9c a2bd 755b 4a3d
000003a0: 249d a83e 97c3 353e e0e1 413e b531 923d
000003b0: a021 9a3d b3a6 133e eadb 3bbc 4f96 53bd
000003c0: e243 b03d 0c6d 293d 1050 e43c 245a 983c
000003d0: defe b13d e0c8 7e3c f3a4 1c3c dc97 083e
000003e0: fcd1 b73d c01a 843e 5e4d c1be 3ea2 8c3c
000003f0: d4c4 a43d 30de 253d 351e a6bd f855 5cbd
0.010377538 0.13808767 -0.02275412 0.11044842 -0.03559021 -0.06921017 -0.061788447 0.071748726
0.08092861 -0.08071527 0.10295818 0.024101028 0.08489116 0.055087678 0.078877196 -0.041479256
0.11550595 0.06513501 -0.08854585 0.0335637 -0.040901657 0.025279138 -0.05922937 0.07271216
-0.08703877 -0.16735694 -0.04125363 -0.09839102 -0.015058409 -0.16585356 0.14954248 -0.107289195
0.11220301 0.0689299 -0.005478984 0.22243856 -0.002035635 0.08936752 0.02192265 -0.065072715
0.051120114 -0.012480088 0.061200526 0.10616674 0.109219275 -0.050176807 0.041554317 0.12271128
0.080013946 -0.054804422 -0.09317368 -0.095556445 -0.080703214 0.15548858 -0.094806336 0.06535759
0.06556084 0.021526376 0.08308768 -0.027573323 0.03291251 -0.060590092 0.092527226 -0.016074086
0.16646297 -0.011876936 0.12522346 -0.024566565 -0.071049735 -0.035383154 0.14959936 0.07448313
0.1588024 -0.05812778 -0.09114433 -0.1348634 -0.052753113 0.09923452 0.0779623 0.16649117
-0.07753163 -0.15847416 0.15356043 -0.08872284 0.10915169 0.04743571 0.12826446 -0.10183339
0.032771513 0.0219151 -0.024691071 -0.011232589 0.063590534 0.15854819 -0.12379557 -0.07970784
0.11367255 -0.07997499 -0.039303396 -0.122558974 -0.05105536 0.0062463568 0.00065533665 -0.102814175
-0.053365838 -0.1859673 -0.098600775 -0.060596466 -0.09092429 -0.15304387 0.057964455 0.18841434
-0.13567105 -0.1139204 -0.071320705 0.045924034 -0.022373581 -0.06216693 -0.0011747162 -0.1060457
0.05467857 -0.049124572 0.11127556 -0.031827215 -0.106442 -0.052907724 0.028082198 -0.0049554626
0.20991725 0.09902433 0.20551369 0.09738863 -0.037034847 0.13036583 -0.11293375 0.0052133235
-0.056524362 -0.035568237 -0.046732035 -0.067761526 0.17571314 -0.21083555 0.18521002 0.011322653
0.08973969 0.024599561 0.12138941 0.14338453 0.16540988 -0.064313956 -0.019173337 -0.039243232
-0.035032798 -0.027503712 0.14987756 -0.12946093 0.08024412 0.053835012 0.06070737 -0.053855166
0.15471067 0.061718196 -0.053556405 -0.09697704 0.09677597 0.00930762 -0.0035945901 0.015958762
0.036115024 -0.06163239 -0.13882719 0.008233381 0.032866564 -0.045077585 -0.10781579 0.0042648674
-0.002206879 0.20219308 0.0739007 -0.12251148 0.14763698 0.09224175 0.14468929 -0.0054474864
0.09429741 0.11812989 0.13883545 -0.1559425 -0.020508135 -0.0009263971 0.05277918 -0.13841124
-0.13401343 0.105232336 0.02418344 -0.062125713 0.11174723 -0.037414663 0.1445039 0.27618673
-0.04462595 0.03238292 0.23825736 0.13858709 0.06677474 -0.042138014 -0.028254239 -0.054017883
0.06257075 0.13867901 0.12304275 0.07441372 -0.06577758 -0.030710861 0.025046375 0.1601336
0.05161244 0.011173222 0.08790243 -0.011754058 -0.027067594 0.2504191 0.029021295 0.051616162
-0.08215106 0.023174006 0.28730208 -0.016056323 0.0074075507 -0.09147089 -0.07939993 0.049403626
0.3293239 0.17750393 0.1893382 0.07138387 0.07525945 0.1441906 -0.011466006 -0.051657017
0.086066976 0.04136376 0.027870208 0.01859767 0.0869119 0.015550822 0.009560811 0.1333918
0.08975598 0.2580166 -0.3775434 0.017167207 0.080453545 0.040495098 -0.0811123 -0.053792924

lstm.weight_hh_l0 f4 [256, 64]
00000000: 1ec8 d43d aced b93d a7ab a4bc b548 b2bc
00000010: 6938 15bd b7b2 3fbd 7af4 0e3d b5c4 67bd
00000020: b850 07be e8e9 81bd 6e49 93bd b4eb c5bd
00000030: 1b45 1dbb 0198 f83b 6a10 1b3d 49c0 523d
00000040: 7be8 093e cbd9 c63d b985 453d 8e77 283c
00000050: 04cb 5c3c 1762 c0bd 5ba0 15bd b943 21bc
00000060: a2e9 13bd 7edf d63d adda 0e3e 3494 be3d
00000070: e427 35bd 0920 eebc 7d60 0a3d 0924 3fbd
00000080: 3971 723d 0c77 993d 229e 16bd 9c1d 073e
00000090: 4db9 6bbc b756 dc3b e9eb 9a3d f2c3 013e
000000a0: 9224 cfbc cade 733d a51e 6f3b 1fc4 10bd
000000b0: 829a 19be 1ef8 0abe 7d1f 2e3d 3131 96bc
000000c0: 98e8 e4bc 35b5 5d3d 6fbf 88bd b80c 963d
000000d0: e739 fd3d 694d a63d 1ef9 cb3d 16d3 2bbe
000000e0: 4b03 cfbc fa34 48bc e958 4fbd 1e15 b23c
000000f0: 80ee 9b3d 45be 9abd 301b 30bd 0ce4 903d
00000100: 4145 8a3d 5d33 47bd 8971 b6bc a48e fbbc
00000110: 102c 6b3c f7e0 163e 24ae fdbd 2800 5d3d
00000120: 8f83 cdbd bae3 dcbd 7786 e7bc 463e 0abd
00000130: e54b 17bd e6fc 003e a12a 553d 6599 1a3d
00000140: 187c 36bd dde9 a4bd b487 ef3d c286 d73a
00000150: 5899 bbbc 178a c73d 5ad6 2fbc 213f a43d
00000160: f0dd 9fbd 3521 9e3d 79ab 553c f55f c3bb
00000170: aa8f 23be 04c5 2f3e cb1f 343d 95d7 6b3d
00000180: 72b1 553d 1a80 35bd 29e1 aebd 0438 40bd
00000190: b07b c9bd 05b7 733c 1a3c 74bc 9ad0 a13c
000001a0: 57c3 e7bd 9583 59bd e46d 653d 9f30 d5bc
000001b0: e781 193c 875f 2e3e fe38 0cbe c230 823d
000001c0: 5c99 dbbd 3c4c a43b a2af b63d 9199 113e
000001d0: c230 c93d 6c70 b23d 0ae9 2abe 875a c43d
000001e0: 6a4d 8abd 688e 593c 9507 963d 93a8 fc3d
000001f0: 1eae 843c 7019 4d3d 2f3b 733b 71b6 efbd
00000200: d53e b3bd 53a0 abb9 d88e bebd bc67 ac3d
00000210: e273 adbd 394e 39bd 2ace c03d 2d0d 91bd
00000220: 8dc1 29bd f79f 1d3e 65d3 2a3c 9269 b73c
00000230: ff2c 7f3d fead d0bd 2da0 9e3a beb7 e0bd
00000240: e5ad d0bd d302 083d c6c1 6e3d 29dc 28bc
00000250: dc90 93bb 162e 98bd 0e67 fa3d 6201 c03c
00000260: 53d6 b1bd 1d23 2fbb ae52 12be 661d d53d
00000270: bde5 ab3d 1628 b63d 8c3d 12be 7cc4 ea39
00000280: 530f c3bc 6ee6 8cbb 8adc 86bd 9520 2dbe
00000290: 18a1 b3bb 7e44 823e 8a48 b0bb 6d35 1abe
000002a0: ac14 a0bd 1503 f0bd 73d8 60bd ec82 833d
000002b0: 6c27 f33c 45ea 66bd 4ee9 ebbc c476 dfbb
000002c0: 6336 943d 2321 5a3d bfcb c0bc de29 deba
000002d0: e431 6a3c f41a 223d f8a9 333e c818 07be
000002e0: c2c0 753c 508a 44bd e673 9fbd cd73 d9bd
000002f0: aa14 ee3c 5c78 5dbd 99e4 503d 9a1d 063e
00000300: 877a dd3d 2eef f0bb 3ae7 fabb dfc7 bc3d
00000310: 118a 19be c3df 06be f5c6 08be 0468 d93d
00000320: 39e5 c3bc 88ca b0bd 80ff c8bd 3197 f1bc
00000330: d833 f23d f5d9 dd3a 3c6c f53d 4e93 c9bc
00000340: 9e22 853d 12a2 5f3d 5efc 063e eb63 ef3d
00000350: 7dd1 26bb 5cae 4d3e b29c 65be ff31 0dbd
00000360: fa50 b63d 685d 313d 0b63 9b3d f607 313d
00000370: 4961 14be 80fc b0bc 27b0 aabd 9bce 833d
00000380: 56f7 1d3c 5aa0 873d 12af 0d3d e405 1b3e
00000390: 422a b83d 0106 3cbd 3f19 fcbc 16c4 173d
000003a0: 366a 6dbd 1783 623d 6712 bbbd ceb4 e13d
000003b0: 46be e0bd b1cf db3d e608 c33d 2487 8b3c
000003c0: 886f a73d 2c74 0dbe 7478 7cbc 1b97 07bd
000003d0: c3bd 53bd 1668 97bd 1ce1 2bbd 61d3 44bd
000003e0: 1d11 8c3d 81e9 e1bc c9bf 9c3d fc47 be3c
000003f0: 63cf a5bd b744 bd3a 2c04 29be 22ee 303d
0.10389732 0.090785354 -0.020101381 -0.021763185 -0.03643075 -0.046801295 0.03490112 -0.05658408
-0.13214386 -0.06343442 -0.0719174 -0.096640974 -0.002399749 0.0075864797 0.03785745 0.05145291
0.1346759 0.097095095 0.04822323 0.01028241 0.013476137 -0.09393709 -0.03652988 -0.0098428065
-0.03611148 0.104918465 0.13950606 0.09305611 -0.044227496 -0.02906801 0.033783425 -0.046665225
0.05919001 0.074934095 -0.0367719 0.13194889 -0.014387441 0.0067242044 0.075645275 0.12672403
-0.025285993 0.05953864 0.0036486771 -0.035343286 -0.15000346 -0.13571212 0.0425105 -0.018334003
-0.02794294 0.05412789 -0.06677138 0.07326645 0.123645596 0.081202336 0.09959625 -0.16779742
-0.025270125 -0.012219662 -0.0506219 0.021738585 0.0761385 -0.07555822 -0.042994678 0.070747465
0.067514904 -0.04863297 -0.022270935 -0.030707665 0.014353767 0.14734255 -0.1238673 0.053955227
-0.100348584 -0.10785623 -0.02826236 -0.033750795 -0.036937613 0.12596473 0.052042607 0.037743945
-0.04455194 -0.080524184 0.11695805 0.0016443359 -0.022900268 0.097431354 -0.010732258 0.080198534
-0.07806003 0.077211775 0.013041371 -0.0059623667 -0.15972772 0.17164999 0.043975633 0.057578642
0.05217118 -0.04431162 -0.0853904 -0.04692842 -0.09838045 0.014875178 -0.014906907 0.01975279
-0.11316555 -0.053104002 0.056013003 -0.02602416 0.00936935 0.17028628 -0.13693616 0.06356956
-0.1072261 0.0050139707 0.08920218 0.14218737 0.09823753 0.08712849 -0.1669046 0.09587579
-0.06753047 0.013278581 0.07325665 0.123368405 0.016196307 0.050073087 0.0037114134 -0.1170472
-0.08752219 -0.00032735112 -0.09304589 0.08418223 -0.084693685 -0.045240615 0.09414323 -0.07082591
-0.04144435 0.15393053 0.010426377 0.022389207 0.06229877 -0.101894364 0.001210218 -0.10972546
-0.10189418 0.03320582 0.058290266 -0.0103063965 -0.0045033526 -0.07430665 0.12226687 0.02343816
-0.08683457 -0.002672381 -0.14289352 0.10405998 0.083934285 0.088943645 -0.14281291 0.0004477835
-0.023811018 -0.0042999303 -0.06585033 -0.1690696 -0.0054818504 0.2544288 -0.005379741 -0.15059443
-0.07816443 -0.11719338 -0.054893922 0.06421456 0.029681884 -0.05637576 -0.028797772 -0.006819578
0.07236936 0.053254258 -0.023534654 -0.0016949733 0.014294121 0.039576486 0.17545307 -0.13193047
0.01499957 -0.047983468 -0.07785778 -0.1061779 0.029062588 -0.05406986 0.050999258 0.1309723
0.10814386 -0.007352731 -0.007656959 0.0921781 -0.14994074 -0.13171296 -0.13357146 0.106155425
-0.023913013 -0.0863238 -0.09814358 -0.029491039 0.11826295 0.0016925918 0.11983535 -0.024606373
0.06500743 0.05459792 0.13182208 0.1168898 -0.0025454455 0.20086044 -0.22423056 -0.034471508
0.08902164 0.04330197 0.0758725 0.043220483 -0.14490236 -0.021604776 -0.0833438 0.06435891
0.009641489 0.066223815 0.03459079 0.15138966 0.08992435 -0.045904163 -0.030773757 0.037052236
-0.05796262 0.0553008 -0.09134369 0.11020814 -0.10973792 0.10732973 0.095231816 0.017032214
0.0817557 -0.13813847 -0.015409578 -0.03310309 -0.051694643 -0.073929 -0.041962728 -0.04805315
0.068392016 -0.027577164 0.076537676 0.023227684 -0.080961965 0.0014440034 -0.16505498 0.04319585

lstm.bias_ih_l0 f4 [256]
00000000: f3ec 253d 8522 b2bd 7ae8 873d 22ca ce3d
00000010: 4c7f ed3d e6ff dabd 6b48 993c cb9f 3abc
00000020: 93da f0bc 538a 9e3d 0963 9c3d 6b5f f1bc
00000030: 43e3 7dbd 0fa8 833c 1a3f 0ebb 66e3 cd3d
00000040: 9a50 debd 6fec 20bb 57d9 cfbc a447 0a3d
00000050: e6b0 6bbc be29 473a 1a76 92bc 76ef 57bc
00000060: 0644 b83d 388b 1cbd fb8d db3c ee02 8abd
00000070: 5723 db3d 7f11 00bd 4651 373e af62 90bd
00000080: 2926 823d 6807 8c3d e437 c2bd 40c7 a53b
00000090: ee5d 9abd f227 f0bb 3a5d 963d 3cf5 2c3d
000000a0: e117 a33d 2280 9a3d 0a42 303e cc58 5a3c
000000b0: 0160 7cbd ab95 f33d aa1b 2e3c 8f85 80bd
000000c0: dec2 5ebd 6e30 303e 9797 82bd 0db9 543d
000000d0: 7597 463d e9e3 fb3c 9055 df3d d9e8 f83d
000000e0: e0be 003e 466c 723d 0452 163e 827c a43d
000000f0: bad4 37bc 5c07 93bd 3a71 dd3c 5055 c93b
00000100: 8709 ba3d 504f 3c3d 57a0 303d 0f27 e2bc
00000110: 0efc 4e3e 3619 1d3e 5783 3f3e 72b7 593d
00000120: eed8 bcbb f879 b6bd f4fe 05be 7c3d 82bd
00000130: b894 b3bc 005f 343e 63a9 b2bd 6583 63bb
00000140: 7a79 933d bde1 ee3d b137 60bb 6f5d f8bc
00000150: a08f 263d 8a1f cebc 77ba ee3d cd61 e13d
00000160: 6d91 433d eef0 d53d 11c2 083e 5242 86bd
00000170: 07e2 c43c 9e6b c2bd b85e a33d 8528 a0bd
00000180: 0a1f 313d 6b14 9abd c790 6a3d 8ffc 92bd
00000190: 1a6d a9bd def2 cd3c f4d0 8a3d 08c3 b93d
000001a0: 685b 873d 168c 9e3c ec61 9fb9 685f a43d
000001b0: 0eff bc3d 37c9 debc 582c 163e 6467 553c
000001c0: 87d0 883d 79b0 073d 9c5a eb3d 9556 90bd
000001d0: 5a28 e0bc 302c 403e 95e4 34bd ddc6 243e
000001e0: f2c8 413c 11b9 4ebd 9ab7 703e 3270 0e3e
000001f0: 61f1 3b3d 23bd c1bd 1192 493d 28f4 26bd
00000200: c14c e53d 7486 513d 57b7 b1bc 0329 c4bd
00000210: 7212 62bd 9b08 b63d 17f1 b3bd de0f a23a
00000220: e7a5 b4bd 78ef 48bd fc61 a7bc a0ce f9bc
00000230: 49db 05bd 76ea 94bc c9c5 27bd 3cc3 7e3d
00000240: c4dd e6b8 033f 6bbd 82b9 4c3d 4a77 eb3d
00000250: ed38 9b3d 55a0 213d ab75 1dbc 5f6d c63d
00000260: 7e5c 55bc 5212 6c3d f703 eb3d ce93 ab3c
00000270: b89d 70bd 4d92 d83c ee4e a0bb 486b 483d
00000280: c879 7fbd 5921 c23d b63d 8d3d 8497 8b3d
00000290: 674c df3c 78f2 32bd a58b 8a3d 94b4 68bd
000002a0: 4290 eabc c820 f63d 6a99 eebc 21a8 693d
000002b0: 52d5 043d 92f6 47bd 2cff 9f3d e87b 59bc
000002c0: 69fe 8a3d 48d8 d2bd 103b 023d ceb8 b23d
000002d0: 6c41 6cbd 92d5 e93d 00ed c5bd b12d e33c
000002e0: 3440 2b3d 2169 c5bc 1799 123d ad7a 353d
000002f0: e124 8bbd ada5 bdbd 284e 8cbd b737 1ebc
00000300: 4339 583b 7699 a53b 9b84 fb3c 0495 d1bd
00000310: d24e 1abd 446a 14bd ada1 12bd 320d e63d
00000320: 80ca ec3c 4857 cc3d 6b06 173c f133 a03d
00000330: 626e 9d3d 5e2b da3d 2a6b 683d 4b4b 773d
00000340: 9e5d 043e 1c0a 823d 06f8 223d 980b aa3b
00000350: 53bf 023e c390 1a3d c091 0abc e3f0 01bd
00000360: 936a c93d 3520 853c e631 193e d7e6 a33d
00000370: be6b 313e bba9 3c3d 9cb3 273e 338a 653d
00000380: fe21 283d ecb0 383d 936a a2bd e60e 023e
00000390: b985 843d be9d 873c 27e9 afbd 5d0f 053c
000003a0: fa34 31bc 7bac ec3c 86af fe3d d16f 473e
000003b0: 10e6 c63d 3237 d13c f448 513c a2fe b33d
000003c0: f928 093c 63c5 8e3d 15ce 8a3c 8290 ef3d
000003d0: efaf c23d eccb e03d 9014 9e3d 1d05 833d
000003e0: c852 9e3d 7377 4bbd dc5f 6f3c 8887 933d
000003f0: df03 483d d0b2 80bd 4964 a03d 5ec5 423d
0.040509176 -0.0869799 0.06636138 0.100971475 0.115965456 -0.1069334 0.01871129 -0.011390637
-0.0294011 0.07741227 0.07636077 -0.029464444 -0.06198431 0.016071348 -0.0021705092 0.100531384
-0.10855217 -0.0024554988 -0.02537219 0.033759728 -0.014385438 0.00075974676 -0.01787858 -0.0131796505
0.089973494 -0.038218707 0.0268011 -0.0673884 0.107001 -0.031266686 0.17902097 -0.070500724
0.06354935 0.0683735 -0.094833165 0.005059153 -0.07537447 -0.0073289806 0.07342 0.04222606
0.07963539 0.07543971 0.17212692 0.013326835 -0.061614994 0.11893781 0.010626713 -0.06275474
-0.05438506 0.17205974 -0.0637657 0.05193429 0.048484284 0.030748324 0.109049916 0.12153787
0.12572813 0.05918529 0.14679724 0.080315605 -0.011220152 -0.07179138 0.02703153 0.0061442032
0.090838484 0.045974076 0.043121662 -0.027606515 0.20213339 0.15341648 0.18702446 0.053153463
-0.0057631647 -0.089099824 -0.13085538 -0.063593835 -0.0219215 0.17614365 -0.08723714 -0.0034715768
0.07200904 0.1166415 -0.0034212882 -0.03031799 0.040664315 -0.025161523 0.11656659 0.11004982
0.04774611 0.10446344 0.1335528 -0.06555618 0.02403356 -0.094931826 0.079770505 -0.078202285
0.04324249 -0.07523426 0.057266977 -0.07177078 -0.082727626 0.025140222 0.06778136 0.090704024
0.06609231 0.019353908 -0.000303998 0.0802601 0.09228335 -0.027195556 0.14665353 0.0130251385
0.066803984 0.03312728 0.11491892 -0.07047764 -0.027362991 0.18766856 -0.044163305 0.16091485
0.011827694 -0.05046946 0.23507538 0.13909987 0.045884494 -0.09459903 0.049211565 -0.04076019
0.1119628 0.051153615 -0.021693869 -0.09578135 -0.055193372 0.0888836 -0.087862186 0.0012364348
-0.08820706 -0.0490565 -0.020432465 -0.030494034 -0.03267983 -0.018178206 -0.040960107 0.06219791
-0.00011008562 -0.05743314 0.0499816 0.11497362 0.07579217 0.039459545 -0.009610574 0.0968883
-0.01302254 0.05763466 0.114753656 0.020944502 -0.058744162 0.02643695 -0.0048922217 0.048930436
-0.062372 0.09479017 0.06896536 0.06816009 0.027258111 -0.043688267 0.06764916 -0.056812838
-0.02863324 0.12017971 -0.029125888 0.057045106 0.03243 -0.048819132 0.07812342 -0.01327417
0.06786806 -0.102951586 0.031794608 0.08726655 -0.05767958 0.114176884 -0.09664345 0.027731748
0.041809276 -0.024097981 0.03579053 0.044306446 -0.067941435 -0.09260116 -0.068508446 -0.009656838
0.0032993115 0.0050536944 0.03070288 -0.102335006 -0.037672825 -0.036234155 -0.035798717 0.112329856
0.028905153 0.09977585 0.009217839 0.07822407 0.076870695 0.10652803 0.056742825 0.06037454
0.12926337 0.063495845 0.039787315 0.0051893704 0.12768297 0.03773571 -0.008457601 -0.031723868
0.098347805 0.01625071 0.14960441 0.080030136 0.17326257 0.046060305 0.1637711 0.05604
0.041048042 0.0450906 -0.07930484 0.12700996 0.06470818 0.01655471 -0.08589392 0.008121339
-0.010815853 0.028890839 0.12435822 0.19476248 0.0971185 0.025539014 0.012773741 0.08788802
0.008371585 0.06971242 0.01694397 0.116974846 0.09506213 0.10976395 0.07718766 0.0639746
0.07730633 -0.049674463 0.014610257 0.07203585 0.048831817 -0.06284106 0.07831628 0.047551505

lstm.bias_hh_l0 f4 [256]
00000000: 28bb a03d ba54 1abd 3c1b f3bc cde1 0f3c
00000010: 0a7c 883d 3466 813c 9580 eabc 7c7e 153e
00000020: bcdc 533e b78f 033e 533a b93d 06be a73d
00000030: 045b 4e3d d8e7 7a3d 8cda fd3d 2403 8abb
00000040: 829d 343d 335e 5b3d db71 633c b628 70bd
00000050: 46ef e5bc aa2f ee3d f70e 84bd cf65 86bd
00000060: 9a05 123e 1440 34bd d4d4 063d f4ac c7bd
00000070: 3baa 2e3d 6a0d 3e3a 145c 4f3e 5bc1 f73d
00000080: 3a58 063e 22b6 5dbc 58ba e33d 8d21 8f3d
00000090: 40af c9bd 3b07 5dbd 30ea a7ba d4a7 633e
000000a0: af6f f43b 7e1d 8abd d8e6 073e 1ce3 7dbd
000000b0: 8e67 133e b2aa 153d da6c 403d 10ef 70bd
000000c0: 4638 b73c 1904 793d c7a5 063e 1e75 083e
000000d0: 9db1 9d3d 7bba 813d b36a 183d 6b0c 01bd
000000e0: 0652 e93d 6f55 a2bb dfe4 20bc 18b5 393b
000000f0: 2dd8 73bd 4c83 94bd 04f4 333d 2376 723b
00000100: bb01 63bd 3c4e 86bd eee6 a03d 6711 2e3d
00000110: 6a14 3a3e b4c4 db3d 7d08 8fbc 7164 fd3d
00000120: e4da 71bd 82e9 c7bd 30cf 2b3d 8512 1a3e
00000130: b59d 993d 3d07 953d 9b1c 03bd d332 1f3e
00000140: 1524 7abd d97b 2e3e 0cf7 aabd 2ffc f0bd
00000150: 8a4c 123d e107 b53d 027a 48bd b7b1 44bb
00000160: 5298 a83c 0728 d53b cbbe acba 7b42 2a3e
00000170: 17e2 95bc 9c98 b33d 480a 8e3d bae9 9bbc
00000180: 4c4e 893d a58b a2bd c80d c0bd 1bf1 a43d
00000190: 0587 0fbd dfe1 0a3e 2c98 bcbd b102 2a3e
000001a0: 8485 c9bd a061 973d 1899 3b3e 7d28 233e
000001b0: 1c88 343d 51a4 083e aef8 173e 3a34 3f3d
000001c0: bce2 5e3d 19fa c33d 2c63 483d 9194 da3d
000001d0: 5fb7 f93d fe3f 943d 7586 3e3d bc2a fd3d
000001e0: 4c91 3cbd 0f51 e2bc 604d a93d cf72 623d
000001f0: 8d9c 973d 6f59 993d 5fce ab3d 76b4 1dbd
00000200: 7108 2cbd 1cd6 cbbd cd96 4dbc d861 483a
00000210: d5e7 cbbd b7be 683d 2395 ad3d e2e8 d23c
00000220: 3b63 9dbd d7af 8abd 1ccc ccbd cc13 0cbd
00000230: 8fc2 013d 7801 ee3d b040 c5bd 4d19 c1bc
00000240: e4ac a1bd 858d c23d ea81 d63d 244e f3bd
00000250: 4f64 3dbd 3820 3cbc 2bd1 cabd 7326 e8bd
00000260: 96a5 26bd 8970 b23d f6b5 d53c 5294 c3bc
00000270: 451b 1bbc bc42 d33d 9865 d9bd bdb1 d33c
00000280: f0b9 47bc e513 e8bd 8c08 b73d ec15 5cbd
00000290: 708c d13d e4f0 1c3c 1328 e43b 8e8e 5ebd
000002a0: 244b b1bd e0cb ae3d 4e09 2bbd 8dda 3f3d
000002b0: a8dc c63d 04c8 18bd 8e78 263c bd34 253d
000002c0: 7da4 18bd ec98 163d 75e2 b7bd 0118 7b3d
000002d0: 2452 45bd 656d b7bb 36b1 7cbd 3783 2b3b
000002e0: 5567 b83d 72ad 1d39 f938 54bd fb6e 023e
000002f0: 5049 cf3d dfad 2dbd 16fb 55bd 7367 c3bd
00000300: fd48 c93c 1778 0c3e 423a 963d f351 4b3d
00000310: 64fe 22bd f78a 743d 4618 103e 2c20 333c
00000320: 5196 21bc 1949 123e fa0f e8bd 0bf1 2b3e
00000330: 8812 83bd 6b0c 5b3e 52ce e1bd d3ac e23d
00000340: a10b ffbc 5f71 8cbd c7cc e53c a7de ee3d
00000350: bd5e 603c 2b78 7a3d 8653 f6bc 081a f93d
00000360: 030b 0c3e 4829 e3bc 62c4 163e a393 933d
00000370: f216 a73d 3693 e33b 4677 2e3e 6142 3b3d
00000380: faa2 1dbd 9a79 eabd e0e2 ffbd a4db 0e3e
00000390: 3bb0 41bd 591e 4bbd 1f95 b03d 7f88 2a3d
000003a0: da8e bebd 615c 003d 3704 6d3d 1a5c f63d
000003b0: cc15 fd3d d4a7 75ba 8c0a dc3d 2e40 47bd
000003c0: d5ec 10bd 3d45 b33d 52ab 96bb 81f4 353d
000003d0: 3b3c 5f3d 6981 3bbd a016 ec3a 590e 433e
000003e0: b579 153d 93bd 203e 2073 433e 9d4e 87bb
000003f0: 574f 14bd 571d 773d 1941 eb3b d4e3 c3bc
0.07848197 -0.037678458 -0.029676072 0.008781862 0.066642836 0.015795805 -0.028625766 0.14599031
0.20689672 0.12847792 0.090443276 0.08190541 0.050379768 0.06125626 0.123952 -0.0042118
0.044095524 0.053556632 0.013882126 -0.058632575 -0.028068196 0.11630185 -0.06448167 -0.06562387
0.1425995 -0.044006422 0.032917812 -0.09749785 0.042642813 0.00072499237 0.20249969 0.120974265
0.13119593 -0.013532193 0.111195266 0.06988821 -0.098478794 -0.053961974 -0.0012810882 0.2223199
0.007459603 -0.067439064 0.13271654 -0.061984167 0.14394972 0.03653974 0.04697881 -0.058821738
0.0223657 0.060794923 0.13149177 0.13325927 0.07699893 0.063343965 0.03721113 -0.031505983
0.11392598 -0.004954032 -0.009820192 0.00283367 -0.059532333 -0.072516054 0.043933883 0.0036996685
-0.055421572 -0.06557891 0.07856546 0.042497065 0.1817185 0.107308775 -0.017460102 0.12372673
-0.05904664 -0.09761335 0.041945636 0.15046127 0.07500783 0.07276771 -0.032009702 0.15546732
-0.061069567 0.17039432 -0.08347902 -0.1176685 0.035717525 0.088393934 -0.04894448 -0.0030013153
0.020580444 0.006505016 -0.0013179419 0.16626923 -0.018296285 0.08769342 0.06935555 -0.019032348
0.06704387 -0.07936791 -0.093776286 0.080538 -0.035040874 0.13562725 -0.09208712 0.16602589
-0.09839919 0.07391667 0.1832012 0.15933414 0.044075117 0.13343932 0.14840958 0.046680667
0.05441545 0.09569187 0.048922703 0.10672868 0.121931784 0.07238768 0.046514947 0.123616666
-0.046037003 -0.027626542 0.08266711 0.05528527 0.074029066 0.07487761 0.083889715 -0.03850218
-0.042000238 -0.099529475 -0.012548161 0.00076439744 -0.09956328 0.056822505 0.08475711 0.025745813
-0.07684942 -0.0677182 -0.09999868 -0.034198567 0.031679686 0.11621374 -0.09631479 -0.023571635
-0.078943044 0.09499649 0.10473998 -0.118801385 -0.04623824 -0.011482291 -0.09903177 -0.113354586
-0.04068526 0.08712871 0.026087742 -0.023874436 -0.009466951 0.10315463 -0.106150806 0.025841588
-0.012190327 -0.113319196 0.08937177 -0.053731844 0.102318645 0.009578917 0.006962785 -0.05433517
-0.0865691 0.0853498 -0.04175692 0.046839286 0.097100556 -0.037300125 0.010160578 0.0403335
-0.037266243 0.03676693 -0.0897874 0.06130219 -0.04817404 -0.0055977576 -0.06169244 0.002617074
0.09004084 0.000150373 -0.051812146 0.12737648 0.10121405 -0.042402145 -0.052241407 -0.09541216
0.024570936 0.13717686 0.073353305 0.0496387 -0.039793387 0.05970284 0.1407176 0.010932963
-0.009862498 0.14285697 -0.11331172 0.1679117 -0.06400019 0.21391456 -0.110256806 0.1106812
-0.031133475 -0.06857561 0.028051747 0.11663561 0.013694462 0.061149757 -0.030069124 0.12163168
0.13676076 -0.027729645 0.14723352 0.07205894 0.08158673 0.006945039 0.17037687 0.0457176
-0.038485505 -0.11448975 -0.12494445 0.13950974 -0.047287207 -0.04958949 0.086221926 0.04163408
-0.093045905 0.0313381 0.057865348 0.12029286 0.12357673 -0.00093710166 0.10744199 -0.04864519
-0.03538211 0.087534405 -0.0045980597 0.04442263 0.0545008 -0.045777712 0.0018012114 0.19048442
0.036493022 0.15697317 0.19086885 -0.0041292445 -0.036208477 0.060330715 0.007179391 -0.023912348

lstm.weight_ih_l1 f4 [256, 64]
00000000: 12a8 fabc 285a a1bd 33c4 5f3d da57 adbc
00000010: 2e52 1dbe c856 d0bd 8412 19be 52f5 cf3c
00000020: c25c debd 67c6 193d 4f5c c2bd a8c0 acba
00000030: 1a2e 72bd 1e01 513c 7edd 633d 5ca2 03bd
00000040: b62f e43c 12b4 e03d 45b6 863d e206 1f3d
00000050: 937f 4abd 7d4a 8fbd 18b5 13be cb54 003e
00000060: 8c49 0dbe 9c58 dbbb 7d50 bd3d 9f9f fdbb
00000070: 6be9 5dbd 4213 263e 7250 f5bd 9b1e 5f3d
00000080: d7eb 423d 7dad 83bd 192f f4bd 5b52 93bd
00000090: 23d7 13be 3c4a 1cbd f632 0dbe dac7 d93d
000000a0: 51c3 afbd 7626 ea3d 9f38 f93d 1f5b 3e3e
000000b0: 8f11 f33d 31ea 113c d886 cc3d a852 c43d
000000c0: ed29 da3c 1667 d83c 892d 893d cff7 03bd
000000d0: b0b8 f83d 6bde 053b 553a 06be 659b 9bbd
000000e0: f539 a13d 8dc3 3fbe 472c 1abe 28e2 053e
000000f0: 6bb1 a73d d3aa 84bc 4e9b 123d 3dda d13c
00000100: dd98 de3d 83f2 123d be89 6d3d 488b c8bd
00000110: c82b c73c 3542 b4bd 1af6 04be b005 8b3d
00000120: 4ecf 3ebd 7e9c e43d c139 f2bc db48 9a3d
00000130: 9c83 fd3d 362f 1d3b 2583 e03d 30de 96bd
00000140: c529 9d3d 42e5 fa3b 00cf c93d 503d 003e
00000150: a2e3 e039 b488 ef3c 7d83 7dbd 7ac2 2e3d
00000160: 2cdf f0bb 2774 43bd 069c 8bbd 8f0f e03c
00000170: e553 933c 2301 edbd ff3b 383d 0ede d03d
00000180: dd88 dabd f15c 1cbb 90ec 4e3c 3b92 eb3d
00000190: 5080 093e a4cd b53d bc72 80bd d8a9 f1bd
000001a0: 99c8 a93d 02ac a9bc 8bb2 4a3d 1bac 4e3c
000001b0: 359a f93c 953b dd3d 6b97 1ebd 5071 653d
000001c0: 31e4 743d 7980 48bd 1ac6 703d f03c bd3c
000001d0: 0c84 0bbe 207c ad3d 916f e5bd a3c0 5f3d
000001e0: 8999 48bd e844 67bd db85 d23d 939d 2eba
000001f0: be80 a5bd 15e5 0c3d 2667 b1bd d5fa ebbd
00000200: b2ba a33d 3cb6 cabd 1cd1 faba 10c6 b0bd
00000210: ac95 c73d 9a75 a0bb 66e9 14be e65a e13d
00000220: 85eb 1e3d 8746 e23d bdc1 163c c623 d9bc
00000230: 9f1a 86bd 1462 b4bd 542c c6bd dcfd c3bd
00000240: 2f3f 8c3b 29ea 0e3b b4bd 70bd bd3e fcbb
00000250: ea52 d6bd 2459 843d 26e3 153e 6d8e 063e
00000260: c0d9 343d e8e6 0cbc fd2b c13d b1da 41bb
00000270: 8d01 c6bd 42da 38be 6448 da3d e354 7cbd
00000280: 8580 8abd 44d9 25bc d946 2f3d eb8d 333d
00000290: 2c21 ab3b dc53 36bd c5ec 17bd 6d67 35bd
000002a0: 9bdf cabd 8ce4 dcbd d204 41be 236f c23d
000002b0: 8a11 903b eef4 1bbe 1926 883d aec3 943d
000002c0: dfde 063d 5063 4fbc 24d6 4dbd 547e 163e
000002d0: 8a59 ea3d e9e6 c33d 9eb6 0fbd cbbc 043d
000002e0: 62a3 7b3d d28a 3d3e c12e 1a3e af14 3a3d
000002f0: e0d3 5abd 7988 e9bc 32c1 40be f627 5a3c
00000300: ef18 25bc 385b 42bd af4a ce3c 0d23 d63d
00000310: 63fd 533c a442 af3d 7417 c4bc 52d4 bb3c
00000320: 1a10 aabc fa0e 463e 5ee6 45bd bbee 0c3e
00000330: ca7e 48bd 4a70 68bb c7e6 1e3c f030 6e3d
00000340: fc01 893d 0c5c 79bd 13a3 e3bd e004 c73c
00000350: 587d d7bd 29a7 2fbd bbec fb3d e103 103d
00000360: 38c6 0fbd df3d 243e 85cd 83bc fb8d 073d
00000370: 12e7 dfbd f3b3 8f3d d82c 513d c9cc b73c
00000380: d737 06be 705c 483d a033 ccbd 2f19 223d
00000390: 5691 533d ac32 cf3c 4888 24be 00cd 733a
000003a0: 1b4c 153d 3ca3 8a3d f994 0f3e bac4 d0bd
000003b0: a050 143e ada5 d33d bcff b33b b61c dcbc
000003c0: 9b45 cb3d 8639 25bd 0a94 3bbd 8370 9a3d
000003d0: 49d1 2f3d c070 87bb e1fc b83d 07fe a13d
000003e0: 86ad b53d d0a8 883d ecd6 083e 9d05 07be
000003f0: 96c9 143d 87aa 8e3c 113c 03bc 87f5 3c3d
-0.03059772 -0.07878524 0.05463047 -0.021160055 -0.1536338 -0.10172802 -0.1494847 0.025385533
-0.10857536 0.037542727 -0.09490263 -0.0013179975 -0.059125997 0.012756614 0.055631153 -0.03213726
0.027854782 0.10971846 0.06577734 0.038824923 -0.04943807 -0.069966294 -0.1442455 0.12532346
-0.13797587 -0.0066939127 0.092438675 -0.0077399756 -0.054177683 0.16218284 -0.11978234 0.054472547
0.047588196 -0.06429575 -0.11923046 -0.071934424 -0.14437537 -0.038156733 -0.13788971 0.10633822
-0.085821755 0.11433117 0.12169003 0.18589447 0.118685834 0.008905933 0.09986657 0.09586078
0.02663132 0.026416343 0.06698138 -0.03221875 0.12144601 0.002042676 -0.1310819 -0.075979985
0.078723826 -0.1872694 -0.15055953 0.13074553 0.08188137 -0.016194737 0.03579264 0.02561676
0.10869 0.03587581 0.05799269 -0.09792191 0.024312869 -0.088016905 -0.12984505 0.06788194
-0.04658442 0.11162661 -0.029568555 0.07533427 0.12378618 0.0023984439 0.10962514 -0.07366598
0.076739825 0.007656724 0.09853935 0.12523389 0.0004289421 0.02923999 -0.061892975 0.042665936
-0.007350823 -0.047718193 -0.068168685 0.027351169 0.01798434 -0.115724824 0.04497909 0.101986036
-0.10670636 -0.0023859108 0.012629643 0.115025006 0.13427854 0.088771135 -0.06271884 -0.11799973
0.08290214 -0.020711903 0.049486678 0.012614275 0.03046904 0.1080238 -0.038718622 0.056016266
0.059787933 -0.048950646 0.058782674 0.023100346 -0.1362459 0.084709406 -0.1120292 0.054627072
-0.048974548 -0.0564622 0.10279437 -0.00066610536 -0.08081196 0.034398157 -0.08662252 -0.11522452
0.07994594 -0.0989804 -0.0019135806 -0.086315274 0.097453445 -0.0048968317 -0.1454216 0.110036656
0.038798828 0.11048608 0.009201464 -0.026506316 -0.06548046 -0.088077694 -0.09676424 -0.09569904
0.004279993 0.002180705 -0.058774665 -0.0076979087 -0.10465033 0.06462315 0.14637432 0.13140269
0.044152975 -0.008599974 0.09432218 -0.0029579813 -0.096682645 -0.18052009 0.10658339 -0.06160439
-0.067627944 -0.010122601 0.042792175 0.043836515 0.0052224603 -0.04451357 -0.037091035 -0.044288088
-0.099059306 -0.10785779 -0.18849495 0.09493854 0.004396622 -0.15230152 0.066478916 0.072638854
0.03292739 -0.012657955 -0.05025305 0.14696628 0.114428595 0.09565527 -0.035086267 0.03240661
0.06143511 0.18509987 0.15056898 0.04542988 -0.053424716 -0.028507458 -0.18823698 0.0133151915
-0.010076745 -0.047450274 0.025182096 0.10455904 0.01293883 0.085576326 -0.023936965 0.02292839
-0.020759631 0.1934165 -0.0483154 0.13762943 -0.04894904 -0.003546732 0.009698576 0.05815214
0.066898316 -0.0608788 -0.11115088 0.024294317 -0.10521954 -0.042884026 0.12301012 0.03515995
-0.035101146 0.16039227 -0.01608921 0.033094388 -0.10932745 0.070167445 0.051068157 0.022436516
-0.13107239 0.04891628 -0.09970784 0.0395748 0.051652275 0.025292717 -0.16067612 0.0009300262
0.036449533 0.06769416 0.14021672 -0.101937726 0.14483881 0.103343345 0.0054931324 -0.02686916
0.099253856 -0.04033806 -0.045795478 0.07540991 0.0429242 -0.004133314 0.09032608 0.0790978
0.088709876 0.066728234 0.13363236 -0.13185735 0.03632506 0.017415298 -0.008009926 0.04613259

lstm.weight_hh_l1 f4 [256, 64]
00000000: bbe5 39bd da36 07bc b115 dabd f8d8 b63c
00000010: a805 04be 7463 9f3b a335 afbc 5d55 863d
00000020: d2ef bc3d 3867 55bd da51 b93c a83c ce3d
00000030: a1c6 42bd 2bb4 443d 495c bf3c eec4 d23d
00000040: 15fc 7a3d 84d5 413d 3ead 833d 544a 933d
00000050: ab1d b03d fe00 d0bd a287 a4bc 1759 a73d
00000060: e19d fcbb 511e 0abd 06c1 113d 1eeb 003e
00000070: 5164 b33c 6a05 cd3d 5261 09be 9f5d 01bd
00000080: 8fe7 393d b241 28bd 9c5c f9bd 799f 87bd
00000090: 19f5 8c3b f637 1cbd 0600 513c 0ce3 7d3d
000000a0: 552b 82bd f7ea 6d3d 85e4 60bd 5777 373d
000000b0: 4b63 533d d112 07be 8210 143c 948c 003e
000000c0: 231f d73d 404c c4bd ce35 7fbd 5514 1b3e
000000d0: e052 f33d 0e0e afbd 16e5 93bd 029a aebd
000000e0: 951e 9b3d f811 4a3d ffc3 b43c 1077 c5bd
000000f0: 7bd7 d63c 04a2 923d a9f2 dfbb b5a7 f93c
00000100: e138 09bd face de3d 27f3 a9bd a05f 923d
00000110: 2911 df3c 1e12 11bd 8403 a9bd 3b50 a73d
00000120: 278b 4c3b cd27 02be 703f d93d b474 e23d
00000130: 542a 4f3d 839e ed3d fe28 b33d 4a4d 02be
00000140: 237a 4d3d 52ba b83d 3429 393d f514 373d
00000150: 3e4d ecbc 8324 dabd c52e 203d 0d26 ddbd
00000160: 2332 83bd 36b6 a4bd ffbd 5f3d 3d7b f8bc
00000170: e4d0 873d e7cb cf3d 1adf 04ba 73fc 01bd
00000180: bebc cf3c 31ec 473c 1c87 f9bc 7143 efbd
00000190: ddf1 953d 2640 da3d a846 913c 9b7c f73c
000001a0: fcd9 ee3d bb1e 5a3c 1d97 a4bd b86a f33d
000001b0: 4306 03bd 7d7e e53d 83f6 803c 5922 a53b
000001c0: cf5d a53d 91db b73d 172f 7b3d a5a9 9d3c
000001d0: 9578 59bd cc67 d6bd 696e 9cbd dbc0 273d
000001e0: f14e ec3c df4d ff3c 5540 b7bd 19c4 e9bd
000001f0: 4b7d 7a3d f701 93bc e0e8 57bd 5773 ff3d
00000200: 9249 eebd 66c1 853d 3e0a 553d 24fa 763d
00000210: 174a 59bd 0615 873d 87a1 00be b1aa a43d
00000220: ff25 d93d c6c6 ce3d a473 103e 662d 80bd
00000230: 685b 12bd 97d2 6abc 3f86 83bd 3e47 533d
00000240: ce52 a8bd ad4a 99bd 1771 93bd c54b b53d
00000250: 3a3d 493d 802c a3bd be50 1a3d b1b4 b7bc
00000260: 4e9a b33d 2252 b4bc d8a3 d93d b4e9 e3bc
00000270: 8103 d63d e0a1 14be f396 2e3c b24b 9abd
00000280: 7e67 fc3d 67cf 94bd 94f2 0ebd fd4d f73d
00000290: abc3 0b3e c45c f6bd 3c06 0cbe 4816 b33d
000002a0: fc24 e53d b6cf 553d 1244 11bc a9df a43d
000002b0: 0f9f 5abc f945 66bd aa2d cf3b 72bf c8bc
000002c0: 5c44 f6bd 1664 bd3d 21e4 f0bb a0e8 bdbd
000002d0: 362b 55bc 395d b2bc ae74 953d bde5 a23d
000002e0: fbb6 953d 5ed8 3b3d 97a6 89bd 38eb 043e
000002f0: d975 40bd e4fa f5bd 3d0c 863d caf3 a33a
00000300: 1089 aebd aef8 95bd 05d6 10be 9705 dabd
00000310: 9186 e1bd 6a37 69bd 6575 1dbe a5d7 02bd
00000320: 92a9 073c b994 8d3d 9b17 f5bd 594b 32bd
00000330: eb63 00be 70b4 7fbd bc44 88bc bf63 fabd
00000340: aaae 1b3d 592b b5bd 3019 9ebd abea 2fbd
00000350: d113 983d 891e 393d 9ea2 6dbd c10c aabd
00000360: 8ded d7bd 297d 93ba 893c a33d 78a5 c23c
00000370: b7bd cfbd ad2b 0a3d d534 a4bd 3d07 54bd
00000380: de04 983d 0421 5c3d 1204 33bd 324c 12bb
00000390: d297 a7bd af24 b5bd 8288 b9bd 115c 633d
000003a0: 39d3 283c 6321 e4bc 6719 573d 90ee 9dbd
000003b0: 809d 71bd 3d44 04be dc76 f93c a255 da3c
000003c0: 5b02 84bd 111c ed3d 4d79 62bd 36f4 0fbc
000003d0: 6281 83bd 5918 1dba 861f 943c 562a 02bb
000003e0: a7b0 f4bd 6465 b03d 627d dbbd cf9c c8bd
000003f0: a417 10bd cf0e 933c c5e4 f8bd 737a e4ba
-0.045385104 -0.008252824 -0.106486686 0.022320256 -0.12892783 0.0048641507 -0.02138788 0.065592505
0.092254296 -0.05210039 0.022622038 0.10070163 -0.04755271 0.048023384 0.023359435 0.102914676
0.06127556 0.047322765 0.06429528 0.07191911 0.08599409 -0.10156439 -0.020084206 0.081712894
-0.0077092503 -0.03372032 0.035584472 0.1258969 0.02189842 0.10010798 -0.13416031 -0.031583425
0.045386847 -0.041078277 -0.12175867 -0.06622214 0.004301679 -0.038139306 0.012756353 0.061984107
-0.06355921 0.058085408 -0.054905433 0.044791546 0.051608365 -0.13190772 0.009037139 0.12553626
0.10503986 -0.09584856 -0.06230717 0.15144475 0.118810415 -0.085476026 -0.07221429 -0.085254684
0.075741924 0.049333543 0.022066114 -0.0964185 0.026225796 0.07159808 -0.0068343473 0.030475477
-0.03350151 0.108793214 -0.08298331 0.07147145 0.027229862 -0.03541767 -0.08252624 0.081695996
0.003121087 -0.12710495 0.10607803 0.110574156 0.050577477 0.11602499 0.08748053 -0.12724796
0.050165307 0.09019913 0.04520531 0.04469772 -0.028845426 -0.10651495 0.039107103 -0.10798273
-0.06406047 -0.080425665 0.054624554 -0.030332202 0.066316396 0.10146313 -0.0005068645 -0.031734895
0.025358554 0.0122023085 -0.030459933 -0.11682785 0.073215224 0.106567666 0.017733887 0.030210784
0.11662671 0.013312991 -0.08036635 0.11885589 -0.031988394 0.11205766 0.015742546 0.005039495
0.08074533 0.08977426 0.061324205 0.019245932 -0.05309351 -0.104690164 -0.076382466 0.040955406
0.028846236 0.031165062 -0.08947817 -0.11414356 0.061154645 -0.017945273 -0.05271232 0.12473171
-0.11635126 0.065310284 0.05201172 0.060297146 -0.053049173 0.06595807 -0.12561618 0.08040369
0.1060295 0.10096507 0.14106613 -0.06258659 -0.035731703 -0.014332435 -0.0642209 0.051581614
-0.08218919 -0.074849464 -0.071993046 0.088523425 0.049130656 -0.07967472 0.037674658 -0.022425028
0.08769666 -0.02201182 0.10626954 -0.0278214 0.10449887 -0.14514875 0.010656106 -0.07533969
0.12324427 -0.07266121 -0.03489931 0.12075422 0.1364886 -0.120294124 -0.13674253 0.08744484
0.11188695 0.05220004 -0.008866327 0.08050472 -0.013343587 -0.056219075 0.0063225823 -0.02450535
-0.12024757 0.092476055 -0.007351414 -0.09272885 -0.013010791 -0.021772968 0.072976455 0.07953975
0.073102914 0.04586064 -0.067212276 0.12980354 -0.04698739 -0.12010744 0.06545303 0.0012508568
-0.08522236 -0.073228225 -0.14144142 -0.106455974 -0.11011995 -0.056937613 -0.15376814 -0.031943936
0.008280175 0.06913132 -0.11967393 -0.04352889 -0.12538116 -0.062427938 -0.016634338 -0.12226056
0.03800837 -0.088461585 -0.07719648 -0.042948406 0.07425655 0.045195136 -0.058016412 -0.08303214
-0.10543356 -0.0011252511 0.079705305 0.023760542 -0.10143607 0.03373306 -0.080178894 -0.051764715
0.07422803 0.053742424 -0.043705054 -0.0022323248 -0.08183254 -0.088448875 -0.0905924 0.055507723
0.010304266 -0.027847951 0.05251446 -0.07711518 -0.058988094 -0.12916656 0.030452184 0.026652161
-0.06445762 0.11577619 -0.055291463 -0.008786252 -0.06421162 -0.0005992703 0.018081438 -0.001986166
-0.11947756 0.08613089 -0.10717274 -0.09795534 -0.035178795 0.017951397 -0.12153009 -0.0017431512

lstm.bias_ih_l1 f4 [256]
00000000: 1b89 34bd 19a5 0d3c e32b 773d ecca e6bd
00000010: 2e72 783b b1c0 c4bc 9da6 a3bd 682d 9cbc
00000020: b40b 10bd 8120 4b3d 521d ecbd 2530 9cbd
00000030: 59a9 833d 750d 53bd 1c55 ea3d 84d4 dd3d
00000040: 0b8e 41bd 9a4a 653d 7c14 d93d de32 83bc
00000050: 7969 e53d 8882 c0bc dc70 c33d 431c 933d
00000060: f7cc f03d b9de 103e 2cd8 0a3d 4db9 86bd
00000070: 940d 8bbd 5630 aebd 3803 87bd eafb 89bd
00000080: 7268 c3bc cccb 1ebd 06ee 6f3d 7604 e23d
00000090: bce2 bdbb dfd8 ac3c 1291 f43d de43 dd3d
000000a0: 2374 ca3d 8a9b e5bd 16c6 0dbd 1b45 f93c
000000b0: d76a 9b3d 93d9 af3c 5dc6 a13d 4061 7d3d
000000c0: c40e a23d 0089 e7bd 5569 0dbe 26be e43c
000000d0: 47a7 cf3d 4be1 8fbd 284f b43d bd60 cabc
000000e0: 50b7 c0bc 92a1 b73d af3c 0bbe e2f9 e0bc
000000f0: 86ee a7bd 645f ea3c feb0 793c b3ff c0bd
00000100: d81b 013e 0e97 35bc cb33 fdbd 4fe5 90bd
00000110: 52ab 183c 433a a8bd 0ef7 e73b 5a97 c23d
00000120: 3f2d d9bc d848 c83d 3106 6c3b e1f7 1ebd
00000130: e766 ef3c ba87 00bd c2dc d1bc 6e74 f63d
00000140: 0048 b1bd 5fa4 5cbd 317e 25bd c693 b43d
00000150: 5a7b 4f3d 2a1f 303c e222 debc d84d 54bd
00000160: f2de 923d 9d34 96bd f480 363d a0db 5c3c
00000170: b28f 3a3d afa7 7e3d a6b7 553d de2d 53bd
00000180: d29c 19bc c10b bf3c ecf5 1d3d 5368 48bb
00000190: fc1a af3d 0e34 993d d610 533d 3f7d 8bbd
000001a0: 3ed7 bf3d e01f f8bc fb62 cabd 2d53 703c
000001b0: 6e2d 89bd 6f2e 22bd 7e93 7e3d d65b cabc
000001c0: 3565 b93d 8b82 c5bd 6ed0 dabd 866f a4bc
000001d0: 1c11 debd cad4 183d 0143 89bd 180b 9e3d
000001e0: 8405 ad3d 0009 e3bd 7d99 7dbd 1b44 7f3d
000001f0: 9bde 943d 3e39 a83d dcc7 dfbd 76ca b33c
00000200: e1e5 ea3d c81f 14bd 5f90 a9bd 3f8d c03d
00000210: d125 d13d a0b0 9abc eeaa 93bc 41c7 ee3d
00000220: d017 363d 68a9 a9bd 657e 473d e265 f3bd
00000230: 613a 1d3b 1bd8 e53d d8a7 f93c 9764 be3d
00000240: 1848 dd3d 7a60 b4bd 6b98 52bd d388 b23b
00000250: aa33 b53d 4eea 083d adc9 ebbd 82c8 063d
00000260: f985 023e 50a7 a3bd c027 d8bd 1f21 83bd
00000270: 6190 6e3c 193a 093e 2826 b5bc 2363 adbb
00000280: 2971 1abd c319 e5bd 7750 9d3d d819 3d3d
00000290: 4ee5 df3d 74fd 0b3d d152 af3d 2461 c83d
000002a0: d339 a6bd a5f5 a13d f6f6 3ebc fd29 873d
000002b0: da81 8a3d 3220 813d 5041 043e 13d0 7e3c
000002c0: 1c5c 083e 1c1c 96bd a7f4 87bc 41cf d0bc
000002d0: c229 08bd 6926 ecbc f083 8cbd f672 fabc
000002e0: a49b c03d a74b 8abd bbbd b13d 3ac1 bdbd
000002f0: 66be cabd 6c65 d43d 451f 2c3d f6cc bf3b
00000300: 32ff 003e b378 b0bc 02fb b2bd 3261 ae3c
00000310: 88fd 963d 0fae 093c 4ceb c1bb 989e 593d
00000320: 85d5 853d 7ee1 dfbd 17f5 b8bc ae45 313d
00000330: 3e75 d6bd 4372 babc a8cb bc3d ada2 fcbd
00000340: fcae 893d 28cf c7bd 19e4 c5bd 7f5b 5a3d
00000350: f64c e8bd a635 9b3d 9fe2 d33d 54bf ce3d
00000360: a4b7 51bd 8e34 103c d8ac d0bd 6a21 b33d
00000370: b300 cfbd 9cea 583d 643e b6bd 1850 88bd
00000380: 793d 87bd 7fbc e3bc f359 94bc c2f2 e73d
00000390: 0e9c 59bd d3db 033e f31b 56bd 76e7 713d
000003a0: e5eb ed3d 8726 343d 61db cf3d 2d08 dfbd
000003b0: 4af8 03bb 4959 063e f657 c8bb 9ac9 9bbc
000003c0: c716 f43d 3125 cd3d 5237 ebbd c122 f0bc
000003d0: ff74 913d c8db c73d 5d99 063e 378f 823d
000003e0: 5d62 213d d706 b13d 4cd5 4abd ddc0 963d
000003f0: a5e9 53bd 9cf2 393d 91a0 793d 07c4 873d
-0.044076066 0.008645319 0.060344588 -0.11269173 0.0037909853 -0.024017664 -0.07990763 -0.01906462
-0.03516741 0.049591545 -0.1152903 -0.0762637 0.06428785 -0.051526506 0.114420146 0.1083155
-0.047254603 0.05597935 0.1059961 -0.016015466 0.11201758 -0.023499742 0.095430106 0.07183125
0.11757844 0.14147462 0.033897564 -0.06578312 -0.06789699 -0.08505313 -0.06592411 -0.06737502
-0.023853514 -0.038768575 0.058576606 0.11036007 -0.005794851 0.021099506 0.119417325 0.1080396
0.098854326 -0.11211307 -0.034612738 0.03042846 0.075887375 0.021466052 0.07899163 0.061860323
0.079129726 -0.113054276 -0.13809712 0.027922701 0.101393275 -0.07025393 0.0880416 -0.024704332
-0.02352491 0.08966364 -0.13597368 -0.027462903 -0.081997916 0.028609939 0.015239952 -0.09423771
0.12608278 -0.0110833775 -0.12363394 -0.07074987 0.00931819 -0.082142375 0.0070790118 0.09501524
-0.026510833 0.09779519 0.0036014433 -0.038810614 0.029223872 -0.03137944 -0.02561796 0.12033926
-0.08656311 -0.053867694 -0.04040355 0.08817248 0.050654747 0.010749618 -0.027116243 -0.05183205
0.0717143 -0.07334254 0.044556573 0.013480097 0.045547195 0.062171634 0.052177094 -0.051557414
-0.009375768 0.023321034 0.038564608 -0.003057976 0.08550069 0.07480632 0.051529728 -0.06810998
0.09367226 -0.030288637 -0.0988216 0.014668268 -0.06698118 -0.039595064 0.06215238 -0.024701994
0.09052507 -0.0964404 -0.10684286 -0.02007271 -0.10843107 0.037312306 -0.06702233 0.0771696
0.08448318 -0.11085701 -0.061913956 0.06232081 0.07269021 0.08214043 -0.10926792 0.021947127
0.11469627 -0.03616312 -0.0827949 0.094019406 0.10212291 -0.01888305 -0.018025842 0.116590984
0.044456303 -0.08284265 0.048704524 -0.11884667 0.0023991095 0.112228595 0.030475542 0.0929653
0.108047664 -0.08807464 -0.05141489 0.0054484396 0.08847745 0.033426575 -0.11513076 0.032906063
0.12746419 -0.07990897 -0.10554457 -0.06402802 0.01456079 0.13401069 -0.02211292 -0.005291359
-0.037705574 -0.11186554 0.07681363 0.046167225 0.10932408 0.03417726 0.08560718 0.09784153
-0.08116498 0.07908181 -0.01165556 0.065998055 0.067630485 0.06304969 0.1291554 0.015552538
0.13316387 -0.0732958 -0.016596152 -0.025489451 -0.03324295 -0.02882691 -0.068611026 -0.030572396
0.09404686 -0.06752711 0.08678766 -0.09265371 -0.09899597 0.10370907 0.04202201 0.0058532907
0.1259735 -0.021541929 -0.08739282 0.02128658 0.07372576 0.008403315 -0.005917942 0.053129762
0.06534866 -0.10931681 -0.022577805 0.043279342 -0.10471581 -0.022759562 0.09218532 -0.123357154
0.06722829 -0.09756309 -0.09662647 0.053309914 -0.11342804 0.07578592 0.10345959 0.10095087
-0.051200524 0.0088015925 -0.10189217 0.087466076 -0.10107555 0.052958116 -0.08898619 -0.06655902
-0.06603522 -0.027799843 -0.018109297 0.11325599 -0.05312734 0.12876825 -0.05227275 0.05905863
0.11617259 0.043982055 0.10149265 -0.10890231 -0.0020137005 0.13119997 -0.0061140014 -0.01901703
0.11918407 0.10016859 -0.11485161 -0.029313447 0.07102393 0.09758717 0.13144441 0.06374972
0.039400447 0.08643883 -0.049519822 0.073610045 -0.051736493 0.045397386 0.060944144 0.06629186

lstm.bias_hh_l1 f4 [256]
00000000: 7c8d 4fba 8827 80bd b8fe f1bc b6fc abbd
00000010: 8a79 bbbc 3b84 e73c d5c7 93bd fc36 f03d
00000020: 3981 8cbd b4b1 02bd 82c4 59bd 391a 5bbc
00000030: 4f4a c23d 7317 0cbc 42ad d53c 82d2 743d
00000040: 220d 913d c1d3 d53d f770 6cbd a415 d9bd
00000050: 8f6c d1bc 8aaa 26bd f79e 743d 6946 c1bd
00000060: 635a d63c e576 46bc daa2 bd3b 9c73 283d
00000070: 2476 eb3d fd86 40bc ef09 fabc 7a1f 40bd
00000080: d102 a6bb af2c e43d 7611 45bc 2e0b a43d
00000090: 8578 8fbd 075f debc e580 edbc 7312 0ebd
000000a0: 5c32 a3bd da4f 3c3d 3a53 3b3d fc29 efbc
000000b0: ff39 a5bc 80bb bdbd 2e31 363d 237c debc
000000c0: 48bc bf3c 03c4 94bd bc7c babd 0d38 64bd
000000d0: bb0b 9d3d e91d 75bd 1866 82bd 5670 82bd
000000e0: 9720 a1bd e650 2e3c c6d0 2b3d 5ba9 e1bb
000000f0: 58f4 07bd 6768 cc3d d15e 8fbd f8e2 f03c
00000100: 2e9d 5b3d fb66 53bc 77ee 20bd b3ea 70bd
00000110: ad41 053d 22c0 e13c 592f 713c a91d 773d
00000120: ae5f e73d a934 e83c de3e 00bb 898d c13b
00000130: 6906 e33d ff4f b5bd 473f 85bd 3757 ba3d
00000140: 10b5 b33c 37fa a63d 9ee4 d23d 2ea5 edbd
00000150: 4043 7c3d e907 ac3d 46f4 6bbd b159 013e
00000160: 4ef2 ccbb 5408 b33d 5849 af3d fb0b adbd
00000170: c170 9fbd 6435 c5bd 0195 ecbd e03d 05bc
00000180: ea19 0f3d 4f0d cbbc 4237 8bbd 8e8b adbb
00000190: 8f8d b43b a481 f73d ee9f 8f3c 58f1 3cbb
000001a0: 5fb1 6bbd 5624 e8bd 03d5 e7bd 2773 4dbd
000001b0: ac58 35bd 2a28 06bc d07f 543d da37 92bd
000001c0: 2610 82bc 59c1 f5bd a476 1d3d 1488 963d
000001d0: 200a 3a3d b1a3 ccbd 412a b93c bd2d 09be
000001e0: dc0b 953d 8f89 4b3d e9d4 ce3c 71c2 e83d
000001f0: bfcd f9bd 5ec8 be3c 74fe 9d3c 8e03 bb3c
00000200: 2107 9fbd f2cb 10bd 4d47 f1bd a3dd 473d
00000210: 37c2 cebd b4d7 2e3d 1b37 8abd 4c04 713d
00000220: a981 b2bd f3ed 2a3d 1658 4fbc 6ab0 a43d
00000230: dac2 e13d e4b5 a53c 99d7 9c3d a475 163d
00000240: 1c19 92bd 6000 343d ff9e 51bd 1606 363c
00000250: 6000 b83c 8e34 543d a57b d63d acb5 0d3d
00000260: 7d7f 5e3d b5be 223e b66c 073e 6173 733b
00000270: 0f7a dcbd 7766 0cbd 3da0 d63d 9a0e 90bd
00000280: 152b 05bd c319 e93d fb8d e53d f0cf 353c
00000290: 1137 e7bc 1d6e a3bd b855 ee3d 8e42 90bd
000002a0: 580f 123c b522 d03d 3481 4c3b a2ba 463d
000002b0: 4fd9 043d 0f9e 4dbd bc96 92bd 3543 a63d
000002c0: 269e ae3d 35f2 11bd d600 8b3c dbd9 98bb
000002d0: 1777 c33a 4163 05bd ff85 223c de5c a3bc
000002e0: 600f 90bd a138 e33d 058b 98bd 5157 dcbc
000002f0: 634f 943c f894 593d 47d3 b4bd 85b9 563b
00000300: 3ef1 0b3d 8b1e 333d 1e04 893d 0221 00be
00000310: 40be c1bd 54d9 babd 39fb 47bd bba4 ebbc
00000320: 2c8e c8bb b7ad 00bc b32d e93d d29d db3d
00000330: a625 5b3d 6518 c33c af38 7dbc 2150 c6bd
00000340: 3ab2 4abc 199c e0bc 53b7 9cbd 6740 e3bd
00000350: fa0c a9bd b84c f33d d3fb 053e a6bc b63d
00000360: cb4b 133e d7f6 e33d e38c 003e 7563 2e3d
00000370: d2ae 423d 4a00 9e3d 6911 fbbc f085 903d
00000380: 9b8f 713d 9d05 c93d ff87 5fbd 00f2 19bd
00000390: a80e 6e3d 1ce1 bcbd bf58 5f3d 1225 d9bd
000003a0: 0301 ecbd d340 c1bd d59d 7dbc c929 b6bd
000003b0: 1c55 22bd a5b3 58bd 06c9 f73d e5b0 603d
000003c0: 91e2 dcbd 9162 babd 0a40 c03c af10 e2bd
000003d0: e531 c1bd 7d61 db3d 04f6 953d dd95 e33d
000003e0: 6d89 903d cb53 ecbd 6b5d 44bc 3390 1d3d
000003f0: c5be a13c ab57 e8bc 3094 503d a207 92bb
-0.0007917506 -0.0625754 -0.029540405 -0.0839781 -0.022885103 0.028261295 -0.07215849 0.117292374
-0.06860585 -0.031907752 -0.05316592 -0.013372951 0.094868295 -0.008550513 0.026083592 0.05977107
0.07082583 0.104407795 -0.05772492 -0.10599831 -0.02556446 -0.040689982 0.059721913 -0.09437258
0.026166147 -0.012113308 0.0057872357 0.04112588 0.11497143 -0.011750934 -0.030522315 -0.04690502
-0.0050662537 0.11141335 -0.012028089 0.08009945 -0.07005409 -0.027144922 -0.028992126 -0.034685563
-0.0796859 0.04597459 0.045733668 -0.029194824 -0.020169256 -0.092642784 0.044480495 -0.027158802
0.02340521 -0.07263949 -0.091058224 -0.055717517 0.07668253 -0.059842978 -0.06367129 -0.06369083
-0.07867544 0.010639405 0.04194715 -0.006886644 -0.03319201 0.09980851 -0.07000507 0.029405102
0.053616695 -0.01290297 -0.039289918 -0.058817577 0.032533336 0.027557436 0.014720761 0.06033102
0.11297546 0.028345423 -0.0019568722 0.005906765 0.11085207 -0.08853149 -0.0650621 0.09098666
0.021936923 0.081531934 0.102975115 -0.11603771 0.061587572 0.08399946 -0.057606004 0.12631871
-0.006254471 0.08741823 0.08558911 -0.08449551 -0.07785178 -0.09629324 -0.11551858 -0.008132428
0.034936823 -0.02478662 -0.06797649 -0.005296177 0.005510039 0.12085274 0.017532315 -0.0028830376
-0.0575422 -0.113350555 -0.11319926 -0.050158646 -0.044274017 -0.008188287 0.051879704 -0.07139559
-0.01587684 -0.11999769 0.038443223 0.073501736 0.045419812 -0.09992159 0.022603156 -0.13396354
0.072776526 0.049691733 0.025248008 0.11365212 -0.12197446 0.023288902 0.019286372 0.022828843
-0.077650316 -0.035350747 -0.11781178 0.048795354 -0.10095637 0.04268618 -0.06748792 0.05884199
-0.08716137 0.041730832 -0.012655279 0.08041461 0.11023493 0.020228334 0.076583095 0.036733285
-0.071336955 0.04394567 -0.05117702 0.011109849 0.022461116 0.051807933 0.10472802 0.034597084
0.0543208 0.15893061 0.13225064 0.0037147629 -0.10765468 -0.034277406 0.10479782 -0.07034035
-0.03251179 0.11381867 0.11208721 0.011096939 -0.0282245 -0.07979987 0.11637443 -0.07043944
0.008914791 0.1016287 0.003120494 0.04851783 0.032433804 -0.050199565 -0.071576566 0.081182875
0.08526258 -0.035631377 0.016968172 -0.0046646423 0.0014912811 -0.03256536 0.0099196425 -0.019941743
-0.070341825 0.110947855 -0.07448391 -0.026897104 0.01810426 0.053120583 -0.088293605 0.0032764387
0.034165613 0.0437303 0.066902384 -0.12512591 -0.094601154 -0.09123483 -0.04882357 -0.028765073
-0.006120464 -0.007853917 0.113856696 0.10723461 0.0535027 0.023815343 -0.015455409 -0.09683252
-0.012371594 -0.027418183 -0.07652154 -0.11096268 -0.08254428 0.11879867 0.13084345 0.089227006
0.14384381 0.11131065 0.12553744 0.04257532 0.047530003 0.07714899 -0.03064795 0.070567966
0.058974843 0.09815524 -0.054573055 -0.037584305 0.058119446 -0.09222624 0.054527994 -0.10602774
-0.115236305 -0.09436192 -0.015479525 -0.08894689 -0.039631948 -0.052905697 0.12098889 0.0548562
-0.107854016 -0.09100831 0.023468036 -0.110383384 -0.09433345 0.10711954 0.073223144 0.111125685
0.07057462 -0.1153942 -0.011985163 0.038467597 0.019744286 -0.028362116 0.050922573 -0.0044564763
