nvda_lstm_v7_1_artifact.pth (torch, 394963 bytes, 15 tensors)

lstm.weight_ih_l0 f4 [256, 33]
0.040104963 0.108702935 0.07269658 0.1900743 -0.048990365 0.17755824 -0.0076912204 0.08475705
0.18139167 0.09146116 0.20228858 -0.064596035 0.17167097 0.11786339 0.2527896 0.07915242
0.20698147 0.04119927 -0.039588418 0.048347812 -0.04115981 -0.066403024 0.06450221 0.20750843
-0.008581663 -0.10761767 0.05372113 0.08090538 0.13447899 -0.066942595 0.18527721 0.08073834
0.27666283 0.047530416 -0.091183364 0.16054907 0.08681749 0.1676547 0.21763341 0.014630854
0.07919399 0.046470556 0.16642264 0.20734382 0.103119664 0.034815278 0.16448924 0.086909026
0.14183973 -0.002760577 -0.048840806 0.06415793 -0.100258775 0.18327717 -0.07354439 0.042908564
0.12172252 0.024878627 0.060391553 -0.0625968 0.031912815 0.10498132 0.12649265 0.039618503
0.2038797 0.09722831 0.15026315 -0.0646749 -0.047736906 -0.038207166 0.114377074 0.085538
0.16397645 -0.051879942 -0.036075488 -0.00064176874 -0.05099634 -0.03316269 0.07444296 0.13454969
-0.13098115 -0.07342792 0.082773656 -0.055391416 0.058066517 0.034031313 0.07026319 -0.33368602
0.30658635 -0.033109378 -0.019521728 -0.0664824 0.15235446 0.1227215 -0.07392476 0.05934877
0.12631041 0.12170306 -0.0767719 0.025048941 -0.0059897937 0.083328106 0.054260258 -0.023829086
-0.049769167 0.00039906398 -0.06853653 0.16654788 0.04316599 -0.07250495 0.19628978 0.15361768
0.0034219401 -0.08224026 -0.0189681 0.043345217 -0.017300174 -0.13805729 0.019632645 -0.027074605
0.1986191 0.24694107 0.12141783 -0.057844054 -0.10065913 -0.27384874 0.08036545 0.057123363
0.29840255 0.04235648 0.36270142 0.0010314423 -0.059939235 0.08108274 0.021744024 0.0033196416
-0.09405264 -0.079587586 0.083001845 -0.03976991 0.16570155 0.025956957 0.11901773 -0.06925816
-0.012942311 0.058568694 0.04279267 0.11932245 0.14598484 -0.10872826 0.048444577 -0.109800704
-0.003982027 -0.16625041 0.14226711 -0.12364025 0.0807241 0.036594663 0.15169875 -0.023238735
0.13866875 -0.08219282 0.031504184 0.015171219 0.091178745 0.068820305 0.15150474 0.041950848
-0.011886017 0.010813088 -0.16475776 -0.02511245 0.10006608 0.040132284 0.13968234 -0.0154731115
-0.08885417 0.09587515 0.12184174 0.080910504 0.10094804 0.17118385 0.07269721 -0.0071774176
0.075185165 0.13601792 0.08104766 -0.24441585 0.06559918 0.10168195 0.041159395 0.02836048
0.09385558 0.22765748 0.22003755 0.04138256 0.15223916 0.14671507 0.06806237 0.091142535
-0.11586735 -0.046862192 0.11776321 0.17031236 -0.005594401 -0.029531682 -0.062418148 0.026882155
0.07275772 -0.07424342 0.14671543 0.18199344 -0.00673472 0.0025788078 0.07525935 0.23167528
0.09718021 -0.022507714 0.097113244 -0.029482162 -0.030012153 0.22868559 0.027350573 0.04212535
-0.23882072 0.12621082 0.18702213 -0.04027535 -0.027914064 -0.023406684 -0.08901522 0.33964926
0.22664607 0.2590146 0.23559798 0.03442429 -0.017297413 0.086994514 -0.06508333 0.19604969
0.20927161 -0.063984126 -0.05156249 -0.027992755 -0.039659537 -0.014467638 -0.032845557 0.09008455
0.030546714 0.06640037 -0.020785406 -0.106115304 -0.015936743 -0.07566036 -0.046493106 -0.13745551
00000000: 1a45 243d a59f de3d f2e1 943d d6a2 423e
00000010: 1faa 48bd d4d1 353e a206 fcbb 1b95 ad3d
00000020: bdbe 393e fd4f bb3d bd24 4f3e ed4a 84bd
00000030: 84ca 2f3e 5c62 f13d a36d 813e aa1a a23d
00000040: f3f2 533e 91c0 283d 7727 22bd 5b08 463d
00000050: 3097 28bd 4ffe 87bd bc19 843d 177d 543e
00000060: 1a9a 0cbc a766 dcbd b00a 5c3d b8b1 a53d
00000070: dcb4 093e 3319 89bd 4fb9 3d3e 255a a53d
00000080: c0a6 8d3e 41af 423d 58be babd fa66 243e
00000090: 5ecd b13d acad 2b3e 4bdb 5e3e 40b6 6f3c
000000a0: 7530 a23d e957 3e3d b26a 2a3e f051 543e
000000b0: 6730 d33d 779a 0e3d de6f 283e 5cfd b13d
000000c0: 6f3e 113e ccea 34bb 4c0d 48bd 3c65 833d
000000d0: 7954 cdbd 03ad 3b3e 719e 96bd e4c0 2f3d
000000e0: a849 f93d 43ce cb3c 225d 773d c032 80bd
000000f0: 03b7 023d 7200 d73d 4a87 013e 0347 223d
00000100: d7c5 503e a31f c73d 95de 193e 4674 84bd
00000110: c687 43bd 1e7f 1cbd 873e ea3d 8c2e af3d
00000120: 71e9 273e 1080 54bd e4c3 13bd 5f3c 28ba
00000130: 8ae1 50bd 9ad5 07bd 8d75 983d 65c7 093e
00000140: ec1f 06be 6161 96bd 3c85 a93d 1ce2 62bd
00000150: 28d7 6d3d 6b64 0b3d 26e6 8f3d e5d8 aabe
00000160: e3f8 9c3e b39d 07bd 08ec 9fbc ed27 88bd
00000170: cf02 1c3e 6955 fb3d dd65 97bd b217 733d
00000180: 8457 013e 743f f93d 963a 9dbd 7033 cd3c
00000190: 0846 c4bb eda7 aa3d 0140 5e3d 3735 c3bc
000001a0: c1da 4bbd 7639 d139 e15c 8cbd 878b 2a3e
000001b0: d2ce 303d 7a7d 94bd 3000 493e f44d 1d3e
000001c0: a142 603b 956d a8bd fd62 9bbc c18a 313d
000001d0: 18b9 8dbc e45e 0dbe a4d4 a03c 90cb ddbc
000001e0: ce62 4b3e 1fde 7c3e e9a9 f83d e3ed 6cbd
000001f0: 6026 cebd e735 8cbe a496 a43d 30fa 693d
00000200: 38c8 983e fd7d 2d3d 00b4 b93e 7631 873a
00000210: d882 75bd b50e a63d 8620 b23c 588e 593b
00000220: ac9e c0bd d1fe a2bd dffc a93d c6e5 22bd
00000230: abad 293e afa3 d43c 91bf f33d 39d7 8dbd
00000240: fd0b 54bc bae5 6f3d 5e47 2f3d 545f f43d
00000250: 0d7d 153e ecac debd d26d 463d 31df e0bd
00000260: aa7b 82bb 8c3d 2abe 78ae 113e 1937 fdbd
00000270: ad52 a53d 49e4 153d eb56 1b3e 295f bebc
00000280: 2eff 0d3e b654 a8bd 880a 013d b490 783c
00000290: ecbb ba3d a9f1 8c3d 0f24 1b3e a7d4 2b3d
000002a0: 92bd 42bc 6129 313c 42b6 28be a0b8 cdbc
000002b0: 72ef cc3d c061 243d e308 0f3e ef82 7dbc
000002c0: 2df9 b5bd 315a c43d 2a88 f93d 68b4 a53d
000002d0: d9bd ce3d d24a 2f3e 46e2 943d 8b30 ebbb
000002e0: aefa 993d 4848 0b3e 51fc a53d 2648 7abe
000002f0: dd58 863d a03e d03d c196 283d 3d54 e83c
00000300: 5b37 c03d 0b1f 693e 8651 613e c280 293d
00000310: 95e4 1b3e 7a3c 163e 4964 8b3d f0a8 ba3d
00000320: dc4b edbd 92f2 3fbd d62d f13d 5d66 2e3e
00000330: 3d51 b7bb 6dec f1bc 2caa 7fbd f737 dc3c
00000340: 0002 953d ef0c 98bd 923c 163e 7d5c 3a3e
00000350: edae dcbb 3701 293b 9321 9a3d 493c 6d3e
00000360: 6b06 c73d 1962 b8bc 4fe3 c63d 9384 f1bc
00000370: 0cdc f5bc 8e2c 6a3e 4f0e e03c a28b 2c3d
00000380: 6b8d 74be 693d 013e bb82 3f3e c4f7 24bd
00000390: 09ac e4bc 60bf bfbc 9d4d b6bd 82e6 ad3e
000003a0: e815 683e 909d 843e 9940 713e 7c00 0d3d
000003b0: 4eb3 8dbc 2e2a b23d 694a 85bd 40c1 483e
000003c0: 4c4b 563e 1c0a 83bd 3133 53bd 1051 e5bc
000003d0: 0a72 22bd ac09 6dbc 1089 06bd 407e b83d
000003e0: 1a3d fa3c ebfc 873d 2846 aabc fb52 d9bd
000003f0: c68d 82bc d2f3 9abd 8e6f 3ebd 23c1 0cbe

lstm.weight_hh_l0 f4 [256, 64]
-0.07107388 0.054681264 0.24487111 0.05922761 -0.13515018 -0.17536455 -0.21565636 -0.018701786
-0.16816287 -0.26286817 0.12048578 0.0651774 0.04059034 -0.080458336 0.123112805 -0.13359402
0.12395926 -0.07022018 -0.077813365 0.045827676 0.23046836 -0.0878067 -0.0779002 0.19760686
0.005729638 0.18043573 0.055734757 0.03915738 0.03669569 0.046316143 0.0536939 0.05306238
0.11446745 0.013975605 -0.18332994 -0.22481862 0.015299597 -0.23181878 -0.11835496 0.033435956
0.03508555 0.009673352 0.0020636646 0.17596345 -0.116920345 0.014248897 0.12430793 0.11408546
-0.092555165 0.11526577 -0.0434169 0.21123958 0.12246787 0.048913743 0.13129482 0.06202531
0.03434819 -0.07985686 -0.115520194 0.06605705 -0.008883634 0.05736669 -0.21039562 0.034050293
0.013365949 -0.13331458 0.085637026 -0.05378298 -0.10582342 0.04640818 -0.20150004 -0.017346358
-0.097042665 -0.095996715 0.0019362351 0.030787567 -0.03876482 -0.06715124 -0.15231022 -0.22095622
0.10004309 0.098355494 0.030825248 -0.11779745 0.20502923 -0.08461691 -0.09600239 0.14376809
-0.040722806 0.018830162 0.17068866 -0.1337138 -0.083994135 -0.016935205 -0.15479465 0.057032835
0.11482725 0.0013743989 -0.12547734 -0.15219054 -0.17362282 0.054716714 0.10247628 -0.046731737
0.17651847 -0.06386423 0.009453705 -0.12716472 0.007087654 0.16832612 -0.046343967 0.07544324
-0.060743224 0.035820175 0.12937172 0.16688561 -0.012658414 0.122518204 0.32249424 0.06478366
0.033969127 0.009871351 -0.12033373 0.0074328524 -0.21854162 -0.09577272 0.00018224494 0.11462344
-0.0672789 -0.07367736 0.037286926 -0.13596794 -0.058836002 0.16417536 -0.17015779 0.027333224
0.021374205 -0.06441918 -0.13089728 0.09990628 0.011768931 -0.023653382 0.16469511 0.07813941
0.029123861 0.09790031 0.23011258 0.047173794 0.1178323 -0.09279306 0.032737225 0.0356147
-0.010090449 -0.2420956 -0.057842523 -0.056601197 -0.014245558 -0.04788851 -0.0368033 0.12085192
-0.14292298 0.012330611 0.10734875 0.086398445 -0.051733058 0.088731684 -0.053198054 0.041811556
-0.051255677 -0.0659361 0.05510528 0.030141091 0.25072458 0.09276937 -0.00570744 0.047988478
0.13919885 0.09352339 -0.09440473 0.22231275 -0.011082067 0.047084827 -0.07600641 0.17265794
0.0006116821 -0.025661971 -0.019454772 -0.06980821 0.13347015 -0.049945015 -0.08370229 -0.05707892
0.16668147 0.07929207 0.15558584 -0.16148768 -0.1445923 -0.14057639 -0.20019643 -0.24961638
-0.16268069 -0.36109343 0.15929423 -0.08856032 0.12985016 0.084039755 -0.029524295 -0.068578914
0.043294683 0.19395946 0.052125994 -0.0790653 0.23013856 -0.36276627 -0.1848906 0.3941557
0.010844422 -0.06898612 0.39358544 0.06415539 0.11412936 0.19793588 0.24754643 -0.12837787
0.18911262 0.12963368 -0.06796717 0.3152033 -0.11150429 -0.18532424 -0.24490976 0.23697668
0.22939715 -0.019603642 -0.13543375 -0.17831025 -0.031476215 0.2659316 0.023390558 -0.13975415
0.14575778 -0.113967754 0.06428307 0.16142151 0.060403395 -0.1652223 0.27311537 0.14100248
-0.11975718 -0.09173853 -0.25552753 0.07460106 -0.09867106 -0.11108357 -0.124673374 0.2425437
00000000: 2f8f 91bd 76f9 5f3d 7ebf 7a3e a698 723d
00000010: cf64 0abe c492 33be 05d5 5cbe 7d34 99bc
00000020: e332 2cbe a896 86be 40c1 f63d bb7b 853d
00000030: 0e42 263d 57c7 a4bd 9122 fc3d dfcc 08be
00000040: 5ade fd3d 99cf 8fbd 9d5c 9fbd cdb5 3b3d
00000050: e6ff 6b3e 00d4 b3bd 248a 9fbd 7459 4a3e
00000060: b0bf bb3b 25c4 383e 214a 643d 7d63 203d
00000070: 384e 163d ffb5 3d3d 23ee 5b3d f057 593d
00000080: e96d ea3d f0f9 643c d8ba 3bbe da36 66be
00000090: 29ab 7a3c e761 6dbe 1664 f2bd 24f4 083d
000000a0: deb5 0f3d fb7c 1e3c 8c3e 073b c32f 343e
000000b0: ef73 efbd 3574 693c 2895 fe3d a3a5 e93d
000000c0: 908d bdbd 7610 ec3d ebd5 31bd 304f 583e
000000d0: 6fd0 fa3d c759 483d 2672 063e 400e 7e3d
000000e0: b0b0 0c3d fe8b a3bd da95 ecbd eb48 873d
000000f0: a98c 11bc 56f9 6a3d f371 57be 5278 0b3d
00000100: dafc 5a3c 9e83 08be 7762 af3d 8b4b 5cbd
00000110: f3b9 d8bd 8116 3e3d 0756 4ebe f319 8ebc
00000120: 4ebe c6bd ed99 c4bd 45c9 fd3a 3536 fc3c
00000130: dcc7 1ebd 9786 89bd 36f7 1bbe 5942 62be
00000140: 64e3 cc3d 9b6e c93d 3b85 fc3c ca3f f1bd
00000150: 2ff3 513e a14b adbd e79c c4bd f137 133e
00000160: f5cc 26bd b641 9a3c 02c9 2e3e 45ec 08be
00000170: 1e05 acbd b3bb 8abc 7d82 1ebe 439b 693d
00000180: 8d2a eb3d 2d25 b43a 227d 00be d6d7 1bbe
00000190: 2eca 31be a21e 603d 15df d13d c769 3fbd
000001a0: 42c1 343e 40cb 82bd b6e3 1a3c 7837 02be
000001b0: 8d3f e83b af5d 2c3e 2cd3 3dbd fc81 9a3d
000001c0: e3cd 78bd 2db8 123d 057a 043e 10e4 2a3e
000001d0: 3d65 4fbc d3ea fa3d f71d a53e 4cad 843d
000001e0: 3623 0b3d 72bb 213c 8871 f6bd 498f f33b
000001f0: 60c9 5fbe 7d24 c4bd 0119 3f39 b2bf ea3d
00000200: 85c9 89bd 28e4 96bd 2dba 183d 2e3b 0bbe
00000210: 05fe 70bd 961d 283e d83d 2ebe ede9 df3c
00000220: f518 af3c 34ee 83bd f009 06be aa9b cc3d
00000230: 79d2 403c bdc4 c1bc d6a5 283e 8e07 a03d
00000240: 2a95 ee3c f57f c83d a2a2 6b3e 4f39 413d
00000250: 1052 f13d 4a0a bebd 7817 063d b8e0 113d
00000260: 6952 25bc e9e7 77be 48ec 6cbd a8d6 67bd
00000270: 3366 69bc be26 44bd 0fbf 16bd 3681 f73d
00000280: 675a 12be 5506 4a3c a9d9 db3d abf1 b03d
00000290: 0be6 53bd f5b8 b53d 34e6 59bd 9842 2b3d
000002a0: 79f1 51bd 8209 87bd 13b6 613d 73ea f63c
000002b0: f95e 803e defd bd3d 7a05 bbbb 918f 443d
000002c0: 258a 0e3e 3189 bf3d 4457 c1bd f4a5 633e
000002d0: 8f91 35bc 05dc 403d 40a9 9bbd 3ecd 303e
000002e0: 4a59 203a 0e39 d2bc 9d5f 9fbc 9bf7 8ebd
000002f0: 66ac 083e 2593 4cbd 1b6c abbd 96cb 69bd
00000300: 8cae 2a3e e163 a23d e551 1f3e 075d 25be
00000310: 0110 14be 42f3 0fbe 4b00 4dbe 709b 7fbe
00000320: c495 26be 3de1 b8be 071e 233e 1d5f b5bd
00000330: 71f7 043e 091d ac3d efdc f1bc 1a73 8cbd
00000340: c455 313d 4f9d 463e 1182 553d fdec a1bd
00000350: 71a9 6b3e 80bc b9be f653 3dbe c7ce c93e
00000360: cdac 313c 9848 8dbd 0884 c93e e763 833d
00000370: a7bc e93d b4af 4a3e d07c 7d3e 7d75 03be
00000380: bda6 413e b1be 043e 5f32 8bbd 5462 a13e
00000390: 5c5c e4bd a3c5 3dbe a0c9 7abe 04aa 723e
000003a0: 16e7 6a3e d197 a0bc 25af 0abe f696 36be
000003b0: 34ed 00bd 3028 883e 8e9d bf3c b61b 0fbe
000003c0: 8741 153e ed67 e9bd d8a6 833d ae4b 253e
000003d0: 8d69 773d 0930 29be c7d5 8b3e f462 103e
000003e0: 4143 f5bd 69e1 bbbd 81d4 82be 71c8 983d
000003f0: 0d14 cabd c87f e3bd c154 ffbd 605d 783e

lstm.bias_ih_l0 f4 [256]
0.15904233 0.043779068 0.070806354 -0.058425333 0.12882568 0.1360787 0.16595891 0.12813054
-0.009749037 0.021806613 -0.09483671 0.10600786 0.038379747 0.038207978 0.06759758 0.084991835
0.14512351 -0.0397583 -0.064603075 -0.041199006 0.005557387 -0.016690342 0.1378909 0.03734438
0.0502669 0.1528109 0.014123233 0.08142476 0.029994003 -0.009214769 0.0909106 -0.084132254
0.12034613 0.07399956 0.13221638 0.16567557 -0.005559179 0.035419073 0.0028937045 -0.080671236
0.14704184 -0.01499874 0.119059175 0.07085314 0.032677643 0.13620572 0.0381418 0.17555201
-0.06974635 0.015407808 -0.002333088 0.15370394 0.08108528 -0.023220507 0.014403804 0.10760297
-0.04268137 0.10481612 0.059747733 0.047051627 -0.0603232 0.055360567 0.021761695 0.18799427
0.16078085 0.026530309 0.14569876 -0.01493065 0.004909048 0.08796157 -0.018258285 0.08664961
0.16005364 0.0030473196 -0.07270636 0.06356614 0.15107153 0.01963353 0.039511796 0.076493286
0.12865336 0.14700542 0.1601429 0.12000883 0.13832726 -0.061691727 0.13310374 -0.028812895
-0.0010448515 -0.022022916 -0.06029945 -0.07165056 0.014987439 0.10833728 -0.052916247 -0.058976095
0.09304265 0.069715284 0.074381426 -0.032401994 0.07606062 0.00527334 0.13339715 0.06650363
0.0062024766 0.04111797 0.18114644 -0.012969736 0.0431239 0.020571172 -0.090713024 0.08435377
0.13611127 0.22589628 0.05851009 0.09589597 -0.042767502 0.09373725 0.07698679 0.10819121
0.1084319 -0.012393154 0.1297022 0.08635199 0.10681738 0.051975984 0.02643011 0.08898471
0.009095303 -0.027308494 -0.052535404 -0.05008213 -0.04809757 -0.12705654 0.02693214 -0.044638436
-0.07122962 -0.0019498238 -0.058918603 -0.09722713 0.036240336 0.033880625 -0.033160347 -0.09779736
0.068214566 0.07852995 0.087369926 0.056518674 0.08664424 -0.059887804 -0.1032882 -0.0964345
0.097851835 -0.09362257 -0.038370915 0.09551432 0.09529337 0.0489258 0.101523 0.024713324
0.05558173 -0.020503236 0.053974595 -0.08341791 0.10298597 -0.11238317 -0.107336365 0.06623972
-0.013536497 0.051161714 -0.07079737 -0.028653342 0.0896953 0.07952869 0.03740112 0.05516972
-0.07395423 0.11508544 -0.047781944 -0.007423172 -0.003570871 0.11239463 0.11021128 -0.090463825
0.030791843 0.009897054 -0.061195258 -0.08233162 -0.028656324 0.06597817 -0.03336864 -0.07667693
0.034720168 -0.03743511 -0.06660304 0.017914962 0.12913689 -0.03328406 0.12452947 0.03362061
0.122180596 -0.010559083 -0.002291453 0.04281398 0.124769405 -0.039338812 0.15628731 0.10757907
0.15500619 0.03719805 0.07326092 0.11814703 0.1479787 0.035750777 0.0038989296 0.09267523
-0.04832873 0.021915497 0.05613788 -0.09068823 -0.043878432 -0.07500001 0.010790378 -0.09737692
0.06563301 -0.006132366 -0.0045444393 0.089739494 -0.0851337 0.014022702 -0.045575373 -0.030865606
0.13021018 0.08277321 -0.02569541 -0.017793488 -0.036054503 0.048186135 0.00066341576 0.054962695
0.015208024 0.13030928 0.062247824 0.06026761 -0.032358017 0.061262112 0.15398665 0.071370386
-0.016001895 0.02307993 -0.06941653 0.10565545 -0.035595305 -0.023676762 0.065812364 0.14548576
00000000: fedb 223e ae51 333d ec02 913d 674f 6fbd
00000010: e1ea 033e 3758 0b3e 22f1 293e a734 033e
00000020: 6dba 1fbc c8a3 b23c c039 c2bd a61a d93d
00000030: 1534 1d3d f87f 1c3d 9a70 8a3d 3310 ae3d
00000040: 429b 143e 99d9 22bd 9e4e 84bd 4ac0 28bd
00000050: be1a b63b 2fba 88bc 4633 0d3e 6cf6 183d
00000060: aae4 4d3d 767a 1c3e 2265 673c 06c2 a63d
00000070: fcb5 f53c 8bf9 16bc 562f ba3d 884d acbd
00000080: 0878 f63d 158d 973d bb63 073e dba6 293e
00000090: c629 b6bb 9713 113d 4ea4 3d3b f636 a5bd
000000a0: 2392 163e 46bd 75bc 4cd5 f33d 731b 913d
000000b0: fed8 053d 8379 0b3e 933a 1c3d e8c3 333e
000000c0: 2dd7 8ebd 0871 7c3c b9e6 18bb 9164 1d3e
000000d0: 0a10 a63d ef38 bebc effd 6b3c f25e dc3d
000000e0: a9d2 2ebd d5a9 d63d 0aba 743d 35b9 403d
000000f0: 7615 77bd c3c1 623d 9545 b23c 9281 403e
00000100: bca3 243e 1756 d93c 0e32 153e af9f 74bc
00000110: 14dc a03b 3225 b43d 6692 95bc 5a75 b13d
00000120: 1ae5 233e 8ab5 473b 12e7 94bd f72e 823d
00000130: 7fb2 1a3e 7fd6 a03c 1fd7 213d 83a8 9c3d
00000140: b5bd 033e 9788 163e 80fc 233e 31c7 f53d
00000150: a9a5 0d3e 77b0 7cbd 594c 083e 0509 ecbc
00000160: 66f3 88ba 6769 b4bc 8efc 76bd 87bd 92bd
00000170: e08d 753c f0df dd3d b5be 58bd eb90 71bd
00000180: 258d be3d e3c6 8e3d 4a55 983d f4b7 04bd
00000190: acc5 9b3d fbcb ac3b 4399 083e 0e33 883d
000001a0: 253e cb3b 516b 283d 747e 393e 047f 54bc
000001b0: b0a2 303d e084 a83c c0c7 b9bd abc1 ac3d
000001c0: c160 0b3e 5b51 673e 47a8 6f3d 1b65 c43d
000001d0: fa2c 2fbd 51f9 bf3d 40ab 9d3d 5a93 dd3d
000001e0: 8b11 de3d a80c 4bbc a7d0 043e 50d9 b03d
000001f0: 12c3 da3d c5e4 543d f583 d83c 9e3d b63d
00000200: 7704 153c 10b6 dfbc 5d2f 57bd eb22 4dbd
00000210: f501 45bd 1c1b 02be cba0 dc3c cbd6 36bd
00000220: d6e0 91bd 3b91 ffba a254 71bd 041f c7bd
00000230: bf70 143d 69c6 0a3d 25d3 07bd fb49 c8bd
00000240: 14b4 8b3d 4fd4 a03d 01ef b23d 2080 673d
00000250: 8972 b13d ea4c 75bd c488 d3bd 737f c5bd
00000260: 8b66 c83d 31bd bfbd d22a 1dbd 039d c33d
00000270: 2c29 c33d 6b66 483d 4aeb cf3d 9973 ca3c
00000280: aba9 633d 67f6 a7bc 7714 5d3d 02d7 aabd
00000290: 4fea d23d 2629 e6bd 2bd3 dbbd b1a8 873d
000002a0: 2fc8 5dbc f28e 513d 36fe 90bd 6aba eabc
000002b0: 2bb2 b73d f0df a23d eb31 193d a5f9 613d
000002c0: 5175 97bd eab1 eb3d 00b7 43bd 143e f3bb
000002d0: 4605 6abb 282f e63d 74b6 e13d 1945 b9bd
000002e0: 2d3f fc3c 4127 223c e1a7 7abd 7b9d a8bd
000002f0: abc0 eabc 901f 873d 8ead 08bd cb08 9dbd
00000300: bc36 0e3d 8f55 19bd 2d67 88bd 66c2 923c
00000310: 763c 043e de54 08bd 4f09 ff3d c4b5 093d
00000320: d239 fa3d 0100 2dbc 342c 16bb b65d 2f3d
00000330: 1a87 ff3d bc21 21bd c809 203e 6a52 dc3d
00000340: f1b9 1e3e fc5c 183d d209 963d 12f7 f13d
00000350: ba87 173e 686f 123d 2f85 7f3b 83cc bd3d
00000360: 59f4 45bd 2188 b33c d5f0 653d c0ba b9bd
00000370: dfb9 33bd 9b99 99bd 20ca 303c 8d6d c7bd
00000380: 996a 863d 04f2 c8bb 85e9 94bb 57c9 b73d
00000390: 945a aebd 7abf 653c 3ead 3abd ded9 fcbc
000003a0: d155 053e 0085 a93d 2e7f d2bc a6c3 91bc
000003b0: e3ad 13bd d35e 453d 14e9 2d3a 9020 613d
000003c0: 132b 793c cc6f 053e 93f7 7e3d 2bdb 763d
000003d0: d789 04bd fbed 7a3d adae 1d3e a32a 923d
000003e0: 6816 83bc 1f12 bd3c 412a 8ebd e261 d83d
000003f0: 62cc 11bd c5f5 c1bc a2c8 863d 38fa 143e

lstm.bias_hh_l0 f4 [256]
0.15896681 0.011312016 0.09750242 0.08600951 -0.09703804 0.049997415 -0.03887648 -0.01690486
0.052505262 -0.083786204 -0.035390016 0.16968612 0.04092579 0.16802853 0.100975886 -0.007896586
-0.0413266 0.034515195 0.06846543 0.119749814 0.13419358 -0.019573744 0.1312545 0.049611762
0.14992738 0.1403184 -0.031520046 0.11211938 0.082582206 -0.034192193 -0.043469865 0.012143939
-0.03713014 0.14482772 0.06339475 -0.019103134 0.013811966 -0.032011982 0.13037571 0.06024416
0.14923544 0.12677793 0.0035512077 -0.015259029 0.05334492 -0.06327233 -0.04712334 0.090463355
0.09444694 0.11029442 0.0075444323 0.15907893 0.041792605 -0.060014553 0.09850304 0.07144128
-0.023226682 0.072960235 -0.037726276 0.12885512 -0.01716571 0.027624682 -0.0469751 0.10295841
0.16697863 -0.021697773 0.07350128 0.07611823 -0.041953284 0.08848974 0.17041223 -0.097893804
-0.0036116599 0.15063232 -0.0368642 0.08037479 0.0893704 0.08043076 0.09543807 -0.06329954
-0.0011247172 0.0040248744 0.039704602 0.01661748 0.042542305 -0.0138664115 0.10837641 0.04833239
0.1436755 0.11261566 0.034511693 0.09980915 0.06183405 0.013363166 0.045164574 -0.05637065
-0.036689263 0.15766697 0.15535158 -0.062467672 -0.03398372 0.13225876 -0.10182663 0.018251613
-0.018513758 -0.071298786 -0.0050284103 0.05440525 -0.017282374 -0.0016529434 0.065951005 -0.020016724
-0.07116844 0.17472614 0.12572643 0.067201294 -0.031043638 0.037772294 0.07168012 0.047717806
0.023772528 0.09501152 0.046684228 0.10179581 0.07668051 0.01310343 -0.062296648 0.071133
0.06915727 0.14089786 0.085356794 0.1282417 -0.08179706 0.014743339 0.1203912 0.085569754
0.10208912 0.12007134 -0.009480748 0.09223503 0.055429514 -0.023030093 -0.086281076 0.05115707
0.066014394 -0.014873833 0.005854463 -0.00068052794 0.06854332 0.09287688 -0.00972557 0.017705195
-0.08413673 0.037271194 -0.1124197 0.014623123 0.04898421 -0.09504221 0.01162465 -0.011779734
-0.07699193 0.056391645 -0.009537358 -0.08939016 0.07182201 0.039526273 -0.08370782 -0.029789144
-0.086077146 -0.057162814 0.11495921 -0.0045671896 0.0016213172 -0.035787057 -0.029632147 -0.07208335
-0.014041268 -0.030658124 0.000402124 -0.025581893 -0.08697934 -0.052699767 -0.07776506 0.009333109
0.090429366 0.066475116 0.028164767 0.057374768 0.016234249 0.11508146 -0.09468588 -0.042780917
0.050561372 -0.014628156 0.052088767 0.16220976 0.032898173 0.06698086 0.16871533 0.0047451355
0.020187026 0.091182694 -0.07245209 -0.011092202 0.0047321627 0.13577431 0.056349125 0.020496598
0.041747577 0.15751366 0.11273332 -0.052071325 -0.08005872 0.12659717 -0.09334264 -0.05028405
0.16318883 0.091723606 0.062642165 -0.08466661 -0.0023583916 0.061063386 0.13281961 -0.023699792
-0.011667903 0.055536967 -0.09956166 0.00060317805 -0.10518271 -0.003505201 -0.05387982 0.08871559
-0.017799184 -0.083482906 0.02700518 -0.037164345 -0.040089566 0.035916526 0.04095633 -0.056887288
-0.053385545 0.14133057 0.09054442 0.07830764 0.13198482 0.08137075 -0.017456021 0.10654741
0.008574898 0.14993706 0.000113346745 0.113499075 0.026045438 0.007356427 -0.08518328 0.18291554
00000000: 32c8 223e 0956 393c 59af c73d c125 b03d
00000010: e1bb c6bd 17ca 4c3d f23c 1fbd 107c 8abc
00000020: c20f 573d 1a98 abbd 1ff5 10bd 33c2 2d3e
00000030: cda1 273d ac0f 2c3e 72cc ce3d af60 01bc
00000040: 1546 29bd ce5f 0d3d 9a37 8c3d 643f f53d
00000050: 0b6a 093e 1e59 a0bc 9467 063e b435 4b3d
00000060: 9086 193e a0af 0f3e 2a1b 01bd d89e e53d
00000070: dc20 a93d 1d0d 0cbd 750d 32bd 5ff7 463c
00000080: c615 18bd b84d 143e 1bd5 813d 2d7e 9cbc
00000090: 964b 623c ff1e 03bd 3681 053e 95c2 763d
000000a0: 2dd1 183e 13d2 013e 61bb 683b 0201 7abc
000000b0: 3480 5a3d ec94 81bd 6704 41bd da44 b93d
000000c0: 666d c13d 0ae2 e13d 4937 f73b 96e5 223e
000000d0: b92e 2b3d d2d1 75bd f6bb c93d ce4f 923d
000000e0: e245 bebc 2d6c 953d de86 1abd 99f2 033e
000000f0: 1a9f 8cbc 284d e23c f668 40bd dcdb d23d
00000100: 72fc 2a3e 87bf b1bc d787 963d e0e3 9b3d
00000110: 35d7 2bbd 1c3a b53d 8b80 2e3e 8c7c c8bd
00000120: 99b1 6cbb 5c3f 1a3e eafe 16bd 8a9b a43d
00000130: d407 b73d e2b8 a43d 0975 c33d 30a3 81bd
00000140: 3f6b 93ba 18e3 833b 4ba1 223d 6221 883c
00000150: d740 2e3d f22f 63bc 74f4 dd3d 2ff8 453d
00000160: ac1f 133e 0aa3 e63d 225c 0d3d bd68 cc3d
00000170: b345 7d3d 2ef1 5a3c 7dfe 383d e9e4 66bd
00000180: 7b47 16bd 7373 213e 7c14 1f3e 1ade 7fbd
00000190: 8332 0bbd d76e 073e 7b8a d0bd 6884 953c
000001a0: 2aaa 97bc 1905 92bd 5dc5 a4bb 0ad8 5e3d
000001b0: c493 8dbc 94a7 d8ba 5211 873d 1dfa a3bc
000001c0: c2c0 91bd 69eb 323e 6ebe 003e d5a0 893d
000001d0: 3a4f febc 1fb7 1a3d 07cd 923d bf73 433d
000001e0: 9bbe c23c 6695 c23d f637 3f3d 527a d03d
000001f0: ac0a 9d3d c5af 563c c52a 7fbd 2eae 913d
00000200: 54a2 8d3d 8747 103e 8bcf ae3d cb51 033e
00000210: 3885 a7bd 0c8e 713c a98f f63d 323f af3d
00000220: 1a14 d13d f6e7 f53d 2455 1bbc b8e5 bc3d
00000230: 0f0a 633d 9ba9 bcbc 22b4 b0bd 138a 513d
00000240: 8e32 873d 61b1 73bc ccd6 bf3b 7565 32ba
00000250: 7160 8c3d 3c36 be3d ff57 1fbc 7c0a 913c
00000260: e14f acbd aea9 183d 4d3c e6bd d395 6f3c
00000270: aba3 483d 7da5 c2bd 5175 3e3c c9ff 40bc
00000280: f2ad 9dbd edfa 663d 9442 1cbc 3012 b7bd
00000290: 6b17 933d 4de6 213d 016f abbd 5d08 f4bc
000002a0: 3749 b0bd 8e23 6abd bc6f eb3d 5da8 95bb
000002b0: 6182 d43a 7395 12bd 1ebf f2bc 6fa0 93bd
000002c0: 590d 66bc bf26 fbbc 2bd4 d239 1e91 d1bc
000002d0: 3922 b2bd b6db 57bd 4a43 9fbd e5e9 183c
000002e0: 0833 b93d 1b24 883d ccb9 e63c ce01 6b3d
000002f0: b0fd 843c d4af eb3d acea c1bd 0b3b 2fbd
00000300: 7119 4f3d efaa 6fbc 085b 553d 511a 263e
00000310: 3cc0 063d 432d 893d b6c3 2c3e 157d 9b3b
00000320: 435f a53c febd ba3d c361 94bd 11bc 35bc
00000330: 4210 9b3b 6c08 0b3e 57ce 663d 7be8 a73c
00000340: 82ff 2a3d 434b 213e bae0 e63d be48 55bd
00000350: d4f5 a3bd b0a2 013e 6d2a bfbd a6f6 4dbd
00000360: f91a 273e 96d9 bb3d 894a 803d b065 adbd
00000370: 3f8f 1abb 9a1d 7a3d dd01 083e 1126 c2bc
00000380: bb2a 3fbc bb7a 633d fce6 cbbd 981e 1e3a
00000390: 086a d7bd 84b7 65bb 16b1 5cbd 85b0 b53d
000003a0: 98cf 91bc 16f9 aabd f839 dd3c a439 18bd
000003b0: f534 24bd 351d 133d d3c1 273d a502 69bd
000003c0: cdaa 5abd f6b8 103e 5a6f b93d c25f a03d
000003d0: 0727 073e b5a5 a63d eeff 8ebc 8735 da3d
000003e0: bb7d 0c3c 1a89 193e 92b4 ed38 3472 e83d
000003f0: 3e5d d53c 2f0e f13b 9274 aebd 364e 3b3e

lstm.weight_ih_l1 f4 [256, 64]
-0.0083234105 -0.08885296 -0.02265817 -0.19191414 -0.062455226 0.1860777 0.12776399 0.018586507
-0.08902315 0.08246953 -0.042503275 -0.20583953 0.12830842 0.0670916 0.1648437 -0.17839184
0.11523181 0.10338239 -0.028590513 -0.01632264 0.05229382 -0.116770744 0.062601745 0.08086369
0.01305448 0.013999131 0.19012891 0.028550817 0.08063672 -0.22294536 -0.20308493 -0.0029125956
0.10253808 0.108977415 0.09198436 -0.092698775 -0.056047644 -0.106512725 0.04817156 0.05012499
0.06115191 -0.1991182 -0.020236976 -0.13051032 0.05153936 0.08702764 -0.0191407 -0.21253629
0.029641977 -0.049410056 -0.061836116 0.12846096 -0.041406885 0.071670994 -0.18471374 0.082897544
0.17633258 0.0945739 -0.07334619 0.065660805 -0.14057207 0.08351966 0.102501936 0.08482859
-0.0038977151 0.068073675 -0.040737823 -0.16862649 -0.021973277 0.13707139 -0.15824169 -0.06774781
0.16553424 -0.11480868 -0.16568817 -0.12955318 -0.004306009 -0.16284458 -0.028173203 0.065780945
0.017374039 0.029176861 0.08098153 -0.017873414 -0.082456395 0.005004449 0.08291425 -0.019382058
0.01067187 -0.05627447 0.0023947014 -0.06740613 -0.15199822 -0.14360477 0.09999348 0.040520214
-0.053710442 -0.030337378 0.079287656 -0.08212914 -0.11435918 -0.059855632 -0.0200286 -0.17748351
0.0032966859 0.10675452 -0.11263137 0.17731714 0.20622607 0.13902633 -0.1590428 0.0074242675
0.062177792 0.04753814 0.009131301 0.022562006 0.10721427 -0.04179425 0.06356616 -0.14848685
0.15297194 0.009454644 -0.027603192 -0.009937817 -0.09823564 -0.058256123 0.028992465 0.11037366
0.041977257 0.054787412 -0.008123165 -0.046292085 -0.067175 -0.021191249 0.026951589 -0.11483395
0.016928779 -0.032246977 -0.11349274 -0.124754675 0.19013964 -0.03748899 0.039804522 0.11867897
-0.099288955 0.0930819 0.05015028 -0.13289867 -0.08862601 -0.14646283 -0.16950452 -0.058953848
0.016870636 0.038248576 -0.05830179 -0.05464681 -0.027903667 0.029503684 -0.11081851 -0.023010757
0.024768773 0.0014057033 0.21855417 -0.13277034 0.0033673188 -0.15610255 -0.04686988 0.14158514
0.08726731 -0.009981926 0.045166366 0.062405698 0.021229988 0.058157187 -0.056862976 -0.13388063
0.003745584 0.025383696 0.16271105 0.007366919 -0.105724744 0.111286856 -0.16385014 0.057056714
0.12068253 0.0100942785 0.037047867 -0.02833407 -0.054543145 0.007869667 -0.013084286 -0.013280519
0.029640846 -0.0221795 0.2081989 0.11418469 0.0021533682 -0.08283706 -0.07651903 0.187273
-0.07308997 -0.059219677 -0.01692838 0.12814493 0.19856362 -0.011503496 -0.09114331 0.010563278
0.078785166 -0.17533354 0.19256231 -0.1380175 -0.08771054 0.043106023 -0.0734974 -0.0033007693
-0.10156546 0.0047361674 0.054022845 0.17349015 0.19791336 -0.34221128 -0.22718062 0.060972124
0.12614918 0.07713487 -0.0030568142 0.097948864 -0.025253044 0.107719205 0.14980698 -0.088186786
0.06846185 0.04735644 0.17821069 -0.087759405 0.16227797 -0.10508261 -0.040613014 -0.025229603
0.08698967 0.050492886 0.020265337 0.0072057797 0.12335492 0.14189778 -0.015821243 0.18538445
-0.009219485 0.07238075 0.011269381 -0.02887627 0.0019263361 0.15232565 -0.0055007404 -0.02665767
00000000: ea5e 08bc 8af8 b5bd a09d b9bc 2485 44be
00000010: 0dd1 7fbd 278b 3e3e 90d4 023e bb42 983c
00000020: c551 b6bd c9e5 a83d ea17 2ebd 99c7 52be
00000030: 4863 033e 5267 893d c9cc 283e 5aac 36be
00000040: a8fe eb3d 26ba d33d a736 eabc 0fb7 85bc
00000050: 0b32 563d 8025 efbd 5835 803d dd9b a53d
00000060: 75e2 553c 9c5c 653c 27b1 423e 67e3 e93c
00000070: dd24 a53d ca4b 64be 7ff5 4fbe 3fe1 3ebb
00000080: 7cff d13d 8d2f df3d 4c62 bc3d dbd8 bdbd
00000090: 3792 65bd 5823 dabd 8b4f 453d dd4f 4d3d
000000a0: 6d7a 7a3d a4e5 4bbe 04c8 a5bc 7fa4 05be
000000b0: f01a 533d 8c3b b23d f5cc 9cbc 1da3 59be
000000c0: bbd3 f23c 3362 4abd de47 7dbd 458b 033e
000000d0: 449a 29bd 3ec8 923d 9925 3dbe 30c6 a93d
000000e0: 8790 343e f6af c13d 8736 96bd 2c79 863d
000000f0: 20f2 0fbe 5b0c ab3d 89ec d13d 9dba ad3d
00000100: cf70 7fbb 366a 8b3d b4dc 26bd 6cac 2cbe
00000110: 4d01 b4bc 715c 0c3e 1c0a 22be 5dbf 8abd
00000120: cf81 293e d020 ebbd 29aa 29be 97a9 04be
00000130: 6c19 8dbb bbc0 26be 7dcb e6bc 29b8 863d
00000140: 0054 8e3c 5004 ef3c a5d9 a53d 446b 92bc
00000150: e6de a8bd 5cfc a33b f2ce a93d 1fc7 9ebc
00000160: 11d9 2e3c 0f80 66bd 6cf0 1c3b 3a0c 8abd
00000170: 6ca5 1bbe 210d 13be 62c9 cc3d 86f8 253d
00000180: 7bff 5bbd 1886 f8bc 9161 a23d 5333 a8bd
00000190: 2535 eabd 2e2b 75bd 0513 a4bc 3dbe 35be
000001a0: 360d 583b 1da2 da3d 47ab e6bd a092 353e
000001b0: ed2c 533e eb5c 0e3e 1edc 22be 4547 f33b
000001c0: 24ae 7e3d 5ab7 423d 749b 153c f5d3 b83c
000001d0: 2893 db3d 7330 2bbd fa2e 823d f00c 18be
000001e0: ada4 1c3e a7e7 1a3c 1720 e2bc 3ad2 22bc
000001f0: c42f c9bd f99d 6ebd 9b81 ed3c 960b e23d
00000200: 58f0 2b3d c468 603d 0617 05bc c59c 3dbd
00000210: 0c93 89bd 4599 adbc 94c9 dc3c 102e ebbd
00000220: 39ae 8a3c 6815 04bd e26e e8bd 617f ffbd
00000230: f7b3 423e 0e8e 19bd 110a 233d f60d f33d
00000240: 0258 cbbd b9a1 be3d 616a 4d3d 9716 08be
00000250: 8e81 b5bd 5afa 15be 9892 2dbe 9779 71bd
00000260: 4a34 8a3c 8aaa 1c3d dccd 6ebd 55d5 5fbd
00000270: 3b96 e4bc b6b1 f13c d1f4 e2bd 0e81 bcbc
00000280: e2e7 ca3c 933f b83a aacc 5f3e f3f4 07be
00000290: 3cae 5c3b 59d9 1fbe a2fa 3fbd b2fb 103e
000002a0: 34b9 b23d 3b8b 23bc 5e00 393d 1e9d 7f3d
000002b0: 83ea ad3c 3b36 6e3d 27e9 68bd 0118 09be
000002c0: 7978 753b 78f1 cf3c ba9d 263e 3266 f13b
000002d0: 3786 d8bd 5dea e33d 55c8 27be 4db4 693d
000002e0: 6728 f73d 7962 253c 81bf 173d da1c e8bc
000002f0: a268 5fbd c7ef 003c 795f 56bc 8996 59bc
00000300: 5cd1 f23c c8b1 b5bc 1832 553e aad9 e93d
00000310: 861f 0d3b 7aa6 a9bd 02b6 9cbd 7ec4 3f3e
00000320: 32b0 95bd 5590 72bd 63ad 8abc 6d38 033e
00000330: 4354 4b3e 2979 3cbc 58a9 babd 9911 2d3c
00000340: 1e5a a13d a38a 33be 0e2f 453e 7654 0dbe
00000350: 95a1 b3bd f18f 303d ce85 96bd b851 58bb
00000360: 8d01 d0bd da31 9b3b 0f47 5d3d 67a7 313e
00000370: cda9 4a3e 5136 afbe 09a2 68be e8bd 793d
00000380: 402d 013e e3f8 9d3d d554 48bb 6a99 c83d
00000390: 79df cebc e39b dc3d 0067 193e 469b b4bd
000003a0: ba35 8c3d d4f8 413d dd7c 363e 34bb b3bd
000003b0: 322c 263e 8d35 d7bd d559 26bd 50ae cebc
000003c0: a427 b23d a1d1 4e3d 7e03 a63c 761e ec3b
000003d0: 81a1 fc3d a74d 113e 8d9b 81bc 6cd5 3d3e
000003e0: 530d 17bc 5c3c 943d 36a3 383c ed8d ecbc
000003f0: 1d7d fc3a 41fb 1b3e 8e3f b4bb 3061 dabc

lstm.weight_hh_l1 f4 [256, 64]
0.11189239 -0.06530264 0.044204384 -0.008512177 0.034970213 -0.15276368 0.14020073 0.023605242
-0.08413604 0.066200405 0.1073049 0.10182825 0.074263476 -0.1152745 -0.099100776 -0.031528242
0.014816521 -0.018215744 0.06501005 -0.099921815 0.05034387 0.067266546 -0.027755113 -0.012739552
0.11824947 0.045047678 0.04724772 0.07644476 -0.0064813136 0.06292597 -0.0832958 0.04953202
-0.054243572 0.02529214 0.10141082 -0.03493233 0.07159786 -0.10165035 -0.09894293 0.073922195
-0.01876903 -0.0949508 -0.074196 -0.027209058 -0.08508009 -0.000598839 0.026669843 -0.1222613
-0.048211273 0.05962066 0.04357584 -0.014636546 -0.106649525 0.076476805 0.15080029 -0.08694747
-0.056629226 0.16469121 -0.11412591 -0.005653721 0.14443299 0.059238233 0.0050357673 0.06612311
-0.060082335 -0.09936946 -0.029757913 0.012579612 0.0683801 -0.047835562 0.14860037 -0.023758128
-0.08920998 -0.07734909 0.14044596 0.0032249058 -0.06269745 -0.009993747 -0.065745175 -0.20368773
-0.02083338 0.13002278 -0.047163647 0.09307945 0.12179859 -0.084972814 -0.12681393 -0.11526603
-0.11497734 -0.011738254 0.09271682 -0.09381694 -0.0004916779 -0.10188685 -0.003655206 0.07167018
0.010034999 0.09146408 -0.042134583 0.02528872 -0.18472056 -0.17189525 0.09790167 0.09550647
0.080396 -0.13271604 -0.09541829 0.099347204 0.054713015 -0.10893765 0.037579373 0.013084368
-0.17730203 0.012841484 -0.02803358 -0.026736272 0.014996774 0.12039282 0.027261628 -0.09422617
-0.16132846 -0.18336098 -0.11717962 0.14022769 0.05094878 0.05054443 0.07113129 0.00038980995
0.01624735 0.023648724 0.058921054 0.121460624 -0.09345138 0.11584366 0.0038649295 -0.11319468
-0.07584436 0.053824633 0.08854438 -0.045867957 0.07315673 0.16435155 0.1280678 0.0015154294
-0.07608223 0.0148351835 0.10732607 0.0017524827 -0.11595393 0.0012908803 -0.089409046 0.16230997
0.2033064 0.035223775 0.0024583088 -0.037929453 -0.15419552 -0.046300307 -0.042092085 0.020461781
0.009693487 0.023743683 0.026050404 0.099344 -0.06096619 -0.10394512 0.09101042 -0.0011983089
-0.0373068 -0.005895694 0.15590478 0.1068038 0.06735748 -0.027766176 -0.18983164 -0.029360898
0.036821052 -0.120867044 -0.1064254 0.15744041 -0.11205254 -0.047721595 0.035736926 0.017555235
-0.06312331 -0.021987977 0.095131144 -0.057184152 -0.07311494 -0.046002764 -0.03508803 -0.04904586
0.063176885 8.058868e-05 -0.032704405 -0.0029761756 -0.053710684 -0.17244595 0.11707901 0.0037367626
-0.05549861 0.049058102 -0.05957717 0.04724449 -0.12177629 -0.11592185 0.11613184 0.08261752
-0.07371376 -0.06357916 -0.09686847 -0.079887666 -0.044545457 0.063399464 -0.03989123 0.106661744
-0.031017227 0.17602716 0.07568411 -0.064665504 -0.16623363 0.025390258 -0.12535445 -0.07209391
-0.16575205 -0.08669327 -0.030660644 -0.15310483 -0.029402833 -0.00957973 -0.05784699 0.14753257
0.08042876 0.067396306 0.0049772626 0.045194812 -0.061335076 0.0079507055 0.10654613 -0.09853538
0.08071481 -0.043248538 -0.042493187 0.02824039 -0.06747012 -0.073627286 -0.08499696 0.11382486
0.02483672 -0.1056835 -0.043896217 -0.08174986 0.061304506 -0.0664128 0.0913181 0.08176305
00000000: d627 e53d 64bd 85bd a80f 353d a876 0bbc
00000010: ed3c 0f3d 156e 1cbe c890 0f3e c85f c13c
00000020: 844f acbd 1494 873d acc2 db3d 548b d03d
00000030: 7317 983d 0915 ecbd 59f5 cabd c223 01bd
00000040: fec0 723c 2f39 95bc fd23 853d cfa3 ccbd
00000050: 6035 4e3d 0bc3 893d b15e e3bc 8eb9 50bc
00000060: c72c f23d ea83 383d d386 413d 128f 9c3d
00000070: 3361 d4bb 55df 803d fd96 aabd 16e2 4a3d
00000080: 822e 5ebd 7631 cf3c 7ab0 cf3d 3415 0fbd
00000090: e6a1 923d 0f2e d0bd 97a2 cabd 8564 973d
000000a0: 82c1 99bc 9175 c2bd 13f4 97bd 88e5 debc
000000b0: 783e aebd 68fb 1cba b77a da3c 2264 fabd
000000c0: 2f79 45bd cb34 743d 947c 323d 20ce 6fbc
000000d0: 116b dabd df9f 9c3d 646b 1a3e 8411 b2bd
000000e0: 0cf4 67bd d0a4 283e d8ba e9bd d942 b9bb
000000f0: 3ee6 133e caa3 723d 1403 a53b 8e6b 873d
00000100: e518 76bd 3782 cbbd dec6 f3bc b81a 4e3c
00000110: de0a 8c3d 39ef 43bd b22a 183e 68a0 c2bc
00000120: b9b3 b6bd 3369 9ebd 11d1 0f3e f158 533b
00000130: 8567 80bd d0bc 23bc 68a5 86bd 8493 50be
00000140: c4aa aabc b124 053e ab2e 41bd 70a0 be3d
00000150: 8a71 f93d 3a06 aebd 83db 01be 9910 ecbd
00000160: 3d79 ebbd ce51 40bc 51e2 bd3d 1923 c0bd
00000170: f2e3 00ba 0eaa d0bd 2e8c 6fbb d1c7 923d
00000180: d669 243c 8551 bb3d 5095 2cbd 4a2a cf3c
00000190: 6327 3dbe 4f05 30be ac80 c83d e598 c33d
000001a0: a8a6 a43d b7e6 07be aa6a c3bd 8c76 cb3d
000001b0: c11a 603d b41a dfbd d4ec 193d d15f 563c
000001c0: aa8e 35be 1665 523c aea6 e5bc 0706 dbbc
000001d0: 07b5 753c 8390 f63d c753 df3c a6f9 c0bd
000001e0: 4a33 25be fbc2 3bbe defb efbd d997 0f3e
000001f0: abaf 503d ad07 4f3d 48ad 913d 685f cc39
00000200: 2a19 853c f8ba c13c 3457 713d 59c0 f83d
00000210: 7063 bfbd 713f ed3d c24a 7d3b 9dd2 e7bd
00000220: 4a54 9bbd 3877 5c3d c256 b53d 0ae0 3bbd
00000230: 32d3 953d c64b 283e 3524 033e 5fa1 c63a
00000240: 00d1 9bbd 450f 733c c5cd db3d 90b3 e53a
00000250: 4179 edbd c132 a93a 171c b7bd 9634 263e
00000260: 8e2f 503e ce46 103d 941b 213b ea5b 1bbd
00000270: 6ee5 1dbe 64a5 3dbd c068 2cbd 779f a73c
00000280: 6ed1 1e3c 1d82 c23c a867 d53c de74 cb3d
00000290: afb7 79bd 2ee1 d4bd ac63 ba3d 9310 9dba
000002a0: 04cf 18bd aa30 c1bb 81a5 1f3e f3bb da3d
000002b0: b8f2 893d e475 e3bc 3a63 42be 4486 f0bc
000002c0: acd1 163d 2489 f7bd 8ff5 d9bd 0f38 213e
000002d0: cd7b e5bd b877 43bd e260 123d ffcf 8f3c
000002e0: cb46 81bd 2120 b4bc 1ed4 c23d ee39 6abd
000002f0: 49bd 95bd 656d 3cbd 77b8 0fbd 50e4 48bd
00000300: e262 813d b801 a938 0ef5 05bd f10b 43bb
00000310: bcff 5bbd ac95 30be 1fc7 ef3d 79e4 743b
00000320: 8352 63bd 26f1 483d 3107 74bd 7083 413d
00000330: d965 f9bd 6f68 edbd 88d6 ed3d 6033 a93d
00000340: 3df7 96bd ca35 82bd fa62 c6bd 259c a3bd
00000350: 4c75 36bd 94d7 813d fd64 23bd 7971 da3d
00000360: d717 febc 7740 343e 4500 9b3d 596f 84bd
00000370: 2639 2abe 3bff cf3c eb5c 00be f9a5 93bd
00000380: e8ba 29be 3e8c b1bd 082c fbbc 83c7 1cbe
00000390: 36de f0bc 4df4 1cbc f7f0 6cbd c712 173e
000003a0: d5b7 a43d 1307 8a3d 4e18 a33b 321e 393d
000003b0: 7d3a 7bbd ad43 023c db34 da3d ebcc c9bd
000003c0: ce4d a53d 6125 31bd 560d 2ebd 6458 e73c
000003d0: c62d 8abd e7c9 96bd e312 aebd 021d e93d
000003e0: 6176 cb3c 9770 d8bd 85cc 33bd 786c a7bd
000003f0: 6f1a 7b3d 6f03 88bd fc04 bb3d 6373 a73d

lstm.bias_ih_l1 f4 [256]
0.05704913 0.023622895 0.06731667 -0.06460851 -0.04806949 0.05721428 -0.028127445 -0.055820778
0.109144285 0.07931673 -0.022601541 0.1033218 -0.0788014 -0.038154498 0.039894324 -0.10458142
0.022421164 0.015989846 0.0627211 0.06881448 -0.052786995 -0.056129385 0.08359947 0.103952534
-0.12158283 -0.10381596 0.060875338 -0.11782655 0.053165745 0.058176756 -0.04361261 -0.10008215
-0.0761702 0.014177042 0.0004912752 -0.12413916 -0.10585382 -0.06877067 -0.07737189 -0.054816496
-0.08386382 0.093641125 0.034477346 -0.08871434 -0.045685798 -0.06103525 -0.13627242 -0.119787514
0.05326323 -0.113401584 0.098237835 0.033738054 0.113835275 0.03129255 -0.005842182 0.0007842507
-0.033980902 -0.1277951 -0.10103651 0.076347224 -0.09637759 0.0692063 0.06808006 -0.016227791
-0.08204266 -0.043973733 0.1858198 -0.0936145 0.05984544 -0.08241336 -0.07954437 0.010537524
-0.17125206 -0.029682409 0.045643967 -0.017759094 -0.05762683 0.014680782 -0.064719774 0.1118917
-0.120469734 -0.09615163 -0.012186028 -0.017019399 -0.0013988487 -0.037601598 0.106527664 -0.06013383
0.025931591 0.04677738 -0.0019596561 -0.029070968 -0.08562508 -0.058987662 0.07677333 -0.14728802
0.11457085 0.061911717 -0.010648816 -0.04485763 -0.031105258 0.112993136 -0.08627796 0.029470835
0.073889524 -0.15038013 0.057614446 0.071595035 0.043616522 0.057621893 0.04464559 -0.081266366
-0.06341468 -0.0552116 0.12250074 -0.024409112 -0.13008134 0.096373595 -0.10095831 -0.04400142
-0.03267715 -0.13169381 -0.08367021 0.09506531 0.06284344 0.030246051 0.0901843 0.064539135
0.03149952 -0.08033344 -0.08941204 0.06566299 0.045637008 -0.0047577675 0.07377278 0.020728184
0.013579144 0.06854731 -0.005450495 -0.11098972 -0.07835007 0.04489415 0.098198995 0.07295966
0.07801491 -0.056764312 0.04201117 0.013035755 -0.028860537 0.07195394 0.06932774 -0.0127441995
-0.054710772 0.067370825 -0.08741759 0.028741125 0.080284536 0.08134966 -0.05179823 0.07494865
-0.00800725 0.039729696 -0.03192064 0.035894956 -0.027584197 0.05542534 -0.08290032 -0.050575927
0.12968227 0.036819562 -0.08315481 -0.117790446 0.060479656 -0.002739016 -0.062094837 -0.04945107
0.029857736 0.12214175 0.10761711 0.04083482 -0.06313022 -0.0037582193 -0.05322345 0.087677166
0.029957108 0.02857626 0.04102565 -0.0143098105 0.04307818 0.08157448 0.065640114 -0.073633805
-0.073988415 0.037893556 0.13025546 -0.04173972 0.042540994 0.013985142 -0.06449265 0.026096594
0.020211903 -0.018630585 0.02680281 -0.015019272 -0.03070256 0.07138291 -0.007892365 -0.121647626
-0.004903478 -0.11921565 0.0032028777 -0.05309557 -0.036988035 0.072228625 0.084988 0.100512765
0.07636401 0.039704822 0.09477 -0.037052594 -0.11104495 0.030860804 -0.051398426 0.07914316
0.11701391 -0.024003392 0.11172237 -0.008845453 0.016093766 -0.046697102 0.11355647 0.027654437
-0.11555667 -0.02618166 -0.09640934 -0.13927107 -0.111470185 -0.14145249 -0.16035849 0.0047872285
-0.054760173 0.022898994 -0.037546292 0.040471595 0.08141349 0.07677705 -0.030582063 0.09337219
-0.05445407 -0.12647724 0.023609523 0.035072297 0.05429984 -0.13940507 -0.014823369 -0.05294391
00000000: 59ac 693d cd84 c13c 53dd 893d 7751 84bd
00000010: 83e4 44bd 8559 6a3d 876b e6bc 54a4 64bd
00000020: 0a87 df3d cf70 a23d de26 b9bc 619a d33d
00000030: a162 a1bd e447 1cbd 3b68 233d c92e d6bd
00000040: 97ac b73c 23fd 823c ec73 803d 9bee 8c3d
00000050: 2d37 58bd ede7 65bd 3336 ab3d 11e5 d43d
00000060: 6b00 f9bd 769d d4bd 6b58 793d 0c4f f1bd
00000070: 53c4 593d c04a 6e3d 23a3 32bd dff7 ccbd
00000080: 1fff 9bbd d346 683c ecc8 003a ac3c febd
00000090: e3c9 d8bd a3d7 8cbd 2775 9ebd 4387 60bd
000000a0: cbc0 abbd ebc6 bf3d 1e38 0d3d ddaf b5bd
000000b0: 0821 3bbd 1900 7abd ff8a 0bbe 2853 f5bd
000000c0: 8b2a 5a3d 173f e8bd eb30 c93d ea30 0a3d
000000d0: 7822 e93d 9e2c 003d c66f bfbb 2c96 4d3a
000000e0: 8f2f 0bbd b8dc 02be 3bec cebd ef5b 9c3d
000000f0: 9d61 c5bd 08bc 8d3d 8f6d 8b3d 25f0 84bc
00000100: fb05 a8bd cd1d 34bd 8c47 3e3e f5b8 bfbd
00000110: 7e20 753d 56c8 a8bd 29e8 a2bd 94a5 2c3c
00000120: b35c 2fbe 8628 f3bc 2bf5 3a3d 857b 91bc
00000130: 1c0a 6cbd aa87 703c cd8b 84bd 7a27 e53d
00000140: d6b8 f6bd 25eb c4bd e8a7 47bc 446c 8bbc
00000150: 9359 b7ba 2204 1abd 2d2b da3d e44e 76bd
00000160: 7d6e d43c a399 3f3d 936d 00bb 3d26 eebc
00000170: 345c afbd 0c9d 71bd 563b 9d3d acd2 16be
00000180: 1fa4 ea3d 2497 7d3d 5f78 2ebc a2bc 37bd
00000190: 74d0 febc f268 e73d 80b2 b0bd d26c f13c
000001a0: 6453 973d 40fd 19be 20fd 6b3d 6ba0 923d
000001b0: 3da7 323d ef04 6c3d 4bde 363d fb6e a6bd
000001c0: 8edf 81bd 8f25 62bd abe1 fa3d 9ef5 c7bc
000001d0: 0b34 05be 855f c53d 3bc3 cebd d53a 34bd
000001e0: 7ad8 05bd beda 06be 495b abbd 9ab1 c23d
000001f0: 10b4 803d 91c6 f73c 8cb2 b83d 182d 843d
00000200: a405 013d dc85 a4bd a91d b7bd 517a 863d
00000210: dfed 3a3d 0ce7 9bbb 2f16 973d 27ce a93c
00000220: 0f7b 5e3c 8862 8c3d 119a b2bb 944e e3bd
00000230: 0076 a0bd eee2 373d 8e1c c93d e06b 953d
00000240: 48c6 9f3d b281 68bd e813 2c3d eb93 553c
00000250: ef6c ecbc 965c 933d b4fb 8d3d 0ccd 50bc
00000260: 6718 60bd b7f9 893d fe07 b3bd 8272 eb3c
00000270: 386c a43d a79a a63d 612a 54bd ae7e 993d
00000280: d730 03bc 9bbb 223d 38bf 02bd 9706 133d
00000290: 41f8 e1bc ae05 633d a5c7 a9bd b428 4fbd
000002a0: 6ecb 043e 1cd0 163d 124d aabd 1e3c f1bd
000002b0: 84b9 773d 1081 33bb 2857 7ebd 358d 4abd
000002c0: 3698 f43c 7425 fa3d 5c66 dc3d 6a42 273d
000002d0: 6b4a 81bd 754c 76bb d500 5abd 1690 b33d
000002e0: 9c68 f53c c318 ea3c 830a 283d b273 6abc
000002f0: bf72 303d 8510 a73d 536e 863d 52cd 96bd
00000300: 3d87 97bd 4636 1b3d b061 053e 45f7 2abd
00000310: 773f 2e3d f021 653c b914 84bd 86c8 d53c
00000320: 6f93 a53c 2b9f 98bc 9191 db3c 6513 76bc
00000330: ef83 fbbc 3431 923d fa4e 01bc 6422 f9bd
00000340: 5bad a0bb 5627 f4bd 5fe7 513b be7a 59bd
00000350: c480 17bd 9aec 933d 300e ae3d a3d9 cd3d
00000360: bc64 9c3d 86a1 223d c616 c23d 76c4 17bd
00000370: 896b e3bd cccf fc3c 2887 52bd cf15 a23d
00000380: fda4 ef3d c3a2 c4bc b3ce e43d 85ec 10bc
00000390: 13d7 833c 7645 3fbd 4b90 e83d 8f8b e23c
000003a0: faa8 ecbd ec7a d6bc 4372 c5bd 139d 0ebe
000003b0: 7b4a e4bd ecd8 10be 0435 24be 2fde 9c3b
000003c0: 344c 60bd ac96 bb3c 24ca 19bd 8bc5 253d
000003d0: 1ebc a63d 493d 9d3d 3c87 fabc eb39 bf3d
000003e0: 3b0b 5fbd 4083 01be c268 c13c f8a7 0f3d
000003f0: 8269 5e3d 34c0 0ebe b7dd 72bc b7db 58bd

lstm.bias_hh_l1 f4 [256]
0.04035252 -0.14700457 0.066910736 -0.08735256 -0.006839553 -0.006600482 -0.07931433 0.082326956
-0.07553662 -0.101978414 0.124230646 -0.047273878 -0.102925055 -0.08262693 0.027187139 -0.059104025
0.10176997 0.0023869297 -0.11707493 0.06388778 -0.14454596 0.07028552 0.025526106 0.111730464
0.027479101 -0.11913033 -0.05789882 0.0074852584 -0.06554938 -0.007845141 0.11350748 -0.0633728
0.12017069 -0.040047225 0.08697068 -0.11162984 -0.100315355 0.066175885 -0.06273562 0.014558609
-0.06411472 -0.028492102 -0.045097724 -0.012039856 0.10341941 0.047207173 -0.09177 -0.04931221
-0.11741007 0.06341914 -0.0663422 -0.12426746 0.068053715 -0.062251966 -0.058019254 0.035076477
-0.12395596 -0.05738309 -0.024895292 0.024294075 0.036895797 -0.10799673 0.097304575 0.020999957
-0.07099697 0.069349095 0.1981749 0.0062331143 -0.00491751 -0.030066632 0.10502497 0.10008279
-0.07847792 0.09523623 0.048475694 0.004001532 -0.02008542 -0.029835168 -0.013393466 0.07826473
-0.054710172 -0.0106258085 0.09671075 0.005531226 0.0016345788 0.03326936 0.06361813 -0.056258254
0.10481687 -0.12625626 -0.042825457 0.0745104 0.052901324 -0.12204656 -0.017242722 -0.14449026
-0.024436096 0.05624951 0.09533335 0.04272993 0.09813494 0.050684165 0.015603297 0.09485942
-0.03129354 -0.13224703 -0.07142777 0.055277966 0.061726425 0.0781964 -0.02357575 0.034791104
-0.06975587 -0.07404276 -0.021617446 0.061268773 -0.018478788 -0.117064096 -0.14609125 -0.04674572
-0.085970595 0.04075011 0.043857183 -0.02583916 0.05988103 0.09805739 0.07675299 -0.036719438
0.005220753 -0.030204123 0.10105804 0.13057177 -0.0045719347 -0.1264759 -0.08353805 0.06811603
0.089495964 0.0840081 -0.07278614 0.09568232 -0.12279826 -0.10269685 -0.106197014 0.03989115
-0.09942122 0.016142076 -0.08649644 -0.056791037 0.025143383 0.09113017 -0.000977046 0.069101386
-0.04437528 0.0833834 0.085996196 0.110604145 -0.08949086 -0.14410998 -0.07029732 -0.07595799
-0.08057437 -0.08435393 0.02971103 -0.067708656 0.13967851 0.040651232 -0.005691726 0.1106723
-0.040151287 0.07557435 0.06883272 0.10172935 0.0394687 0.030301344 0.07368373 -0.015767183
0.11310383 -0.097151935 -0.0066263736 0.07637708 0.09715873 -0.11651497 0.061339453 -0.09439246
0.093878895 0.059711415 0.023066172 -0.034373105 -0.032232795 -0.048237998 0.06501181 0.013117688
-0.03538557 0.023872415 -0.015636507 0.026204636 0.0550821 0.029780217 -0.03145885 0.007631768
0.008075547 -0.046150386 -0.061325897 0.1020107 -0.10480194 0.08508462 0.029711057 -0.05214093
-0.072485216 -0.12562598 -0.0050427355 -0.07442886 -0.042721413 -0.06470866 -0.092107385 0.07956482
-0.050593767 -0.109851114 -0.12379265 -0.087616555 0.017288482 -0.035431426 0.13139352 0.01789549
-0.079479374 0.039854746 0.000105840205 -0.119795516 -0.05087138 -0.038092494 -0.0182447 -0.0225661
0.0925636 -0.06355588 0.06253035 0.074362375 -0.011019977 -0.116628096 -0.14882612 -0.05669477
0.10942924 0.005469053 -0.0113788415 -0.112089284 -0.09416491 -0.12158105 0.030743763 0.084741674
0.0092207175 -0.16439337 -0.050367896 0.07780315 -0.1376813 0.058476992 -0.1148826 -0.10067691
00000000: af48 253d 5e88 16be 7f08 893d e6e5 b2bd
00000010: 541e e0bb db48 d8bb 8d6f a2bd 099b a83d
00000020: f2b2 9abd 0fda d0bd a36c fe3d 41a2 41bd
00000030: 5fca d2bd 4f38 a9bd 90b7 de3c 1017 72bd
00000040: c66c d03d 096e 1c3b fbc4 efbd 99d7 823d
00000050: db03 14be dbf1 8f3d 201c d13c f1d2 e43d
00000060: da1b e13c 9afa f3bd 5027 6dbd e646 f53b
00000070: c13e 86bd e888 00bc 9c76 e83d 99c9 81bd
00000080: 0d1c f63d 8f08 24bd af1d b23d 309e e4bd
00000090: 2372 cdbd 3987 873d 887b 80bd 3b87 6e3c
000000a0: 944e 83bd 4568 e9bc 64b8 38bd d142 45bc
000000b0: 8ecd d33d 4f5c 413d e9f1 bbbd 9afb 49bd
000000c0: b174 f0bd e5e1 813d 6bde 87bd f07f febd
000000d0: bf5f 8b3d ebfb 7ebd 99a5 6dbd 5aac 0f3d
000000e0: 9fdc fdbd 880a 6bbd 36f1 cbbc 5e04 c73c
000000f0: 0c20 173d 642d ddbd 9f47 c73d 1a08 ac3c
00000100: dc66 91bd e606 8e3d 5cee 4a3e 273f cc3b
00000110: 1023 a1bb 4c4e f6bc 5517 d73d 35f8 cc3d
00000120: 08b9 a0bd 360b c33d 738e 463d 491f 833b
00000130: 2e8a a4bc e268 f4bc 4570 5bbc 4249 a03d
00000140: c617 60bd df17 2ebc 4910 c63d 493f b53b
00000150: 5d3f d63a 7445 083d 394a 823d 0e6f 66bd
00000160: 3aaa d63d 5249 01be bf69 2fbd e998 983d
00000170: 0faf 583d 8cf3 f9bd 9c40 8dbc 41f5 13be
00000180: 352e c8bc e365 663d 223e c33d 9405 2f3d
00000190: f9fa c83d 339a 4f3d f9a4 7f3c a845 c23d
000001a0: a82d 00bd c46b 07be b948 92bd 266b 623d
000001b0: d9d4 7c3d 6f25 a03d ee21 c1bc 1e81 0e3d
000001c0: 2adc 8ebd bba3 97bd 1217 b1bc f7f4 7a3d
000001d0: d460 97bc 4dbf efbd f298 15be 7178 3fbd
000001e0: 5a11 b0bd 96e9 263d 97a3 333d a5ac d3bc
000001f0: d045 753d 50d2 c83d ac30 9d3d 1f67 16bd
00000200: da12 ab3b a36e f7bc 85f7 ce3d 9bb4 053e
00000210: 2bd0 95bb e682 01be ff15 abbd 6b80 8b3d
00000220: a949 b73d 700c ac3d e610 95bd 18f5 c33d
00000230: a77d fbbd ba52 d2bd d27d d9bd e764 233d
00000240: 5a9d cbbd 633c 843c 0c25 b1bd b89d 68bd
00000250: 7ff9 cd3c 74a2 ba3d 3910 80ba 0785 8d3d
00000260: dbc2 35bd ebc4 aa3d c61e b03d 6d84 e23d
00000270: fc46 b7bd 9191 13be 0bf8 8fbd dd8f 9bbd
00000280: 2d04 a5bd c1c1 acbd 8c64 f33c d6aa 8abd
00000290: e207 0f3e e881 263d a981 babb 29a8 e23d
000002a0: ad75 24bd bac6 9a3d 2bf8 8c3d 7a57 d03d
000002b0: eea9 213d 863a f83c 7fe7 963d 2e2a 81bc
000002c0: fba2 e73d 98f7 c6bd 0d22 d9bb 966b 9c3d
000002d0: 28fb c63d 679f eebd 143f 7b3d d650 c1bd
000002e0: 9443 c03d f593 743d 45f5 bc3c d0ca 0cbd
000002f0: 8906 04bd 3595 45bd e924 853d 92eb 563c
00000300: 76f0 10bd 1590 c33c 2218 80bc 1bab d63c
00000310: c59d 613d a4f5 f33c ffda 00bd e913 fa3b
00000320: 4d4f 043c 3008 3dbd dd30 7bbd fcea d03d
00000330: 66a2 d6bd d840 ae3d 9a64 f33c ba91 55bd
00000340: 2173 94bd 19a4 00be 883d a5bb 286e 98bd
00000350: a6fc 2ebd f985 84bd cca2 bcbd e1f2 a23d
00000360: 693b 4fbd 9ff9 e0bd 0087 fdbd 4f70 b3bd
00000370: 93a0 8d3c 8b20 11bd 068c 063e 9099 923c
00000380: 15c6 a2bd bb3e 233d 87f6 dd38 5a57 f5bd
00000390: 825e 50bd e006 1cbd e975 95bc 8bdc b8bc
000003a0: fc91 bd3d 9629 82bd ea0f 803d 4d4b 983d
000003b0: 228d 34bc b6da eebd e065 18be c638 68bd
000003c0: 701c e03d be35 b33b 526e 3abc 118f e5bd
000003d0: 88d9 c0bd 7cff f8bd 58da fb3c 0b8d ad3d
000003e0: 7e12 173c bc56 28be 914e 4ebd 4257 9f3d
000003f0: 54fc 0cbe 9285 6f3d 9247 ebbd b22f cebd
