older ver/nvda_lstm_v6_multistock/best_v6_reg.pth (torch, 382512 bytes, 15 tensors)

lstm.weight_ih_l0 f4 [256, 36]
0	0x3de9d193	0.11416926
1	0x3de0cf85	0.10977081
2	0xbc61ff28	-0.013793744
3	0x3deec32f	0.11658322
4	0xbc300601	-0.010743619
5	0x3c6d516d	0.014484745
6	0xbd3d9164	-0.046281233
7	0x3d9c14ff	0.07621192
8	0x3ddaeca5	0.106896676
9	0xbd9459bc	-0.07243678
10	0x3e0791c7	0.13239203
11	0x3d14e03f	0.03634667
12	0x3dc2056e	0.09473692
13	0x3d099d32	0.03359718
14	0x3d4a5c48	0.049404413
15	0xbb888576	-0.0041663004
16	0x3df5fd55	0.1201121
17	0xbc982d05	-0.018576154
18	0xbd2069f8	-0.03916356
19	0x3d48ef06	0.049056076
20	0xbd430cad	-0.04761951
21	0x3babafa0	0.005239442
22	0xbd0e2a31	-0.034708206
23	0x3d9fcbfc	0.07802579
24	0xbdb12431	-0.08649481
25	0xbd306ce1	-0.043072585
26	0xbcd365bc	-0.025805347
27	0xbd8710c1	-0.065949924
28	0x3cdce233	0.026963329
29	0xbe031c7b	-0.12803833
30	0x3e07f6f4	0.13277799
31	0xbdff777d	-0.124739625
32	0x3de21236	0.1103863
33	0x3d0b1440	0.03395486
34	0xbd1ff3f5	-0.039051015
35	0x3da30515	0.07959954
36	0x3c525ebe	0.012839971
37	0x3d01da5b	0.03170238
38	0x3c030f03	0.007999185
39	0xbda91695	-0.0825626
40	0x3cda30ba	0.026634563
41	0xbd4300f7	-0.047608342
42	0x3d5ce6a6	0.0539309
43	0x3da8b04a	0.082367495
44	0x3db35b19	0.0875761
45	0xbd9035c0	-0.07041502
46	0x3da10a94	0.07863346
47	0x3c937c36	0.018003564
48	0x3d2762f2	0.040865846
49	0xbda9f1f2	-0.082981005
50	0xbe14cc06	-0.14530954
51	0xbd0022ab	-0.031283062
52	0xbdcc5030	-0.09976232
53	0x3d70cbaf	0.058787998
54	0x3d9554a7	0.07291537
55	0x3d0c9b34	0.0343277
56	0x3d405a4c	0.046961114
57	0xbd1c0307	-0.038088825
58	0x3dfddbca	0.12395437
59	0xbdd3c8a9	-0.10341007
60	0x3d382afa	0.04496286
61	0xbd5231d7	-0.051317062
62	0x3cf1aeb6	0.029502254
63	0xbd17db62	-0.037074454
64	0x3d0dcac1	0.03461719
65	0xbd62404b	-0.055237096
66	0x3de98c10	0.11403668
67	0xbdc385df	-0.09547018
68	0xbda9513f	-0.082674496
69	0xbdfda36b	-0.12384685
70	0x3db628b0	0.08894479
71	0x3c9586c2	0.018252734
72	0x3db85004	0.08999637
73	0xbcfdd308	-0.030984417
74	0xbe2419c2	-0.16025451
75	0xbd61c9d5	-0.055124123
76	0xbd97392f	-0.07383954
77	0x3c39f0ad	0.0113488855
78	0x3d6ae282	0.05734492
79	0x3db59a15	0.088672794
80	0xbde914ad	-0.11380897
81	0xbdfd8634	-0.12379113
82	0x3da73e9f	0.08166241
83	0xbd2d439a	-0.042300798
84	0x3d89bf83	0.06725981
85	0xbd632e93	-0.05546434
86	0x3d55d14c	0.052201554
87	0xbdb3e09f	-0.087830774
88	0xbd49b273	-0.049242448
89	0xbdea74e3	-0.114480756
90	0xbc15e844	-0.009149615
91	0xbcaf3904	-0.021389492
92	0x3d815626	0.0631526
93	0x3da60924	0.08107212
94	0xbdcc2a46	-0.099690005
95	0xbdad8be2	-0.08473946
96	0x3dcbdb8e	0.09953986
97	0x3c27ac98	0.010234021
98	0xbdb289f6	-0.0871772
99	0xbded88bf	-0.11598348
100	0xbd72689b	-0.05918179
101	0x3be34871	0.006936126
102	0xbcf78b3a	-0.030217756
103	0xbe32e009	-0.17468275
104	0xbbc736d2	-0.006079533
105	0xbd4303c7	-0.047611024
106	0xbdfc13ce	-0.12308465
107	0xbdba2ea9	-0.09090931
108	0xbd93d1c2	-0.072177425
109	0xbe7b378d	-0.2453291
110	0x3e1b9a39	0.1519555
111	0x3d689c8e	0.056789927
112	0x3d6ee622	0.05832494
113	0xbdf0e322	-0.11762072
114	0xbd398f9d	-0.045302976
115	0xbd416292	-0.047213145
116	0x3ceb6dec	0.028738938
117	0xbd9f89a0	-0.07789922
118	0xba21e188	-0.00061752694
119	0xbd2d0f60	-0.04225099
120	0x39a2d5fd	0.00031058482
121	0xbcbce94a	-0.02306046
122	0x3c44a5f4	0.012002457
123	0xbd43fe62	-0.04785002
124	0xbcf7dab3	-0.030255651
125	0xbdc89831	-0.09794653
126	0xbcc48da8	-0.023993328
127	0xbdaae78f	-0.083449475
128	0x3e02d6b9	0.12777223
129	0x3c074b13	0.008257645
130	0x3e0d0d57	0.1377462
131	0x3dae16d9	0.085004516
132	0x3bd178e9	0.0063925874
133	0x3df21da8	0.11822063
134	0xbd035e7e	-0.032072537
135	0xbd84b088	-0.06478983
136	0xbd835c85	-0.06414131
137	0xbe02c497	-0.12770306
138	0x3dced043	0.100983165
139	0xbdd5141a	-0.10404225
140	0x3d90d53e	0.07071923
141	0xbde80706	-0.113294646
142	0x3db7de90	0.08977997
143	0xbdcab4e4	-0.098977834
144	0xbd02860b	-0.031866115
145	0x3d2ab53a	0.041676737
146	0x3d05d885	0.032677192
147	0x3e440556	0.1914266
148	0x3dedef2f	0.11617886
149	0xbe2e536a	-0.17024007
150	0x3da7893f	0.081804745
151	0xbdbfb5de	-0.0936086
152	0xbd581ef9	-0.052763913
153	0xbe2ba9b7	-0.1676396
154	0x3e3123d8	0.1729883
155	0xbd2e9193	-0.0426193
156	0x3d631c2e	0.055446796
157	0x3ca0babf	0.019620297
158	0xbd2878e9	-0.041130934
159	0xbceed4c7	-0.029154195
160	0x3e293654	0.16524631
161	0xbe0741eb	-0.1320874
162	0x3d27a04a	0.040924348
163	0xbddfdd58	-0.1093089
164	0x3d5df6ce	0.05419045
165	0x3c26fd3c	0.010192212
166	0xbc131e17	-0.008979342
167	0x3dff843a	0.12476392
168	0x3c902da1	0.017599883
169	0x3e25dee6	0.1619831
170	0xbdd24c2d	-0.102684356
171	0x3d7f8e11	0.062391344
172	0x3e072017	0.13195835
173	0xbcff4803	-0.031162268
174	0xbdd17cb4	-0.10228863
175	0xbdccd35d	-0.10001252
176	0xbe6e0baa	-0.23246637
177	0x3e06d654	0.13167697
178	0x3d830746	0.06397872
179	0xbe27f348	-0.16401398
180	0x3d6c33e8	0.05766669
181	0x3d538c2a	0.051647343
182	0x3d5c9da0	0.05386126
183	0xbd1188fa	-0.03553102
184	0x3dbeae5b	0.093105994
185	0x3e03e424	0.12879997
186	0x3d943f18	0.07238597
187	0x3c6a2b59	0.014292561
188	0x3bd08793	0.006363818
189	0x3da328e2	0.07966782
190	0xbd4ddaef	-0.05025762
191	0xbcb9a41e	-0.022661265
192	0x3dd85c60	0.10564494
193	0x3e12acb8	0.143237
194	0x3dd937af	0.10606324
195	0xbc9201f0	-0.01782319
196	0xbd0fca3e	-0.035104983
197	0xbe544da7	-0.20732747
198	0x3d0d9da9	0.034574185
199	0x3d993527	0.07480841
200	0xbd8636b4	-0.065534025
201	0xbc60f8ca	-0.013731191
202	0x3e13acc0	0.14421368
203	0x3e2a2ef2	0.1661947
204	0x3cd2950d	0.025705839
205	0xbdb29d4d	-0.08721409
206	0xbd081c40	-0.033230066
207	0xbe86088d	-0.261784
208	0xbc9ad1a1	-0.018898787
209	0x3d5b10dc	0.053482875
210	0x3e2f80c1	0.1713896
211	0xbb9348db	-0.004494769
212	0xbdade255	-0.08490435
213	0xbd71a204	-0.0589924
214	0x3c65b6a7	0.0140205985
215	0x3e2050ca	0.15655819
216	0x3ce6f9cb	0.028195282
217	0xbdda4f0e	-0.1065961
218	0x3d7e6117	0.06210431
219	0xbd6856a5	-0.056723256
220	0xbd8ee23c	-0.069767445
221	0x3db7d974	0.08977023
222	0xbd30f2d0	-0.043200314
223	0xbcfd3943	-0.030911094
224	0xbda37d20	-0.0798285
225	0x3de7db6c	0.11321148
226	0x3dc6d60c	0.09708795
227	0x3d65a060	0.05606115
228	0xbd4a149c	-0.04933606
229	0xbdfc840b	-0.12329873
230	0xbd9b2e85	-0.07577232
231	0x3de94664	0.11390379
232	0x3d90dea1	0.07073713
233	0x3e2bea95	0.16788705
234	0x3db384a0	0.087655306
235	0x3d19996a	0.037499823
236	0x3c57a1cf	0.013161137
237	0xbdb5d909	-0.08879287
238	0xbdbcac92	-0.09212603
239	0xbdac8dca	-0.084254816
240	0x3de03098	0.109467685
241	0xbdb55240	-0.088535786
242	0x3b21bd8f	0.0024679636
243	0xbdfafcbb	-0.12255236
244	0xbc061d8d	-0.008185756
245	0xbdd99c36	-0.10625498
246	0xbd3d0fe7	-0.046157744
247	0x3d2310ca	0.039810933
248	0xbcc4ff3f	-0.024047492
249	0x3dabc4a8	0.083871186
250	0xbd2acc34	-0.04169865
251	0xbdbc981d	-0.09208701
252	0x3b30efce	0.0026998403
253	0xbcba48ed	-0.022739852
254	0xbc51f856	-0.012815556
255	0xbdc9aac4	-0.09847024

lstm.weight_hh_l0 f4 [256, 64]
0	0x3d8614ff	0.065469734
1	0xbda03b55	-0.07823817
2	0xbc049c1a	-0.008093858
3	0x3c40c7d5	0.011766394
4	0x3d95e555	0.07319132
5	0x3dc9d4c0	0.09855032
6	0x3e032f2d	0.12810965
7	0xbd82c952	-0.06386055
8	0xbc5e7677	-0.013578049
9	0x3d20794c	0.039178178
10	0x3dbd3e43	0.09240391
11	0x3e03a55c	0.12856048
12	0x3cc87000	0.024467468
13	0xbdc3b9ee	-0.09556948
14	0xbdcfb650	-0.10142195
15	0x3cf73901	0.030178549
16	0xbde89eec	-0.11358437
17	0xbd244d68	-0.040112883
18	0xbdc8cb00	-0.09804344
19	0x3d71bed4	0.05901988
20	0xbc26c22e	-0.010178132
21	0xbdb6f887	-0.089341216
22	0x3da36718	0.07978648
23	0xbdca79bf	-0.098865025
24	0xbbb73b70	-0.0055918023
25	0x3dff4626	0.12464552
26	0x3d83e62d	0.06440387
27	0xbdd85bf8	-0.10564417
28	0x3c5ca9de	0.013468234
29	0xbcb64758	-0.022250816
30	0x3d742b5d	0.059611667
31	0x3e06880b	0.13137834
32	0x3dcf778f	0.10130226
33	0xbc55552f	-0.013020798
34	0x3d73681e	0.059425466
35	0xbdee72d7	-0.11642998
36	0x3ddf96bd	0.10917423
37	0x3d734857	0.05939516
38	0xbdabf213	-0.08395781
39	0xbd3b95f0	-0.04579729
40	0xbd2a79bf	-0.041620012
41	0xbda7af93	-0.08187785
42	0x3d3f0687	0.046637084
43	0xbcf11d35	-0.029432872
44	0x3d5920b6	0.05300971
45	0xbd4744c6	-0.04864957
46	0x3de7c8c8	0.11317593
47	0xbd3983ae	-0.045291595
48	0xbcda38ef	-0.026638476
49	0xbd08abbe	-0.03336691
50	0x3c5f67d9	0.013635599
51	0xbd286f33	-0.041121673
52	0xbd94c5f9	-0.07264323
53	0xbe0c55bc	-0.1370458
54	0x3db929cc	0.09041175
55	0x3c14b807	0.009077079
56	0xbda80df5	-0.08205787
57	0x3d36524b	0.044512074
58	0x3d3d358f	0.046193656
59	0xbd279a72	-0.040918775
60	0xbc7460ca	-0.014915654
61	0x3bd672ec	0.0065444615
62	0x3dda1115	0.106477894
63	0xbdcb965f	-0.099407904
64	0xbd83c806	-0.06434636
65	0xbdb3ed96	-0.0878555
66	0xbd3214e0	-0.04347694
67	0xbd2cf4f5	-0.042225797
68	0x3cce6a2a	0.025197107
69	0xbcf9a664	-0.030474849
70	0x3d5315b2	0.051534362
71	0x3c29da11	0.0103669325
72	0xbcf7ae61	-0.030234518
73	0xbe12fa15	-0.14353211
74	0x3dec2921	0.11531282
75	0x3dea7d8f	0.1144973
76	0xbd605182	-0.054765232
77	0x3cd7411e	0.026276167
78	0x3d6ed965	0.058312792
79	0x3df38d7e	0.11892222
80	0xbd21a0e8	-0.039460093
81	0xbd39467c	-0.045233235
82	0xbd5c901d	-0.053848375
83	0x3cfee236	0.031113725
84	0x3da4e5f6	0.08051674
85	0xbde714d3	-0.11283269
86	0x3d82b45e	0.063820586
87	0x3dd164f7	0.10224336
88	0x3cae19e6	0.021252584
89	0x3d6165a0	0.055028558
90	0xbd9664af	-0.073434226
91	0x3c35c4eb	0.011094312
92	0xbe202534	-0.15639192
93	0x3d9ddbd6	0.07707946
94	0xbd5dc7d5	-0.054145653
95	0xbd433b5d	-0.047664035
96	0xbdb4cd47	-0.08828216
97	0xbd3147a1	-0.0432812
98	0x3c1bddd7	0.00951334
99	0x3d90fd80	0.07079601
100	0xbd165fab	-0.03671233
101	0x3d9f53a2	0.077796236
102	0xbccfa946	-0.02534927
103	0x3dd5162b	0.10404619
104	0x3db5f931	0.0888542
105	0x3d466d1b	0.048443895
106	0x3d921aae	0.07133995
107	0xbdb88758	-0.0901019
108	0x3ded1999	0.11577148
109	0xbdfd9e2d	-0.12383685
110	0xbd79721e	-0.060899846
111	0xbdcee394	-0.10102001
112	0xbdad5ff5	-0.08465568
113	0x3cac3562	0.021021549
114	0x3d00fa74	0.03148885
115	0xbdc66292	-0.096867695
116	0x3e032ca5	0.1281
117	0x3d9bdf62	0.07610966
118	0x3cb92458	0.022600338
119	0xbdf5c388	-0.12000185
120	0x3d9443e9	0.07239515
121	0x3d5c2cce	0.053753667
122	0x3cf2e16e	0.029648509
123	0xbe1b3ae1	-0.1515918
124	0x3de1f161	0.110323675
125	0xbd1067ad	-0.035255123
126	0xbe309f62	-0.172483
127	0x3e2fda2c	0.1717307
128	0x3ce9d08d	0.028541828
129	0x3e180b1f	0.14847992
130	0x3dd19e42	0.102352634
131	0x3c7c7a02	0.015409948
132	0xbd9a10d6	-0.075227425
133	0xbaa401e9	-0.0012512776
134	0x3ddca7a8	0.107741654
135	0xbd19179f	-0.037376042
136	0xbe18f414	-0.14936858
137	0xbe50a55e	-0.20375583
138	0xbdd15c2e	-0.1022266
139	0x3ca8f9fd	0.020627016
140	0x3dbdf441	0.09275103
141	0x3d7df1bc	0.061998114
142	0x3cd054c9	0.025431054
143	0x3cfdd32c	0.030984484
144	0xbdf41de9	-0.119197674
145	0x3db1ce9e	0.08681987
146	0x3d651c00	0.055934906
147	0xbdbe10a5	-0.092805184
148	0xbde35a35	-0.1110119
149	0xbdec922c	-0.115513176
150	0xbccfd960	-0.025372207
151	0x3da34564	0.079722196
152	0xbc33ea22	-0.010981115
153	0xbd433af5	-0.047663648
154	0x3cebf775	0.02880452
155	0xbddb0d3e	-0.10695885
156	0x3cfebee4	0.031096883
157	0x3df8e7fb	0.12153622
158	0x3d45ab1b	0.048258882
159	0xbc597197	-0.013271711
160	0xbd420477	-0.04736754
161	0x3ce404d2	0.02783433
162	0x3dcab337	0.09897464
163	0xbd5133c9	-0.051074777
164	0xbb81c2cf	-0.0039599906
165	0x3b4d81b9	0.0031357838
166	0xbd2e90d8	-0.042618603
167	0xbdd96f38	-0.106169164
168	0xbe3e98cd	-0.18612976
169	0x3d8a8e33	0.067654036
170	0xbd1a6a42	-0.03769899
171	0x3d8e9454	0.06961885
172	0x3dc14098	0.094361484
173	0xbcf61dd1	-0.030043514
174	0xbdfb58a8	-0.12272769
175	0xbcbf0635	-0.02331839
176	0xbd4c34d2	-0.04985506
177	0xbdb05781	-0.0861044
178	0x3e184dae	0.14873382
179	0x3c3c6c46	0.011500424
180	0xbd44ca15	-0.048044283
181	0xbdf4a2af	-0.11945092
182	0x3c32f1a6	0.010921871
183	0x3d822c37	0.063560896
184	0x3e0e0ade	0.13871333
185	0xbc73a938	-0.014871888
186	0x3dacba2e	0.084339485
187	0xbc76eda1	-0.015071304
188	0x3d928d6d	0.07155881
189	0x3c5a174d	0.013311219
190	0xbd387cb4	-0.0450408
191	0x3d9ecaf3	0.07753553
192	0xbdc8540d	-0.097816564
193	0x3d606598	0.054784387
194	0xbdb12156	-0.086489365
195	0xbddca490	-0.10773575
196	0x3e1f3ad4	0.15549785
197	0xbd946223	-0.072452806
198	0xbd91e3d3	-0.07123532
199	0xbe089cba	-0.13341036
200	0x3ddd0cca	0.10793455
201	0x3dc1c88c	0.094620794
202	0xbdfcd804	-0.12345889
203	0x3cbe6c76	0.023245078
204	0xbd20f2f8	-0.039294213
205	0xbda39914	-0.07988182
206	0xbda3584d	-0.079758264
207	0x3e053bf2	0.13011149
208	0xbc6be183	-0.014397028
209	0x3dd25755	0.102705635
210	0xbc43f75d	-0.0119608315
211	0xbdaaba10	-0.0833627
212	0xbd735b63	-0.059413325
213	0xbd58d2ee	-0.052935533
214	0xbde0ff76	-0.10986225
215	0xbe13674e	-0.14394876
216	0x3d4ac206	0.04950144
217	0x3dd1d49f	0.102456324
218	0x3e050f8d	0.12994213
219	0x3bb00fe3	0.0053729876
220	0xbd3bc90c	-0.04584603
221	0xbcda6dc3	-0.026663667
222	0x3d3bbfb5	0.045837123
223	0xbb060d91	-0.0020454864
224	0xbd826af7	-0.06368058
225	0x3d9786ba	0.07398744
226	0xbe2a4ffb	-0.16632073
227	0xbd9b027a	-0.07568832
228	0xbc6274ab	-0.013821761
229	0xbc6c2120	-0.0144121945
230	0xbd8cd53e	-0.0687661
231	0x3da4889d	0.080338694
232	0xbdbf79d6	-0.0934941
233	0x3dcdd3e8	0.100501835
234	0xbe07dda0	-0.13268137
235	0x3dc19ce9	0.09453756
236	0xbd49af05	-0.049239177
237	0xbd84d084	-0.06485084
238	0xbe14aabb	-0.14518254
239	0xbdf190b2	-0.117951766
240	0xbe0dec9c	-0.1385979
241	0x3d7c734d	0.061633397
242	0x3e298cef	0.16557668
243	0x3dacf36f	0.08444869
244	0x3dbd0dff	0.09231185
245	0x3c717c59	0.014739119
246	0x3cf355bf	0.029703973
247	0xbd2fe216	-0.04294022
248	0xbd07e73d	-0.03317951
249	0xbd8da62b	-0.0691646
250	0x3d733fad	0.059386898
251	0xbcf5fc14	-0.030027427
252	0xbdc1a421	-0.09455133
253	0x3cb20dd6	0.021735113
254	0x3cdd5f43	0.027022963
255	0x3e0ee489	0.13954367

lstm.bias_ih_l0 f4 [256]
0	0xbdd39aa8	-0.10332233
1	0xbd6525fe	-0.055944435
2	0x3dcb6294	0.09930912
3	0xbd4299e8	-0.047510058
4	0xbc80a1ad	-0.015702093
5	0x3d072e30	0.033003032
6	0x3ca381bf	0.019959329
7	0x3de57d92	0.11205591
8	0xbcf062d6	-0.029344004
9	0x3db00432	0.0859455
10	0xbd4a66cd	-0.049414445
11	0x3d953e31	0.07287253
12	0x3dac4b07	0.08412748
13	0xbbb90c07	-0.0056471857
14	0x3dcd37b9	0.10020394
15	0x3dc4351a	0.09580441
16	0xbcf66171	-0.03007576
17	0xbddf00a8	-0.10888797
18	0x3d8dfbe3	0.06932809
19	0xbdb8526f	-0.09000098
20	0x3d13024a	0.035890855
21	0x3c366871	0.011133299
22	0x3d90040a	0.070320204
23	0x3dedf772	0.11619462
24	0xbd3cd721	-0.0461036
25	0x3c8a6350	0.016893059
26	0xbd8597ee	-0.06523119
27	0x3dbf6af5	0.09346572
28	0x3d6f113f	0.058366057
29	0x3e0beead	0.13665266
30	0x3dda8f66	0.10671882
31	0x3d3f65a0	0.046727777
32	0x3da16d59	0.078821845
33	0x3c26fb5f	0.0101917675
34	0xbccaedd0	-0.024771601
35	0xbd331c1f	-0.04372799
36	0xbd34a9b1	-0.044107143
37	0xbd5c49d8	-0.05378136
38	0xbd57366c	-0.052542135
39	0xbdc850dd	-0.097810484
40	0x3d7e0bce	0.062022977
41	0xbd873777	-0.06602376
42	0xbde4a13e	-0.11163567
43	0x3d18dd98	0.037320703
44	0xbda46092	-0.08026232
45	0x3cdb76bc	0.026790015
46	0x3cfb1066	0.030647468
47	0x3d95ca3d	0.073139645
48	0x3e233378	0.15937603
49	0x3db3d5ce	0.087810144
50	0xbd991a49	-0.074757166
51	0xbc37358b	-0.011182199
52	0x3d8d933e	0.0691285
53	0xbd651872	-0.055931516
54	0xbce4b28c	-0.027917169
55	0xbdc11f67	-0.09429818
56	0xbda63484	-0.08115485
57	0x3dcd597a	0.10026832
58	0xbd18b037	-0.037277427
59	0x3d7e3311	0.06206042
60	0xbd87894a	-0.06617983
61	0xbca32dae	-0.019919243
62	0x3abf4fe3	0.0014595952
63	0x3e11e076	0.14245781
64	0x3ce21c66	0.027601432
65	0xbde14662	-0.109997526
66	0x3de97ea7	0.1140111
67	0x3d26ca0b	0.040720027
68	0x3e32ccdb	0.17460959
69	0x3d2db81a	0.0424119
70	0xbdb53c7d	-0.08849428
71	0x3d32e5af	0.043676075
72	0xba8a6bc2	-0.0010560679
73	0xbcdcc230	-0.026948065
74	0x3d3d87e5	0.046272177
75	0x3d5e888c	0.05432944
76	0xbce5a407	-0.028032316
77	0xbcb29c43	-0.021803027
78	0xbd1a77a9	-0.037711773
79	0x3dcd94ac	0.100381225
80	0x3dbe72e2	0.09299256
81	0xbcbed156	-0.023293179
82	0xbd0b8cb5	-0.034069736
83	0xbced23ac	-0.028947674
84	0x3c504189	0.012710937
85	0x3d07d5c1	0.033162836
86	0xbca58c00	-0.020208359
87	0x3d927160	0.07150531
88	0xbd99a030	-0.075012565
89	0x3deba2c8	0.115056574
90	0xbd31a1c1	-0.04336715
91	0x3e013635	0.12618335
92	0x3c3eb095	0.01163878
93	0xbbcab728	-0.0061863847
94	0xbd069f25	-0.032866616
95	0xbc09541e	-0.0083818715
96	0xbbcccad8	-0.006249767
97	0x3d9f98b0	0.07792795
98	0x3c6f51c5	0.014606898
99	0x3deb83a1	0.114997156
100	0x3d13a3d5	0.036044914
101	0xbc94aaa4	-0.018147774
102	0xbda28f9b	-0.07937547
103	0x3d380e65	0.044935603
104	0x3d2dba33	0.0424139
105	0xbc74055c	-0.014893856
106	0xbdf2ba26	-0.11851911
107	0x3d3a26fd	0.04544734
108	0x3d5b9967	0.053613093
109	0x3d991513	0.07474723
110	0xbcc93aee	-0.024564233
111	0x3dac53b2	0.08414401
112	0x3e29dfd0	0.16589284
113	0x3d5d461c	0.05402194
114	0x3de382ef	0.11108958
115	0xbe00404c	-0.12524527
116	0x3db60469	0.0888756
117	0x3bfa01c4	0.007629605
118	0x3dd0179c	0.10160753
119	0x3de1becd	0.110227205
120	0x3cd773be	0.026300307
121	0x3d9666ac	0.07343802
122	0x3da4856f	0.08033263
123	0x3e0dbe91	0.13842227
124	0xbdb83137	-0.08993762
125	0x3dfd7aa7	0.1237691
126	0x3d23542d	0.0398752
127	0x3dbc3a62	0.09190823
128	0xbb850a71	-0.0040600826
129	0xbced560f	-0.0289717
130	0xbc0fc4b7	-0.008774928
131	0xbd0a8c36	-0.03382512
132	0xbdc218e1	-0.094774015
133	0x3d9d850b	0.076913916
134	0x3d65a9c4	0.056070104
135	0xbdfe41a9	-0.124148674
136	0x3d71b724	0.059012547
137	0xbdbbe16f	-0.091738574
138	0xbd36ec62	-0.044659026
139	0x3de90532	0.11377944
140	0xbc2608c6	-0.010133928
141	0x3d8fee21	0.07027841
142	0x3d86a1c0	0.0657382
143	0x3cc521cd	0.024063969
144	0xbdf2b391	-0.11850656
145	0x3db10c10	0.08644879
146	0xbd8038ca	-0.06260832
147	0xbd82b859	-0.06382818
148	0xbd2c93ce	-0.042133145
149	0x3dc3f4c4	0.0956817
150	0xbcd4d528	-0.025980547
151	0x3d996f90	0.07491982
152	0x3c90380b	0.017604848
153	0xbd9144ca	-0.070931986
154	0x3c417843	0.011808458
155	0x3dcdae47	0.100430064
156	0x3dca96a6	0.09892015
157	0x3aef928b	0.0018277926
158	0x3cb266a8	0.021777466
159	0x3d89781a	0.06712361
160	0xbd494938	-0.049142092
161	0xbd256cbf	-0.04038691
162	0x3d8f9cbd	0.07012317
163	0x3dab8e9b	0.08376809
164	0x3c19ad69	0.009379723
165	0xbc134907	-0.008989579
166	0xbdc3477a	-0.095351174
167	0xbba8e22b	-0.0051539144
168	0xbdc10248	-0.09424263
169	0xbc9c9716	-0.019115012
170	0x3c1372c6	0.008999532
171	0x3d36f5d9	0.044668052
172	0x3ddf95be	0.10917233
173	0x3c1ba59a	0.009499932
174	0x3ca70545	0.020388255
175	0xbd88965d	-0.066693045
176	0xbdce3fae	-0.1007074
177	0xbdeeaa78	-0.11653608
178	0x3ce06a3d	0.027394408
179	0xbab89d0b	-0.0014084888
180	0x3dd11dbb	0.10210749
181	0x3d878acc	0.0661827
182	0xbbee7d29	-0.007278104
183	0xbd1ab65d	-0.03777157
184	0x3db74ce2	0.08950211
185	0xbdd98961	-0.10621906
186	0xbba9b4ef	-0.0051790397
187	0x3d24b4bf	0.040211435
188	0xbe05fb61	-0.13084175
189	0x3dc71e1d	0.097225405
190	0xbd33806c	-0.043823645
191	0x3def046f	0.116707675
192	0xbc0c37ab	-0.008558194
193	0xbd9d52f3	-0.07681837
194	0x3d858267	0.06519013
195	0xbd4be610	-0.04977995
196	0xbd09e3d5	-0.033664543
197	0x3c4f96b2	0.012670206
198	0x3dc00a75	0.093769945
199	0x3d8c89a9	0.06862194
200	0x3e189ee1	0.14904357
201	0x3ca61094	0.020271577
202	0x3cf608e0	0.030033529
203	0xbd0cec9a	-0.03440533
204	0x3e213c57	0.15745674
205	0x3c9a284a	0.01881804
206	0xbdd71fcf	-0.10504114
207	0x3ce0da67	0.027447892
208	0xbd431048	-0.04762295
209	0x3c9df065	0.019279668
210	0x3d1f6514	0.038914755
211	0xbd40e7ca	-0.04709605
212	0xbdd0f600	-0.10203171
213	0xbc31cc33	-0.010851908
214	0xbd76c1b4	-0.060243323
215	0x3e348230	0.17627788
216	0xbd0588db	-0.03260122
217	0xbc6763b6	-0.014122894
218	0x3dd1ca89	0.10243709
219	0xbc885ff0	-0.016647309
220	0x3ccc6f23	0.024955338
221	0xbdd372b9	-0.10324616
222	0x3d913286	0.07089715
223	0x3daa525f	0.08316492
224	0xbe008af4	-0.12553006
225	0x3e12596b	0.14291923
226	0x3e19005a	0.1494154
227	0x3d8fc3de	0.070197806
228	0x39bc07e1	0.00035864025
229	0xbc8c52b0	-0.017129272
230	0x3dfb8c69	0.122826405
231	0x3da971fe	0.082736954
232	0xbd2c43ae	-0.042056732
233	0xbd6b028a	-0.05737547
234	0x3ddd7226	0.10812788
235	0xbd94e6c1	-0.07270575
236	0xbc171f62	-0.009223791
237	0xbdb63ce7	-0.08898335
238	0x3d9b8cfa	0.075952485
239	0xbca0f479	-0.019647824
240	0x3e1b352e	0.15157005
241	0xbd0b93e1	-0.034076575
242	0x3d62a0eb	0.055329245
243	0xbda0ff4e	-0.078611955
244	0xbd9c06db	-0.07618495
245	0xbd978b0c	-0.07399568
246	0x3dc58265	0.096440114
247	0x3d37f107	0.044907596
248	0x3d898c68	0.067162335
249	0x3e278059	0.16357554
250	0x3dd89a47	0.10576301
251	0x3c56fe84	0.013122205
252	0x3d898162	0.06714131
253	0xbddb5dc8	-0.10711247
254	0x3e116c00	0.14201355
255	0xbd8e8370	-0.069586635

lstm.bias_hh_l0 f4 [256]
0	0x3dafc55c	0.08582565
1	0xbd92a555	-0.07160441
2	0x3e03c57d	0.12868305
3	0x3d8bfc1c	0.068351954
4	0x3ddd22e8	0.107976735
5	0x3d89a0bb	0.0672011
6	0xbd2c2f9c	-0.04203759
7	0x3ced5404	0.028970726
8	0x3daec7a0	0.08534169
9	0x3dd05204	0.10171893
10	0x3d88ac54	0.06673494
11	0x3de7bc31	0.113151915
12	0x3ca41f7a	0.02003454
13	0xbd83b1be	-0.06430386
14	0x3d8f6198	0.070010364
15	0x3dd29094	0.10281482
16	0x3e0657d8	0.13119447
17	0xbdaf13d4	-0.08548704
18	0x3bcd2829	0.006260891
19	0x3d2e2011	0.04251105
20	0x3c917eaa	0.017760593
21	0x3d6de087	0.058075454
22	0xbdb7d1ba	-0.08975549
23	0x3dfac49b	0.12244531
24	0xbc86a884	-0.016437776
25	0x3d0239ff	0.03179359
26	0xbc910d2b	-0.017706474
27	0xbddb06ed	-0.1069468
28	0x3d913d49	0.07091767
29	0x3cf3ebe1	0.029775562
30	0xbb59431f	-0.003315158
31	0x3db3402c	0.08752474
32	0x3dda836d	0.10669599
33	0xbd341417	-0.04396447
34	0x3d0f73a4	0.035022393
35	0xbcf5085b	-0.02991121
36	0xbdab72c1	-0.08371497
37	0xbde564c7	-0.112008624
38	0xbd38a25d	-0.045076717
39	0xbd3fe807	-0.046852138
40	0x3ca30e55	0.019904295
41	0x3b1cbaf5	0.0023915146
42	0x3db00b8a	0.08595951
43	0xbc4bbb9a	-0.012434864
44	0x3dd18014	0.10229507
45	0xbdf73a9c	-0.12071726
46	0x3cd4a0f3	0.025955653
47	0xbc46c2ba	-0.012131387
48	0x3dc236dd	0.094831206
49	0x3de5bb76	0.11217396
50	0x3de08337	0.10962527
51	0x3ccced31	0.025015445
52	0x3d868fbe	0.065703854
53	0x3e088f91	0.13336016
54	0x3e4914d2	0.19636849
55	0x3d8d30d6	0.0689408
56	0xbd9825a0	-0.074290514
57	0x3e0360b6	0.12829861
58	0x3d123587	0.03569558
59	0x3dc99557	0.098429374
60	0x3d284fe6	0.041091822
61	0x3d3d33f6	0.046192132
62	0x3cf3ccee	0.029760804
63	0x3dd323e3	0.10309579
64	0x3de20f06	0.11038022
65	0x3ded7825	0.115951814
66	0xbdb69147	-0.08914428
67	0x3dc4833f	0.09595346
68	0x3e267912	0.16257122
69	0xbcaf2428	-0.021379545
70	0xbdc603df	-0.09668707
71	0x3db52cd7	0.08846443
72	0x3da73627	0.081646256
73	0x3e2542e1	0.16138794
74	0x3daf66b8	0.08564514
75	0x3dd239d8	0.10264939
76	0xbd8a69ac	-0.067584366
77	0xbcc765f6	-0.024340611
78	0xbddca04b	-0.10772761
79	0x3ccff028	0.02538307
80	0x3e13e11b	0.1444134
81	0xbdad10ea	-0.08450492
82	0x3db5c061	0.08874584
83	0xbdbea31c	-0.093084544
84	0x3dcf7d98	0.10131377
85	0xbdcfc3e6	-0.101447865
86	0xbd8dd5ff	-0.06925582
87	0x3d75c753	0.060004544
88	0x3d58d53d	0.052937735
89	0xbde299e8	-0.110645115
90	0x3d89d00f	0.06729137
91	0xbdcf29ce	-0.101153955
92	0x3c678351	0.014130429
93	0xbc9012d9	-0.017587112
94	0xbc3ed795	-0.011648078
95	0xbdb287d1	-0.08717311
96	0x3df749c3	0.12074616
97	0x3e253c71	0.16136338
98	0xbd509c86	-0.050930522
99	0xbc26d48a	-0.010182509
100	0xbdb775cf	-0.08958017
101	0xbdd4c3b3	-0.10388889
102	0xbd14d274	-0.036333516
103	0x3dbf1172	0.09329499
104	0xbd88546a	-0.06656726
105	0x3df5440c	0.119758695
106	0x3dd87bfc	0.10570523
107	0x3d4c28ae	0.049843483
108	0x3e07a94a	0.13248172
109	0x3c9d8fe4	0.019233651
110	0x3ddbbd56	0.10729472
111	0x3d9603e3	0.0732496
112	0xbd29a6a1	-0.041418675
113	0x3d6c673d	0.057715643
114	0x3c4af7cc	0.012388181
115	0xbe016891	-0.12637545
116	0x3dd67b1b	0.10472699
117	0x3bf6afc6	0.007528278
118	0x3d99471c	0.07484266
119	0xbd34f7f6	-0.044181786
120	0x3db6a66a	0.0891846
121	0x3daa9b98	0.083304584
122	0xbcb16e7f	-0.021659134
123	0xbd1a54a3	-0.037678372
124	0x3cfb0794	0.030643262
125	0xbdd15170	-0.10220611
126	0x3d95ebee	0.07320391
127	0xbda34768	-0.07972604
128	0xbda114ff	-0.07865333
129	0x3c64ff1a	0.013976837
130	0xbd66b994	-0.056329325
131	0x3d0c123b	0.034197073
132	0xbd898fa3	-0.0671685
133	0xbd59514f	-0.053056058
134	0x3d33ad8c	0.04386668
135	0x3d849243	0.0647321
136	0xbcfb9911	-0.030712636
137	0x3d3a5c56	0.045498215
138	0xbdb88e17	-0.090114765
139	0xbc998286	-0.018738996
140	0x3da213a8	0.079139054
141	0xbca74e2b	-0.020423016
142	0xbded238e	-0.11579047
143	0x39342be0	0.00017182482
144	0xbc8de671	-0.017321797
145	0x3d2b08e0	0.04175651
146	0xbd147b29	-0.036250267
147	0xbd8b9f8b	-0.0681754
148	0x3cbe9290	0.023263246
149	0x3db2bd96	0.08727567
150	0xbcaf37d5	-0.021388927
151	0x3d6f174f	0.05837184
152	0x3ccc11bd	0.024910802
153	0x3c106829	0.008813896
154	0xbcd24868	-0.025669292
155	0xbbbb2b62	-0.0057119587
156	0xbdfcaddd	-0.12337849
157	0x3d9c359d	0.076274134
158	0xbd846bae	-0.06465851
159	0xbdd7a2d4	-0.10529104
160	0xbda06ac3	-0.07832863
161	0x3c9e5206	0.019326221
162	0xbca503cb	-0.02014341
163	0xbd9e7cb6	-0.077386305
164	0x3d81e91d	0.06343291
165	0xbd6e08e1	-0.058113936
166	0xbd9b2648	-0.07575661
167	0x3d8470cd	0.064668275
168	0xbd822145	-0.06354002
169	0xbd9d919d	-0.07693789
170	0xbcda9817	-0.02668385
171	0xbd83f437	-0.06443065
172	0x3b63ca56	0.0034758053
173	0xbd58661f	-0.052831765
174	0x3bb5c075	0.0055466243
175	0xbc976849	-0.018482344
176	0x3d9c39c8	0.076282084
177	0x3d9620da	0.07330485
178	0xbd76ce5e	-0.0602554
179	0x3cea4661	0.028598012
180	0xbdf4629d	-0.119328715
181	0xbdd491d9	-0.10379381
182	0xbdc6c1dd	-0.09704945
183	0xbd524191	-0.05133206
184	0xbdee1590	-0.116252065
185	0x3d99bba5	0.075064935
186	0x3dd3f962	0.103503
187	0xbdcf1d4a	-0.10113008
188	0xbdfb5b8e	-0.12273322
189	0xbd16d019	-0.03681955
190	0x3daf60a5	0.08563355
191	0x3d32a98d	0.043618727
192	0x3ca70529	0.020388203
193	0x3df07d9d	0.11742709
194	0x3dd5041e	0.10401176
195	0x3db968e5	0.0905321
196	0xbc13f958	-0.009031616
197	0x3c98d04c	0.018654011
198	0xbb6a047c	-0.003570824
199	0x3ba805e1	0.005127654
200	0x3da52e9d	0.080655314
201	0x3e10b366	0.14130935
202	0xbd2573f7	-0.040393796
203	0xbdebb77a	-0.11509605
204	0xbd91526b	-0.07095798
205	0x3d2e5ee2	0.042570956
206	0xbd8e2fbd	-0.06942699
207	0x3d81ab88	0.06331545
208	0x3da270bd	0.07931659
209	0x3d22df3b	0.03976367
210	0xbd2dc93c	-0.04242824
211	0x3d9e490d	0.07728777
212	0x3dc3524e	0.09537183
213	0x3d2b2073	0.041778993
214	0x3d05229a	0.0325037
215	0x3ddcd278	0.10782331
216	0x3d073bfa	0.033016182
217	0x3d3ad385	0.045611877
218	0x3d7982e7	0.060915854
219	0x3dedefd3	0.116180085
220	0x3b56a364	0.0032751197
221	0x3dad41e5	0.08459834
222	0x3de75a3c	0.11296508
223	0xbddae0ab	-0.10687383
224	0xbbd7a38a	-0.0065807747
225	0xbda83a84	-0.08214286
226	0xbce3af95	-0.027793685
227	0x3db0cc5e	0.0863273
228	0xbdbc0c0a	-0.09181984
229	0x3de7cccb	0.11318358
230	0x3df61bb7	0.12017005
231	0xbd7c6bed	-0.061626364
232	0xbda8733c	-0.08225104
233	0xbc16a2f0	-0.009194121
234	0xbdeed782	-0.116621986
235	0x3d6e1aca	0.058131017
236	0xbc0af0ce	-0.008480264
237	0x3cea5a90	0.028607637
238	0x3d12e302	0.035861023
239	0xbbccf898	-0.0062552206
240	0xbcf92a6d	-0.030415738
241	0x3d63cf68	0.05561772
242	0x3d8715ea	0.06595977
243	0x3c56b916	0.013105651
244	0x3b7357fc	0.00371313
245	0xbbb86f52	-0.005628505
246	0x3d2025c4	0.039098516
247	0x3d4f17b4	0.050559714
248	0x3d856b32	0.065145865
249	0xbc295943	-0.010336223
250	0xbc1ea52e	-0.009682937
251	0x3df2d69f	0.11857342
252	0x3d9fc470	0.07801139
253	0xbde05ad2	-0.109548226
254	0xbd4f7d8e	-0.050656848
255	0x3d04de36	0.03243848

lstm.weight_ih_l1 f4 [256, 64]
0	0xbd68c9d3	-0.0568331
1	0xba820cb3	-0.0009921998
2	0xbd4ce3d0	-0.050021946
3	0xbe01d714	-0.12679702
4	0xbd868f81	-0.0657034
5	0x3ca273f9	0.01983069
6	0x3cda51df	0.026650367
7	0x3dc42343	0.09577038
8	0x3dd347cf	0.10316431
9	0x3d135fb8	0.035979956
10	0x3d8a835f	0.06763338
11	0xbc9c8f9a	-0.019111443
12	0x3d8d87d1	0.069106705
13	0xbdd2eb4f	-0.10298788
14	0xbd46dcf9	-0.04855058
15	0x3ba85eaf	0.0051382403
16	0x3d4783ff	0.048709866
17	0x3d557522	0.05211366
18	0x3df66394	0.12030712
19	0x3dd4ba41	0.103870876
20	0xbdcac840	-0.09901476
21	0xbc0fdb9b	-0.008780385
22	0xbc0a1a31	-0.008429096
23	0x3ccab78f	0.02474573
24	0xbdaad7c1	-0.08341933
25	0x3d817fbb	0.06323191
26	0x3d3179f4	0.043329194
27	0x3d8f320a	0.06991966
28	0xbcb011ba	-0.021492828
29	0x3c950630	0.018191427
30	0x3d63e092	0.05563409
31	0x3dc8f474	0.09812251
32	0xbd2ec5a1	-0.042668942
33	0x3d2320db	0.039826255
34	0xbd5a55d7	-0.05330452
35	0x3d855ddb	0.06512042
36	0xbcec229c	-0.028825097
37	0x3ccf2dc6	0.025290381
38	0xbd8f0f76	-0.06985371
39	0x3cab5a8d	0.020917201
40	0xbdd704cb	-0.10498961
41	0xbdaebce8	-0.08532125
42	0xbd3f35aa	-0.046682037
43	0xbd191409	-0.037372623
44	0x3de4cb9b	0.11171647
45	0x3db7b976	0.08970921
46	0x3da98ea2	0.08279158
47	0xbd88bf0d	-0.06677065
48	0x3ddc14fe	0.107461914
49	0x3e138c85	0.14409073
50	0xbc81db4d	-0.015851641
51	0xbd6b16bc	-0.057394728
52	0x3dc3bf6b	0.095579945
53	0x3df1c0e7	0.11804371
54	0x3d238176	0.039918385
55	0xbda8fbc7	-0.08251148
56	0xbdafa74a	-0.0857683
57	0x3e2fe5b2	0.17177466
58	0xbe0fb9b1	-0.1403568
59	0x3d935697	0.0719425
60	0x3d8d1e1b	0.06890508
61	0xbcf00367	-0.029298497
62	0xbe03b4fd	-0.1286201
63	0xbd92f884	-0.07176307
64	0x3dd6819a	0.10473938
65	0x3d44cb02	0.048045166
66	0x3d831a84	0.06401542
67	0xbd953c61	-0.07286907
68	0xbd8455a4	-0.06461647
69	0x3d8df769	0.06931955
70	0xbda9c1e1	-0.082889326
71	0x3d7415c9	0.05959109
72	0x3cdaf320	0.02672726
73	0x3e1757b1	0.14779545
74	0xbda2da88	-0.07951838
75	0xbd2f6a35	-0.042825896
76	0xbdb9d11a	-0.09073086
77	0x3d91bc50	0.07115996
78	0xbcf5a6d1	-0.02998677
79	0xbd4ab45b	-0.049488407
80	0xbe010450	-0.12599301
81	0x3dc3780f	0.09544384
82	0x3dffc649	0.12488992
83	0xbd9fd03c	-0.078033894
84	0xbcb26973	-0.021778798
85	0xbd24a6b5	-0.040198047
86	0xbdaf559a	-0.08561249
87	0xbd915c8a	-0.070977286
88	0xbc523c2d	-0.01283173
89	0x3d7bea53	0.061502766
90	0xbda1cbe6	-0.07900219
91	0x3dfab477	0.12241452
92	0xbc6a2d03	-0.014292958
93	0xbdbd1715	-0.09232918
94	0xbd857329	-0.06516106
95	0x3df8bf66	0.12145881
96	0xbc9abcc0	-0.018888831
97	0x3dc31768	0.09525949
98	0x3b0c398b	0.0021396603
99	0x3ddc2cd7	0.1075074
100	0xbdb904e9	-0.0903414
101	0x3d2d5ed6	0.04232677
102	0x3d477f85	0.048705596
103	0xbd5939a3	-0.053033482
104	0xbd82d113	-0.06387534
105	0xbc8b5b03	-0.017011171
106	0xbc6fe8df	-0.014642923
107	0xbd8e7fd0	-0.06957972
108	0xbdca768a	-0.09885891
109	0x3d307fb7	0.04309055
110	0x3cc5810d	0.024109388
111	0xbda0bca5	-0.07848481
112	0xbd0b1dec	-0.033964083
113	0x3a84412e	0.0010090226
114	0x3d80f157	0.06296032
115	0x3d43f9f9	0.047845814
116	0x3de153db	0.11002322
117	0x3b6c38b7	0.0036044547
118	0x3d528c85	0.05140354
119	0xbdad3d95	-0.084590115
120	0x3d4905d0	0.04907781
121	0xbccda100	-0.025101185
122	0x3def403e	0.11682175
123	0x3d20ef50	0.039290726
124	0xbc3c5ebc	-0.011497196
125	0xbd3c8fcb	-0.04603557
126	0x3ccf68b3	0.02531848
127	0x3d6fd256	0.0585502
128	0x3b4c0055	0.0031128128
129	0xbcc88f2e	-0.024482336
130	0xbe295b9f	-0.16538857
131	0xbd745b59	-0.05965743
132	0xbd8f42e7	-0.069951825
133	0xbde628b2	-0.11238231
134	0xbd96e1eb	-0.07367309
135	0xbe0fac13	-0.14030485
136	0x3d53529b	0.05159245
137	0x3deba176	0.115054056
138	0x3d2a7938	0.04161951
139	0x3d2c105b	0.042007785
140	0x3e36db6a	0.17857137
141	0x3dbd81ab	0.09253248
142	0x3d188d49	0.037244115
143	0x3df50a3d	0.119648434
144	0xbdd1cae8	-0.102437794
145	0x3d810dd7	0.06301468
146	0x3d6b0a1b	0.057382684
147	0xbe08feb8	-0.13378417
148	0xbe291084	-0.16510206
149	0xbbad9988	-0.0052978434
150	0x3d0b1532	0.03395576
151	0x3d02e192	0.031953402
152	0xbd27d806	-0.0409775
153	0x3e018587	0.12648593
154	0xbcd73207	-0.026268972
155	0xbaa1c05c	-0.0012340653
156	0x3b924e6b	0.0044649146
157	0x3d4a0c49	0.049328122
158	0x3c34652d	0.01101045
159	0xbd84d941	-0.064867504
160	0xbdf57734	-0.11985627
161	0x3cb045c1	0.021517636
162	0xbe6ee3d0	-0.23329091
163	0xbdd71d58	-0.10503644
164	0x3d37231a	0.04471121
165	0xbd48f77b	-0.04906414
166	0xbdc800be	-0.097657666
167	0xbd8a0493	-0.06739154
168	0x3dccb50d	0.0999547
169	0x3db5c755	0.0887591
170	0xbdf76e53	-0.120815895
171	0xbd119c15	-0.035549242
172	0x3df8cf8d	0.12148962
173	0xbd0b0a3e	-0.033945315
174	0x3d81a4ec	0.063302845
175	0xbca47630	-0.020075887
176	0x3de74822	0.11293055
177	0xbe1b2701	-0.15151598
178	0xbe383c6f	-0.17991804
179	0x3cb721c4	0.022354968
180	0x3d6952e2	0.05696381
181	0x3e10c5c1	0.14137937
182	0x3c2c5a7a	0.010519618
183	0xbdbe7723	-0.09300067
184	0xbd2130c0	-0.039353132
185	0xbd278ec4	-0.040907636
186	0xbe100bfa	-0.14067069
187	0x3dbe4ab9	0.09291596
188	0xbda8cc7c	-0.08242127
189	0xbde9d4fc	-0.11417577
190	0x3d854e38	0.0650906
191	0x3e000450	0.12501645
192	0xbad9c1e7	-0.0016613574
193	0xbdd244ea	-0.102670506
194	0x3d9859b3	0.07438984
195	0xbd9c4a01	-0.076313026
196	0x3d706d8b	0.05869822
197	0xbd3c56e7	-0.045981314
198	0x3deeb7a4	0.116561204
199	0xbcbfc1a0	-0.023407757
200	0x3e203577	0.15645395
201	0x3ddbac35	0.10726205
202	0x3db451d8	0.08804673
203	0x3cf5e5d8	0.030016825
204	0xbd947d9a	-0.07250519
205	0x3c97d2fd	0.018533224
206	0x3dc6052d	0.09668956
207	0xbdf07008	-0.11740118
208	0x3d1170be	0.03550791
209	0x3bd18e20	0.0063951164
210	0x3dc7906d	0.09744344
211	0xbdb61f5d	-0.08892701
212	0xbda738ee	-0.08165155
213	0x3d09cf3e	0.033644907
214	0xbd371b0d	-0.044703532
215	0xbc3dce77	-0.01158487
216	0x3ce64154	0.028107323
217	0x3dd29229	0.10281784
218	0xbdafe81c	-0.08589193
219	0xbc2c04e8	-0.010499217
220	0xbd4caf6a	-0.049971975
221	0xbcb73d0f	-0.022367982
222	0xbd22a875	-0.039711434
223	0x3dfc449c	0.12317774
224	0x3d9b6b6f	0.07588851
225	0x3d3946fd	0.045233715
226	0xbd0a9056	-0.033829056
227	0x3da1074d	0.07862721
228	0xbd893d8d	-0.06701193
229	0xbddcecb9	-0.10787339
230	0xbdaf0eab	-0.085477196
231	0xbd6a9691	-0.057272498
232	0xbd8dba9a	-0.06920357
233	0x3dc98411	0.09839643
234	0xbbc7741a	-0.0060868384
235	0xbd3e28c5	-0.0464256
236	0xbdb66bf0	-0.08907306
237	0x3de3b2ce	0.11118089
238	0x3e002a9b	0.12516253
239	0xbd92f5f7	-0.0717582
240	0x3dd2997c	0.10283181
241	0x3bb4ff25	0.0055235797
242	0xbd18b06a	-0.037277617
243	0x3d47152d	0.04860418
244	0xbdba3c19	-0.09093494
245	0xbe09a06a	-0.134401
246	0x3b7c50cf	0.0038500314
247	0x3dd4ae78	0.1038484
248	0x3db0eb3f	0.0863862
249	0x3e0ca2ca	0.13733974
250	0x3dc526f5	0.09626571
251	0x3d072226	0.03299155
252	0x3c9249f2	0.017857525
253	0xbd9e9eb1	-0.07745112
254	0x3d81c480	0.063363075
255	0x3df178f6	0.117906496

lstm.weight_hh_l1 f4 [256, 64]
0	0xbcea3bea	-0.028593022
1	0x3dcd8c93	0.10036578
2	0x3dde3307	0.108495764
3	0xbd3f0f00	-0.046645164
4	0x3e4a4db5	0.19756205
5	0x3c31a383	0.010842207
6	0x3cac0d88	0.021002546
7	0xbb3dcca5	-0.002896109
8	0x3ca63f32	0.020293806
9	0xbd8a1911	-0.06743062
10	0x3d752474	0.059849218
11	0x3db4714e	0.08810674
12	0xbcf3226c	-0.0296795
13	0xbe1de7b3	-0.15420417
14	0x3d216519	0.039403055
15	0x3d297cf0	0.041378915
16	0xbdcc5085	-0.099762954
17	0xbd8e8aa5	-0.06960038
18	0xbd9aec17	-0.07564562
19	0xbcf23c63	-0.02956981
20	0x3dab914e	0.08377324
21	0x3caac7a8	0.020847157
22	0x3d3c4e83	0.045973312
23	0xbdae1c23	-0.085014604
24	0x3d9bb4da	0.07602854
25	0x3dcc5a5b	0.099781714
26	0xbcc1f1a1	-0.023674788
27	0x3dc86ddf	0.09786581
28	0x3ca91816	0.020641368
29	0x3e08162f	0.13289712
30	0x3a247ac7	0.0006274399
31	0xbccf4a6b	-0.02530404
32	0x3dd3fef1	0.103513606
33	0xbd45dc2a	-0.048305668
34	0x3d9c5ffd	0.07635496
35	0xbd50bfa8	-0.050964028
36	0xbb036d06	-0.0020053997
37	0xbc28cb10	-0.01030232
38	0xbcab79ce	-0.020932104
39	0x3e130d20	0.14360476
40	0xbe1fc28e	-0.1560156
41	0xbd13793e	-0.036004297
42	0x3cb52f8c	0.022117399
43	0xbd5da218	-0.054109663
44	0x3cfad3c4	0.030618556
45	0x3dc1275c	0.09431335
46	0x3de09652	0.10966171
47	0xbce14d4a	-0.027502675
48	0xbd717c0d	-0.058956195
49	0xbda51175	-0.0805997
50	0xbdade49b	-0.08490869
51	0xbd643304	-0.055712715
52	0x3dd0ab8a	0.101889685
53	0xbdf263b6	-0.118354246
54	0x3d53261f	0.051550027
55	0xbd70a803	-0.05875398
56	0xbbcd944e	-0.006273783
57	0xbde6f0f6	-0.112764284
58	0xbd3797cc	-0.0448225
59	0x3cabf407	0.020990385
60	0xbdb76c92	-0.08956255
61	0xbd5afb6d	-0.053462435
62	0xbd408b54	-0.047007874
63	0x3d86374b	0.06553515
64	0x3d60e5c0	0.054906607
65	0x3bb01a6d	0.005374244
66	0xbd1ecb67	-0.0387682
67	0x3cda853a	0.026674856
68	0xbd8adebf	-0.06780767
69	0xbd065480	-0.03279543
70	0xbc99ce13	-0.018775022
71	0xbdda3c0d	-0.10655985
72	0x3d0ddbbe	0.03463339
73	0x3d956d9f	0.07296299
74	0xbb9ab179	-0.0047208634
75	0x3c9f3e0b	0.019438764
76	0xbceec983	-0.029148823
77	0xbd1749c7	-0.036935594
78	0xbdc4c3da	-0.09607668
79	0x3dbfc089	0.09362895
80	0xbcfe8a09	-0.03107168
81	0xbd24929f	-0.04017889
82	0x3d8674e3	0.06565263
83	0x3dd8bc3b	0.10582777
84	0x3dd57dfd	0.10424421
85	0xbd3cac6c	-0.04606287
86	0xbc119999	-0.008886718
87	0xbceaa6ec	-0.028644048
88	0xbc4ee081	-0.012626768
89	0xbdd7494f	-0.105120294
90	0xbbf71beb	-0.00754117
91	0x3dfc3255	0.123142876
92	0x3c479abc	0.012182888
93	0xbda1391e	-0.07872222
94	0x3cb09bc3	0.021558648
95	0x3d88c0ba	0.06677385
96	0x3c227528	0.009915628
97	0x3ddd58c6	0.10807948
98	0xbddcb96a	-0.107775524
99	0x3e06600a	0.13122573
100	0xbdef0b3a	-0.11672063
101	0x3db0d634	0.08634606
102	0xbd5146f7	-0.051093068
103	0x3d80341e	0.062599406
104	0x3dc8a849	0.09797723
105	0x3d0406a1	0.032232884
106	0x3b9caa3a	0.004781035
107	0x3dfa6d44	0.12227872
108	0x3d780053	0.060547184
109	0x3d30de69	0.043180857
110	0xbcd8f454	-0.026483692
111	0x3da90966	0.08253746
112	0x3dc76dc5	0.09737734
113	0x3cb27f8a	0.021789331
114	0x3d5daaed	0.054118086
115	0x3de6ad56	0.1126353
116	0x3d94422d	0.072391845
117	0xbd49d287	-0.04927304
118	0x3de37387	0.111060195
119	0xbd6649c2	-0.056222685
120	0x3d2a944a	0.041645326
121	0xbdbace18	-0.091213405
122	0x3d908fde	0.070586905
123	0xbcf2acc9	-0.029623406
124	0xbcad72ed	-0.021172965
125	0xbd2b247f	-0.041782852
126	0x3e003fc0	0.12524319
127	0x3d2863ea	0.04111091
128	0xbd52ccd1	-0.05146486
129	0x3d4b1b3c	0.04958652
130	0xbd097384	-0.03355743
131	0x3e0adc8d	0.13560696
132	0x3e50a83a	0.20376673
133	0x3dd3dc72	0.10344781
134	0xbd9e4622	-0.077282205
135	0xbc45a979	-0.012064331
136	0x3b84afac	0.004049262
137	0xbd912839	-0.0708775
138	0x3db694fd	0.08915136
139	0x3d108af1	0.035288755
140	0xbd09e0d5	-0.033661682
141	0x3cbb1384	0.022836454
142	0xbd443744	-0.047904268
143	0x3d705b1b	0.058680635
144	0xbd0ce4dc	-0.034397945
145	0x3d546df0	0.051862657
146	0x3d0ceef9	0.03440759
147	0xbc6a5e6d	-0.014304739
148	0x3d7cc908	0.061715156
149	0xbd97bdf0	-0.074092746
150	0xbdac0f4c	-0.08401355
151	0xbdaafd53	-0.08349099
152	0x3cf59e1a	0.029982615
153	0xbd0c0902	-0.034188278
154	0x3dc72489	0.097237654
155	0x3dc41f5a	0.09576292
156	0xbe0120cf	-0.12610172
157	0x3e0b4a10	0.13602471
158	0xbd878394	-0.066168934
159	0xbcb689b9	-0.022282468
160	0xbe1ac653	-0.15114717
161	0xbc90b069	-0.017662244
162	0x3dc2ae2e	0.095058784
163	0x3cf2a041	0.02961743
164	0xbbf084e5	-0.007340061
165	0x3df77a7d	0.1208391
166	0x3e067bac	0.13133115
167	0xbd3c439e	-0.045962922
168	0xbcf7faca	-0.030270953
169	0x3c3b3945	0.011427228
170	0x3af8c103	0.001897842
171	0x3da420c0	0.08014059
172	0xbd5aa23c	-0.053377375
173	0xbaf47be0	-0.001865264
174	0x3cff1985	0.031140098
175	0xbc7be633	-0.015374708
176	0x3d54e72b	0.05197827
177	0x3cbd1fe9	0.023086505
178	0x3d7a99b5	0.061181743
179	0xbce5bb9b	-0.028043559
180	0x3db3a8ed	0.087724544
181	0x3c62e87b	0.013849373
182	0xbc1c089c	-0.009523537
183	0xbdb902de	-0.0903375
184	0x3de4df08	0.11175352
185	0x3dc0c151	0.09411872
186	0x3dd9d721	0.10636736
187	0xbddfe127	-0.10931616
188	0xbc195159	-0.009357774
189	0x3c464931	0.012102411
190	0x3dd5dbdb	0.10442325
191	0x3dcf64f8	0.1012668
192	0xbc946179	-0.018112885
193	0x3df431e1	0.11923576
194	0x3de11a25	0.10991315
195	0xbda9ca61	-0.08290554
196	0xbd2371d1	-0.039903466
197	0x3d9dafe8	0.07699567
198	0xbce10edd	-0.027472908
199	0xbdca1dc9	-0.09868962
200	0x3cb53f6e	0.022124972
201	0x3e016af0	0.1263845
202	0x3d52824b	0.05139379
203	0xbdd447ce	-0.10365258
204	0x3b8b86af	0.004257999
205	0x3d6dda55	0.058069546
206	0xbc534a1e	-0.012896089
207	0xbd366662	-0.044531234
208	0xbde8ea7d	-0.1137285
209	0x3cac3244	0.021020062
210	0xbd951d8d	-0.07281027
211	0xbdb4df8c	-0.08831701
212	0x3bae8862	0.0053263167
213	0x3d1449c4	0.03620316
214	0xbdb2038c	-0.08692083
215	0xbd923363	-0.071387075
216	0x3cb72760	0.022357643
217	0xbde60562	-0.112314954
218	0xbdfaa55b	-0.1223857
219	0xbdba31b4	-0.09091511
220	0xbde53382	-0.11191465
221	0x3dd20c3e	0.10256241
222	0x3e00df0d	0.12585087
223	0x3d3dde64	0.046354666
224	0x3d874b19	0.066061206
225	0x3dbe8d4c	0.09304294
226	0x3d6873c4	0.056751028
227	0xbd37d24a	-0.04487828
228	0xbdde77a8	-0.10862666
229	0xbba25506	-0.0049539832
230	0xbd512650	-0.05106193
231	0x3d6c740b	0.057727855
232	0x3c86d93d	0.01646101
233	0xbd8695c2	-0.06571533
234	0xbd5d6f3c	-0.05406116
235	0x3c9c5d75	0.019087533
236	0xbd66b2ae	-0.056322746
237	0x3befbfde	0.0073165735
238	0xbddc80b8	-0.10766739
239	0xbdae70d3	-0.08517613
240	0x3d2d26d3	0.042273354
241	0x3c2dabfe	0.010600088
242	0xbce96b63	-0.028493589
243	0x3d3cc232	0.046083637
244	0xbd1122e3	-0.03543366
245	0x3ded1709	0.11576659
246	0xbdd7af03	-0.10531428
247	0x3d52709e	0.05137693
248	0xbc00b6c5	-0.007856076
249	0x3da3c73c	0.07996985
250	0xbde2645d	-0.11054299
251	0x3cc8ee5a	0.024527717
252	0xbd068f6b	-0.032851618
253	0xbd548b75	-0.05189081
254	0x3d014186	0.03155663
255	0x3b74c25f	0.00373473

lstm.bias_ih_l1 f4 [256]
0	0xbdbdcdcf	-0.092677705
1	0xbd5a1912	-0.053246565
2	0x3d5bc2f1	0.053652707
3	0xbcd7d3de	-0.026346143
4	0xbd8c2f3c	-0.06844947
5	0xbc13d392	-0.00902261
6	0xbe018e1b	-0.12651865
7	0x3da9a44c	0.0828329
8	0x3d09be52	0.03362877
9	0xbdce6598	-0.10077971
10	0xbd2d78e6	-0.042351626
11	0x3c09f5e9	0.008420446
12	0x3d0bc016	0.034118734
13	0xbd66044a	-0.056156434
14	0xbd791329	-0.06080929
15	0x3d97d265	0.074131764
16	0xbcab8925	-0.020939419
17	0x3ab573d9	0.0013843729
18	0x3dcb7fd4	0.09936491
19	0xbc90a203	-0.017655378
20	0x3da88f05	0.08230404
21	0xbde308fc	-0.11085698
22	0xbd8a93d5	-0.06766478
23	0xbd8b2b9d	-0.06795428
24	0xbdaa92b6	-0.08328764
25	0x3d36cd2e	0.04462927
26	0xbc80e64e	-0.015734818
27	0xbcd6ce03	-0.02622128
28	0x3d1b2c5f	0.037884112
29	0x3deb09d3	0.11476483
30	0xbde711fb	-0.112827264
31	0x3d145176	0.0362105
32	0x3d93126a	0.071812466
33	0x3d8f0687	0.06983667
34	0xbd1d0bcd	-0.038341332
35	0xbe08e6ca	-0.13369289
36	0xbdcf90be	-0.10135029
37	0xbd99aaa3	-0.075032495
38	0x3daaf561	0.083475836
39	0x3db97811	0.09056104
40	0xbe081686	-0.13289842
41	0xbe060bd4	-0.1309045
42	0x3db75f18	0.089536846
43	0x3d0c42c8	0.034243375
44	0x3dc52c1e	0.09627555
45	0x3cf9eeec	0.030509435
46	0xbda0b291	-0.07846559
47	0x3d81932a	0.063268974
48	0x3c19647a	0.009362334
49	0xbd936bfd	-0.071983315
50	0x3d0943e2	0.033512004
51	0xbdb2ecbf	-0.08736562
52	0x3ce52e07	0.02797605
53	0xbdb1ec54	-0.08687654
54	0xbdc08c85	-0.09401802
55	0xbcfa879a	-0.030582238
56	0x3c0a00ec	0.008423071
57	0x3d72dfbe	0.05929541
58	0xbdd365ac	-0.10322127
59	0xbd45ed52	-0.04832203
60	0xbd45515e	-0.0481733
61	0x3e0000d2	0.12500313
62	0x3de9dbf4	0.11418906
63	0xbd9df5e5	-0.07712916
64	0x3ca55cf2	0.020185921
65	0xbde23c37	-0.11046641
66	0xbdf1b362	-0.11801793
67	0x3d448ff5	0.04798885
68	0x3d40d801	0.047080997
69	0xbdeef091	-0.11666978
70	0x3cf22c5e	0.029562172
71	0xbdb1768b	-0.086651884
72	0x3cbe3e62	0.023223106
73	0x3df7df17	0.12103098
74	0x3cf5ec1b	0.03001981
75	0xbdf520d0	-0.11969149
76	0xbd5c1eaf	-0.0537402
77	0x3cbce090	0.023056298
78	0xbd09d051	-0.03364593
79	0xbda3bc57	-0.07994907
80	0xbdce2e25	-0.10067395
81	0xbc91e5fd	-0.017809862
82	0x3e0800fc	0.13281626
83	0x3c3aea00	0.011408329
84	0xbdd7fda4	-0.10546425
85	0xbd97017a	-0.073733285
86	0x3da0c29d	0.078496195
87	0xbdd6a4b7	-0.104806356
88	0x3cb8c585	0.022555122
89	0x3d47478b	0.048652213
90	0xbd26b76d	-0.040702272
91	0x3dab5e96	0.0836765
92	0x3d7fe734	0.06247635
93	0x3d932def	0.071864955
94	0xbdeb393c	-0.11485526
95	0xbda5800b	-0.08081063
96	0x3d6f43bc	0.058414206
97	0xbca4bb7a	-0.020108927
98	0x3d5f35fb	0.05449484
99	0xbd3ddb07	-0.04635146
100	0xbcb11918	-0.021618411
101	0xbda8af1e	-0.08236526
102	0x3cb95f60	0.022628486
103	0xbd458da6	-0.04823079
104	0xbd506626	-0.050878666
105	0x3d49f57b	0.049306374
106	0x3dbf8b1e	0.093527064
107	0xbcaec93c	-0.02133619
108	0x3d48391e	0.048882596
109	0x3d3a0f94	0.045425013
110	0xbdc3a018	-0.0955202
111	0xbdbc22c6	-0.0918632
112	0xbd15c38f	-0.036563452
113	0xbe014873	-0.12625293
114	0x3dbcb4ea	0.09214194
115	0x3d2dd581	0.04243994
116	0xbdf4078c	-0.11915502
117	0x3dd5020c	0.10400781
118	0xbd7db1c2	-0.0619371
119	0xbb7352f6	-0.0037128306
120	0xbd0c7476	-0.034290753
121	0x3d72022e	0.05908411
122	0xbd5a8cd9	-0.05335698
123	0xbcffaf7d	-0.031211609
124	0xbdb8433c	-0.08997199
125	0xbd9e4dba	-0.07729669
126	0x3decdd5b	0.11565658
127	0xbb40eae0	-0.0029436871
128	0xbdb1afbd	-0.086760975
129	0xbd450fdd	-0.04811083
130	0xbcebde54	-0.028792538
131	0x3dfd87df	0.12379431
132	0x3c9b90d6	0.018989962
133	0xbd4bf1e3	-0.049791228
134	0xbd6a9e43	-0.057279836
135	0x3dbe8ee7	0.093046
136	0x3cc3356e	0.023829188
137	0xbcd734fb	-0.02627038
138	0x3c5b49bf	0.013384282
139	0x3d6bac43	0.05753733
140	0xbdaefeec	-0.08544716
141	0xbdca6a8d	-0.09883604
142	0x3d499942	0.049218424
143	0x3d81678f	0.0631858
144	0xbd070dd2	-0.032972164
145	0x3d81ff84	0.06347564
146	0xbd943834	-0.072372824
147	0xbdb1da7e	-0.08684252
148	0xbd855e17	-0.06512087
149	0xbdd91015	-0.105987705
150	0x3defe4d4	0.117135674
151	0x3ddaed87	0.10689836
152	0xbd706bc9	-0.058696542
153	0x3d38b05c	0.045090064
154	0xbd11c746	-0.035590433
155	0x3e02a8e9	0.12759747
156	0xbda7051b	-0.08155271
157	0x3df6c509	0.120493
158	0x3d95d173	0.0731534
159	0x3cd2b7d9	0.025722431
160	0xbd3b4b8f	-0.045726355
161	0x3db33eac	0.08752188
162	0x3d4dae6a	0.050215162
163	0x3db31a4a	0.087452486
164	0xbdc3cdfe	-0.09560774
165	0xbdcae36b	-0.09906658
166	0xbcecf726	-0.028926443
167	0xbc602ee1	-0.013683052
168	0xbdd85cbd	-0.105645634
169	0xbcf92ead	-0.030417765
170	0x3c0e5bcb	0.008688877
171	0x3dc8724b	0.09787425
172	0x3dee5139	0.11636586
173	0x3d290eda	0.04127393
174	0x3dca7d70	0.098872066
175	0xbde5571b	-0.11198255
176	0xbd8b69c4	-0.068072826
177	0xbd86a26b	-0.065739475
178	0xbd99cf1a	-0.075102046
179	0xbd988d64	-0.07448843
180	0x3bd41884	0.006472649
181	0xbb768d54	-0.003762086
182	0xbca80426	-0.02050979
183	0xbd3d08b5	-0.04615088
184	0x3dc1b4f1	0.0945834
185	0xbd689052	-0.05677826
186	0x3d623f45	0.05523612
187	0xbdddbb11	-0.10826696
188	0x3d8a96bb	0.06767031
189	0x3d1daf4d	0.038497258
190	0xbc40a3b7	-0.011757783
191	0x39a6c011	0.00031805088
192	0x3d5f5e7c	0.054533467
193	0x3d93a88f	0.072098844
194	0x3dddc59e	0.10828708
195	0xbdfc1e83	-0.12310507
196	0x3ddb818f	0.10718071
197	0x3d2f2c49	0.042766843
198	0x3c94f013	0.018180883
199	0x3c69a65a	0.014260853
200	0x3d3fe4ca	0.04684905
201	0xbcc31530	-0.023813814
202	0x3d85f386	0.06540589
203	0xbdc43e73	-0.09582224
204	0xbd9577d1	-0.07298244
205	0x3d271bb6	0.04079791
206	0xbdec0ebc	-0.11526248
207	0x3dd68189	0.104739256
208	0x3c9abe07	0.01888944
209	0xbd408ec5	-0.047011156
210	0xbdb9167f	-0.09037494
211	0x3cc52d82	0.024069551
212	0x3de5c61b	0.11219426
213	0xbdce246a	-0.10065539
214	0xbc6619de	-0.014044253
215	0x3dfaa97c	0.12239358
216	0x3d862d9a	0.065516666
217	0x3de4d6b6	0.11173765
218	0xbd719b8f	-0.058986243
219	0x3c320bfe	0.010867117
220	0x3d778e75	0.060438592
221	0xbd3329d3	-0.04374106
222	0xbdc42ca3	-0.09578826
223	0x3dcfdfd0	0.10150111
224	0xbdfda94b	-0.12385806
225	0xbd9822f2	-0.0742854
226	0xbcd99f54	-0.026565231
227	0x3dccaf39	0.099943586
228	0xbce79be9	-0.028272586
229	0xbde1bb87	-0.11022096
230	0xba6172cb	-0.00086001743
231	0xbdc81a02	-0.097705856
232	0x3d7a7d8f	0.0611549
233	0xbdebc2b8	-0.11511749
234	0x3d623044	0.05522181
235	0x3ddadee0	0.10687041
236	0x3da11656	0.07865588
237	0x39495253	0.00019199522
238	0x3d1486f8	0.03626153
239	0xbdde6325	-0.10858754
240	0x3d0228b5	0.031777103
241	0x3c1c6260	0.009544939
242	0xbdde0664	-0.10841063
243	0xbdc73400	-0.09726715
244	0xbd996889	-0.074906416
245	0xbdbc39c2	-0.09190704
246	0x3dcd3789	0.10020358
247	0x3dcd15e3	0.1001394
248	0x3d8489a1	0.06471563
249	0x3dccb302	0.099950805
250	0xbc4b0d78	-0.012393348
251	0xbdec4169	-0.115359135
252	0x3cddd2bd	0.027078027
253	0x3cbc31b6	0.022972923
254	0xbd756dc4	-0.059919134
255	0x3dad18a0	0.084519625
