older ver/nvda_lstm_v8_multistock/best_pretrain.pth (torch, 384951 bytes, 15 tensors)

lstm.weight_ih_l0 f4 [256, 36]
0.20136091 0.1712229 0.052838404 0.15229674 0.052695267 0.028343666 0.016886191 0.12254997
0.23907883 -0.03823903 0.06509713 -0.019723471 0.3332001 0.09463201 0.17808446 0.0123547
0.16295663 0.11164454 0.00037955382 0.32476372 0.021968976 0.046302035 0.05725401 0.15812159
0.19690101 -0.030619578 0.030117497 -0.016441306 0.042130157 -0.09789162 0.3011445 -0.12116493
-0.08627774 0.13675222 0.023039265 0.26340246 0.08117176 0.09780245 -0.026511181 -0.06283944
0.013106999 -0.0639139 0.019290073 0.10171303 0.026111469 0.008375159 0.11368859 0.09435556
0.1118551 -0.08453097 -0.13236423 -0.11681812 -0.06137564 0.06564817 0.10323292 0.12322673
-0.07796171 -0.008572503 0.058404844 -0.11066161 0.0818041 -0.17111947 0.029003855 -0.06234002
-0.20442304 -0.019109676 0.12635292 0.07636131 -0.073072165 0.021252878 0.09384533 -0.1470096
0.18123257 -0.09631692 -0.0579121 -0.08691944 -0.06090848 0.077529386 -0.015175794 0.1396068
-0.049870364 0.23541386 0.06872628 -0.03603129 0.21230139 0.009447236 0.12686855 -0.046035532
-0.027843632 0.008307854 0.15592101 0.18954895 0.009234567 0.10256397 -0.031257756 -0.0067273895
0.39581662 0.008632156 0.015566121 -0.09666764 -0.18938395 0.026432473 0.12687665 -0.059131235
-0.09708325 0.06751175 -0.06900437 0.053955764 -0.068124555 -0.30278316 0.11745248 0.073079914
-0.13444631 -0.09268272 -0.06626579 -0.059622034 0.018538792 -0.15425807 -0.024291817 -0.18630962
0.032684904 -0.035998683 -0.005706822 -0.06365427 -0.11239951 -0.10129637 -0.0600007 -0.042930104
0.040191717 0.012174367 0.09710835 0.04066048 -0.10001751 0.1272328 -0.07567595 -0.00014619285
-0.16360812 -0.06453417 -0.03181291 -0.057486206 -0.021121964 -0.20910186 0.10310868 -0.015030051
0.1096811 0.022508835 0.15286712 0.23285785 0.19696963 -0.03116156 0.07918751 0.0058636772
0.06687451 0.0031587712 0.21894819 -0.11265734 0.26360843 0.19069783 0.20393194 0.016380038
0.1592826 0.1295203 0.07722147 0.15125738 0.20866673 0.113274224 0.036486637 0.167818
0.25707608 0.017383946 0.017216569 0.12464646 0.09656829 0.040232178 0.0932595 -0.084087305
-0.015499146 0.23827367 0.25296906 -0.10108889 -0.0016706015 -0.07944665 0.0084959315 -0.14236419
0.0547479 0.07255202 0.20088556 -0.023450088 0.05843115 -0.23860037 -0.18646643 -0.121483274
0.05078234 0.11298056 0.079959676 -0.05175857 0.0032875712 -0.022145456 0.020657824 -0.0045672534
-0.1126396 -0.1406137 0.09889307 0.029929508 0.08095721 -0.09558513 -0.10497012 -0.20610127
0.009946813 -0.019943435 0.076437965 0.12703025 -0.10466435 -0.23234153 -0.06497024 0.18927078
0.008515603 -0.01015315 0.052031513 -0.06551125 -0.08943986 0.06491579 -0.091349915 -0.042253617
-0.15118222 0.15384594 0.13253412 0.032923628 -0.08152742 -0.088297844 -0.0692875 0.086110204
0.05248751 0.13439469 0.010185099 0.026136562 0.049654767 -0.10283881 -0.11960741 -0.1189949
0.05262976 -0.07504625 -0.008624607 -0.088920206 -0.037831523 -0.103845365 -0.027548265 0.044344086
-0.01774416 0.050062597 -0.04332284 -0.07128285 -0.016637854 -0.04066597 -0.031093279 -0.15504651
00000000: 8e31 4e3e 0e55 2f3e 156d 583d adf3 1b3e
00000010: fed6 573d fa30 e83c e954 8a3c 7bfb fa3d
00000020: 15d1 743e 87a0 1cbd a551 853d 1e93 a1bc
00000030: 3499 aa3e 6dce c13d c65b 363e 5e6b 4a3c
00000040: 1ade 263e e5a5 e43d dafe c639 6e47 a63e
00000050: 48f8 b33c 34a7 3d3d 2e83 6a3d a0ea 213e
00000060: 6ba0 493e e9d5 fabc f8b8 f63c ebaf 86bc
00000070: ac90 2c3d 677b c8bd 9d2f 9a3e 5225 f8bd
00000080: 62b2 b0bd c608 0c3e d7bc bc3c b0dc 863e
00000090: 613d a63d a74c c83d fa2d d9bc f7b1 80bd
000000a0: bdbe 563c 4ae5 82bd 3706 9e3c ec4e d03d
000000b0: b8e7 d53c f737 093c 90d5 e83d 7d3d c13d
000000c0: 4914 e53d 931e adbd 7d8a 07be 573e efbd
000000d0: 0665 7bbd 8c72 863d c86b d33d 4c5e fc3d
000000e0: 64aa 9fbd af73 0cbc eb39 6f3d 8ea2 e2bd
000000f0: e888 a73d f139 2fbe 7e99 ed3c 4058 7fbd
00000100: 4654 51be e58b 9cbc a962 013e 5263 9c3d
00000110: dca6 95bd 841a ae3c fb31 c03d af89 16be
00000120: 0895 393e ce41 c5bd 3d35 6dbd d202 b2bd
00000130: 2c7b 79bd bac7 9e3d e5a3 78bc 16f5 0e3e
00000140: de44 4cbd 5510 713e 5dc0 8c3d 8c95 13bd
00000150: 8965 593e 94c8 1a3c d4e9 013e c18f 3cbd
00000160: 5418 e4bc aa1d 083c c2a9 1f3e 1f19 423e
00000170: 954c 173c 0f0d d23d 2208 00bd 6f71 dcbb
00000180: 7aa8 ca3e e36d 0d3c 0b09 7f3c aff9 c5bd
00000190: deed 41be ea88 d83c f4eb 013e 9833 72bd
000001a0: 95d3 c6bd 9a43 8a3d 2a52 8dbd b800 5d3d
000001b0: e384 8bbd 6506 9bbe ed8a f03d ecaa 953d
000001c0: 4bac 09be 70d0 bdbd 5cb6 87bd 3c36 74bd
000001d0: aade 973c d4f5 1dbe a2ff c6bc f3c7 3ebe
000001e0: 9be0 053d 5b73 13bd 4b00 bbbb 2b5d 82bd
000001f0: b731 e6bd 7974 cfbd 4bc3 75bd 7ad7 2fbd
00000200: 12a0 243d ff76 473c bee0 c63d 9a8b 263d
00000210: fbd5 ccbd 5149 023e fefb 9abd 584b 19b9
00000220: e388 27be 7e2a 84bd 414e 02bd a876 6bbd
00000230: f807 adbc cc1e 56be a52a d33d 9a40 76bc
00000240: 7ca0 e03d 7364 b83c 3389 1c3e 4a72 6e3e
00000250: 68b2 493e 8746 ffbc 102d a23d 1724 c03b
00000260: 81f5 883d 6303 4f3b f433 603e e4b8 e6bd
00000270: aff7 863e 4b46 433e 89d3 503e 6e2f 863c
00000280: fa1a 233e f8a0 043e 4a26 9e3d 37e3 1a3e
00000290: bbac 553e 51fc e73d 0373 153d 7bd8 2b3e
000002a0: 7a9f 833e c768 8e3c c309 8d3c a546 ff3d
000002b0: 98c5 c53d 7fca 243d d6fe be3d f735 acbd
000002c0: 21f0 7dbc 03fe 733e 2985 813e b107 cfbd
000002d0: 16f8 daba edb4 a2bd 8532 0b3c ebc7 11be
000002e0: 563f 603d 2796 943d f2b4 4d3e 661a c0bc
000002f0: 8055 6f3d a853 74be 0ef1 3ebe 39cc f8bd
00000300: 2501 503d 5a62 e73d e6c1 a33d cb00 54bd
00000310: 4b74 573b 636a b5bc 993a a93c e6a8 95bb
00000320: 97af e6bd 0afd 0fbe 7388 ca3d ba2e f53c
00000330: e5cc a53d 23c2 c3bd 93fa d6bd 360c 53be
00000340: f5f7 223c 6a60 a3bc 828b 9c3d 3814 023e
00000350: 435a d6bd f0ea 6dbe 1e0f 85bd 33d0 413e
00000360: 0785 0b3c 6659 26bc ff1e 553d c32a 86bd
00000370: 3f2c b7bd 92f2 843d aa15 bbbd 2112 2dbd
00000380: 83cf 1abe ca89 1d3e 06b7 073e edda 063d
00000390: d9f7 a6bd 80d5 b4bd 9be6 8dbd 8c5a b03d
000003a0: 25fd 563d c39e 093e 67df 263c 581c d63c
000003b0: cc62 4b3d 279d d2bd bbf4 f4bd 99b3 f3bd
000003c0: 4e92 573d d9b1 99bd 394e 0dbc cc1b b6bd
000003d0: 3af5 1abd e1ac d4bd e6ac e1bc 25a2 353d
000003e0: 335c 91bc 700e 4d3d 4a73 31bd befc 91bd
000003f0: 1c4c 88bc 5c91 26bd 55b7 febc 83c4 1ebe

lstm.weight_hh_l0 f4 [256, 64]
0.12454495 -0.224035 0.06648045 0.027090752 -0.019259457 0.25552675 0.1319658 -0.08563654
-0.091298684 0.0030564663 -0.028926412 0.16989255 0.06255053 0.05352806 0.27633893 0.058184285
-0.3939843 -0.0024514338 -0.20592824 -0.06465917 -0.056253687 -0.06782389 0.08506903 0.03664236
-0.10208392 0.010729835 -0.04972396 -0.1863013 -0.23769692 -0.00062255556 0.04043004 0.24106228
0.069388345 -0.22876689 0.18356694 -0.12153176 0.09938812 0.040365558 -0.32249814 -0.14298962
-0.14960526 -0.1934966 -0.0020679827 -0.0051889443 -0.032118447 -0.10630707 0.046182018 0.052002747
-0.086468875 -0.10472515 0.06028719 -0.055655926 -0.24753818 -0.32207358 0.11898787 -0.045862243
0.01553145 0.05897226 0.032040823 -0.08788921 -0.10123663 -0.3818047 0.11574389 0.020053927
-0.050536796 -0.22708777 0.08008414 -0.043629307 -0.18612565 0.14162791 0.05629707 0.13394919
0.07914493 -0.104378685 0.17746349 0.114279196 -0.033696353 0.0830575 -0.15908124 0.03928222
-0.07316722 -0.19123887 0.02222412 0.055940542 -0.009165406 -0.117016576 0.08342267 0.098531604
0.20273402 0.05509777 0.06290901 -0.0685734 -0.20971668 -0.04191001 0.016983604 -0.17262475
-0.06467598 -0.07240973 -0.07327776 0.06430384 0.033715717 0.042353854 -0.015363115 0.29442722
0.29722598 -0.03136348 0.003726242 -0.23826896 0.26309973 -0.08912342 0.24413945 -0.030977184
-0.08296136 -0.042545274 -0.20188223 -0.18290475 0.33788958 0.12247573 0.2822798 -0.16514532
0.20226958 0.15845728 0.072973765 -0.27135944 0.1341506 0.030865392 0.17744514 0.16313612
-0.073564894 -0.06980816 0.091476016 0.109284766 -0.17220727 0.081207365 0.13014936 -0.03900083
-0.17713392 -0.07628722 -0.14544567 0.031894792 -0.0068950886 0.047638487 0.212241 0.031366736
-0.27258533 0.060620144 0.172271 -0.1822689 -0.15138908 -0.061697815 0.010829547 0.08342033
0.015219333 0.021885337 -0.09040576 -0.15801027 -0.042142082 0.0772208 0.13618581 0.04097655
-0.090698 -0.052948184 0.12123655 -0.015287486 0.060767416 -0.12900844 -0.012908798 -0.08227463
-0.10523852 0.087724715 -0.024814148 0.16172554 0.085523374 -0.065718904 0.047873914 0.11142118
-0.09814893 -0.17725924 0.04288968 0.065802135 0.030366179 -0.0030863227 0.106761746 -0.06728264
0.18625069 -0.031165127 0.24122907 -0.044186037 0.01212399 -0.07852175 0.23508057 0.24323893
-0.03511491 0.23748598 -0.16366613 -0.20676553 0.3633847 -0.06721812 -0.1150455 -0.22437
0.04540783 -0.105768956 -0.14172022 -0.0027694674 -0.00038931798 -0.2272864 -0.25790828 0.08143483
-0.099609844 0.13732727 -0.046521787 -0.08516731 0.09744631 -0.15945403 -0.12585784 -0.11777284
-0.079372905 0.3338531 0.056768265 0.0136405425 -0.056608602 -0.008437421 -0.015828641 0.055716764
-0.025876142 -0.06426927 0.022325072 -0.110114224 0.009355002 0.031264734 0.056264594 0.100491256
-0.21597748 0.1577239 -0.17358282 0.21389133 -0.07734903 -0.045509152 -0.19988932 -0.09381837
-0.10370106 0.069814615 0.22800967 0.20595463 0.071706034 0.04046685 0.06586128 0.057302978
-0.030136649 -0.081302896 0.04231607 -0.06560317 -0.040836222 0.2278328 0.10007026 -0.14389567
00000000: 6c11 ff3d 6e69 65be e726 883d 6ded dd3c
00000010: 02c6 9dbc 67d4 823e 0b22 073e 3662 afbd
00000020: cefa babd ff4e 483b 15f7 ecbc 50f8 2d3e
00000030: 7e1a 803d 3d40 5b3d 4c7c 8d3e a552 6e3d
00000040: 4fb8 c9be 3ca8 20bb dade 52be 076c 84bd
00000050: 446a 66bd 40e7 8abd ac38 ae3d 4d16 163d
00000060: 6011 d1bd 31cc 2f3c 5aab 4bbd c5c5 3ebe
00000070: d266 73be ff32 23ba f899 253d 08d9 763e
00000080: 7a1b 8e3d de41 6abe f9f8 3b3e a5e5 f8bd
00000090: 008c cb3d 5b56 253d 7a1e a5be df6b 12be
000000a0: 1f32 19be f923 46be fe86 07bb 0508 aabb
000000b0: a28e 03bd 85b7 d9bd 5b29 3d3d d500 553d
000000c0: 9816 b1bd 247a d6bd b3ef 763d 78f7 63bd
000000d0: a67a 7dbe d4e6 a4be eaaf f33d 0cda 3bbd
000000e0: 9f77 7e3c e68c 713d 3d3d 033d 42ff b3bd
000000f0: 2655 cfbd e87b c3be 220b ed3d 2248 a43c
00000100: acff 4ebd b289 68be 2703 a43d a5b4 32bd
00000110: b997 3ebe e806 113e c297 663d fa29 093e
00000120: bd16 a23d 7ec4 d5bd fdb8 353e 360b ea3d
00000130: 3005 0abd 0d1a aa3d 31e6 22be 65e6 203d
00000140: b2d8 95bd 1fd4 43be 5c0f b63c e921 653d
00000150: 802a 16bc 63a6 efbd 81d9 aa3d f0ca c93d
00000160: 8299 4f3e 33ae 613d 70d6 803d 3670 8cbd
00000170: f8bf 56be d5a9 2bbd 3321 8b3c 8bc4 30be
00000180: d774 84bd 8d4b 94bd a612 96bd bbb1 833d
00000190: 7e19 0a3d 3c7b 2d3d 93b5 7bbc 2abf 963e
000001a0: 012e 983e fe76 00bd f833 743b c7fc 73be
000001b0: 02b5 863e 5786 b6bd b1ff 793e ddc3 fdbc
000001c0: a5e7 a9bd f443 2ebd 37ba 4ebe 624b 3bbe
000001d0: ddff ac3e 8ed4 fa3d fa86 903e db1b 29be
000001e0: c21f 4f3e a042 223e 4573 953d a0ef 8abe
000001f0: c65e 093e 6bd9 fc3c 2eb4 353e 280d 273e
00000200: 31a9 96bd 95f7 8ebd c757 bb3d b1d0 df3d
00000210: 1a57 30be 0c50 a63d e045 053e 56bf 1fbd
00000220: 9862 35be 793c 9cbd b6ef 14be 1da4 023d
00000230: 32f0 e1bb 9320 433d b455 593e 687a 003d
00000240: 4e90 8bbe d44c 783d cf67 303e b3a4 3abe
00000250: bd05 1bbe d9b6 7cbd 6a6e 313c 47d8 aa3d
00000260: 825a 793c e148 b33c a826 b9bd 72cd 21be
00000270: 2d9d 2cbd f025 9e3d 4b74 0b3e 07d7 273d
00000280: dfbf b9bd 32e0 58bd de4a f83d 5d78 7abc
00000290: 41e7 783d ca1a 04be 6c7f 53bc 9a7f a8bd
000002a0: 4b87 d7bd 04a9 b33d 0a47 cbbc 619b 253e
000002b0: e126 af3d a297 86bd 7017 443d ca30 e43d
000002c0: 4e02 c9bd 7283 35be 17ad 2f3d 45c3 863d
000002d0: 7ec2 f83c e743 4abb e7a5 da3d 7bcb 89bd
000002e0: 80b8 3e3e 024e ffbc c104 773e 6bfc 34bd
000002f0: b3a3 463c 03d0 a0bd f6b8 703e a013 793e
00000300: a7d4 0fbd 862f 733e 1898 27be 58ba 53be
00000310: 8f0d ba3e a7a9 89bd fa9c ebbd 40c1 65be
00000320: 90fd 393d 659d d8bd 1b1f 11be f47f 35bb
00000330: 601d ccb9 c4bd 68be 8e0c 84be 4ec7 a63d
00000340: 3f00 ccbd 859f 0c3e a18d 3ebd 336c aebd
00000350: ee91 c73d eb47 23be e1e0 00be e332 f1bd
00000360: 438e a2bd cbee aa3e d785 683d 957c 5f3c
00000370: 6cde 67bd 1c3d 0abc 11ab 81bc 4337 643d
00000380: 34fa d3bc 9b9f 83bd 12e3 b63c 9183 e1bd
00000390: b945 193c 730f 003d b475 663d 5cce cd3d
000003a0: 3329 5dbe 6082 213e b2bf 31be 5406 5b3e
000003b0: 2b69 9ebd ce67 3abd c9af 4cbe d823 c0bd
000003c0: 3961 d4bd f7fa 8e3d 5e7b 693e c5e5 523e
000003d0: 9dda 923d 91c0 253d 47e2 863d 87b6 6a3d
000003e0: 22e1 f6bc 2282 a6bd 9e53 2d3d f45a 86bd
000003f0: e243 27bd 004d 693e a3f1 cc3d 6359 13be

lstm.bias_ih_l0 f4 [256]
-0.026633598 -0.09123598 0.16054834 -0.08864178 0.026326396 -0.011938195 0.016616445 0.098568864
-0.07633522 0.054151516 -0.046695564 0.069406115 0.08739455 -0.0042673964 0.13869731 0.07516001
-0.05441649 -0.08353774 0.08361409 -0.10425064 0.07418308 0.0073234895 0.06652017 0.11587168
-0.025822489 0.07567403 -0.03933198 0.10943111 0.07296416 0.14663658 0.113924526 0.08894976
0.12157859 0.055303857 -0.036525078 -0.06384683 -0.006830165 -0.055857014 -0.027496237 -0.104081936
0.055838156 -0.0191017 -0.104841806 0.079021916 -0.080818675 0.13389696 0.05228517 0.07249243
0.13663371 0.12510876 -0.10371258 0.031142784 0.079612896 -0.04390835 -0.083842 -0.03701833
-0.029544458 0.12990409 0.023900397 0.11158807 -0.07092052 0.017869974 0.041083675 0.16093343
0.090923324 -0.12810475 0.14119917 0.01786062 0.17726623 0.034759916 -0.09160198 0.041412566
-0.04772342 -0.028102936 0.04346828 0.051689588 -0.024518477 0.0029476178 0.023618337 0.09299318
0.07740243 -0.027270148 -0.024983251 -0.031628665 0.0141774 0.019856302 -0.017248392 0.012796607
-0.065344095 0.15273546 -0.042980537 0.1295719 -0.028962156 0.005086858 -0.001995642 -5.7040335e-05
0.02210096 0.112330675 -0.03733069 0.0900859 0.067339495 -0.009320765 -0.04960366 0.043047983
0.024283314 0.057491448 -0.104524046 0.08549444 0.05147526 0.1559094 -0.036418043 0.101325534
0.11631005 0.056264743 0.09155136 -0.10540248 0.09266312 -0.008418871 0.10648976 0.12668538
0.10057232 0.094999984 0.09926884 0.1570971 -0.093062654 0.22346215 0.039862186 0.13531493
0.0043755164 -0.020568755 -0.041462567 -0.01492973 -0.10374297 0.07448371 0.0370937 -0.125733
0.04868267 -0.103569984 -0.045576386 0.094216794 -0.015227237 0.04597506 0.07376191 -0.0043491647
-0.1017711 0.07060772 -0.034913294 -0.073698536 -0.055352814 0.06727889 -0.022674292 0.050753396
0.0052830796 -0.07648001 -0.007231867 0.09143091 0.1254 -0.0013623082 -0.0004548208 0.0792851
-0.04323873 -0.042953372 0.07665778 0.06177089 -0.022758517 -0.0038629866 -0.09264424 0.003836975
-0.086187996 -0.02046662 0.030248586 0.043637756 0.115012996 0.006008707 0.0052730804 -0.053635668
-0.049629103 -0.13243102 0.036539085 -0.0015324369 0.08455427 0.061335254 -0.018602198 -0.045631677
0.08685741 -0.117850386 -0.00045431196 0.06348507 -0.11746046 0.10071172 -0.06409671 0.10582477
0.080510676 -0.10456457 0.11849086 -0.06140649 0.017080326 -0.027572526 0.08864559 0.07132682
0.11475904 -0.013404325 0.029299755 -0.02409897 0.1403792 0.030659907 -0.048761427 0.017208572
-0.07581204 0.033627637 0.052660108 -0.053190544 -0.062940195 -0.017669886 -0.058082856 0.17797183
-0.010827441 0.04732311 0.12121378 -0.010326822 0.039676677 -0.06311255 0.08670223 0.112032466
-0.10637044 0.1741413 0.1503113 0.05110976 0.039125092 -0.020768566 0.10811578 0.089827105
-0.050718226 -0.024151057 0.11677555 -0.016128212 -0.009960913 -0.0344649 0.08844745 -0.012894181
0.12592761 0.01131266 0.059891324 -0.03924163 -0.06092476 -0.06154831 0.025848683 0.10339098
0.110673405 0.19982983 0.12850836 0.065478265 0.063226156 -0.04772921 0.16912557 -0.10850738
00000000: b42e dabc eed9 babd c966 243e d289 b5bd
00000010: 74aa d73c 6b98 43bc 361f 883c 79de c93d
00000020: a455 9cbd fbcd 5d3d d943 3fbd cb24 8e3d
00000030: eafb b23d 84d5 8bbb ab06 0e3e 7eed 993d
00000040: d3e3 5ebd d615 abbd dd3d ab3d 5c81 d5bd
00000050: 4ced 973d e2f9 ef3b ba3b 883d 224e ed3d
00000060: af89 d3bc fcfa 9a3d 921a 21bd 6b1d e03d
00000070: 3c6e 953d e627 163e 4351 e93d 4b2b b63d
00000080: 32fe f83d 4c86 623d 529b 15bd 20c2 82bd
00000090: 94cf dfbb 53ca 64bd ca3f e1bc e928 d5bd
000000a0: 8db6 643d 2b7b 9cbc 4db7 d6bd 3ed6 a13d
000000b0: 4384 a5bd 491c 093e f928 563d e976 943d
000000c0: b5e9 0b3e 831c 003e 4367 d4bd 271f ff3c
000000d0: 160c a33d 3ed9 33bd 5bb5 abbd 88a0 17bd
000000e0: 3807 f2bc 9405 053e c4ca c33c 4988 e43d
000000f0: c73e 91bd 0d64 923c 5b47 283d bccb 243e
00000100: 0236 ba3d e42d 03be 8496 103e 6f50 923c
00000110: 4785 353e 6a60 0e3d d299 bbbd 39a0 293d
00000120: a279 43bd 2138 e6bc cc0b 323d 76b8 533d
00000130: f9da c8bc d22c 413b 3e7b c13c 3573 be3d
00000140: 2a85 9e3d a565 dfbc ada9 ccbc 0f8d 01bd
00000150: 5348 683c afa9 a23c 804c 8dbc dca8 513c
00000160: 20d3 85bd af66 1c3e 5c0c 30bd 7fae 043e
00000170: 0b42 edbc a8af a63b 51c9 02bb 983e 6fb8
00000180: 130d b53c a00d e63d 11e8 18bd f57e b83d
00000190: 4ae9 893d 1fb6 18bc 352d 4bbd 1553 303d
000001a0: cded c63c 277c 6b3d b410 d6bd b517 af3d
000001b0: b9d7 523d b7a6 1f3e 162b 15bd c383 cf3d
000001c0: f733 ee3d dc75 663d 487f bb3d 41dd d7bd
000001d0: 29c6 bd3d 4eef 09bc 4e17 da3d d0b9 013e
000001e0: dcf8 cd3d 5a8f c23d 764d cb3d 10de 203e
000001f0: a297 bebd 43d3 643e 8846 233d ff8f 0a3e
00000200: 7e60 8f3b ce7f a8bc a7d4 29bd d49b 74bc
00000210: 3277 d4bd ea8a 983d 90ef 173d 27c0 00be
00000220: 7b67 473d 801c d4bd 4eae 3abd bcf4 c03d
00000230: a97b 79bc 5850 3c3d 7c10 973d 7083 8ebb
00000240: 5e6d d0bd c89a 903d 3e01 0fbd 42ef 96bd
00000250: a2b9 62bd 84c9 893d 70bf b9bc cbe2 4f3d
00000260: af1d ad3b 8da1 9cbd 4cf9 ecbb 2140 bb3d
00000270: dc68 003e 7a8f b2ba 0475 eeb9 3a60 a23d
00000280: 181b 31bd e0ef 2fbd c1fe 9c3d 7903 7d3d
00000290: 1270 babc 292a 7dbb 43bc bdbd c275 7b3b
000002a0: 5583 b0bd 9da9 a7bc e2cb f73c 81bd 323d
000002b0: ef8b eb3d b0e4 c43b cec9 ac3b 13b1 5bbd
000002c0: e347 4bbd ff9b 07be 02aa 153d 0ddc c8ba
000002d0: ca2a ad3d ad3a 7b3d a363 98bc 48e8 3abd
000002e0: 4ce2 b13d 8b5b f1bd b830 eeb9 7604 823d
000002f0: 1c8f f0bd f241 ce3d 2345 83bd a8ba d83d
00000300: c8e2 a43d f325 d6bd 56ab f23d 5f85 7bbd
00000310: 0aec 8b3c c7df e1bc d28b b53d cc13 923d
00000320: ca06 eb3d d09d 5bbc 0a06 f03c 346b c5bc
00000330: 91bf 0f3e 7c2a fb3c 10ba 47bd fef8 8c3c
00000340: 5843 9bbd 22bd 093d 20b2 573d 54de 59bd
00000350: cae6 80bd 70c0 90bc 4ae8 6dbd 3f3e 363e
00000360: 9465 31bc e1d5 413d ee3e f83d d531 29bc
00000370: 0384 223d 2741 81bd f090 b13d 4771 e53d
00000380: bfd8 d9bd 1952 323e 35eb 193e 7858 513d
00000390: a241 203d d722 aabc ce6b dd3d 46f7 b73d
000003a0: eabd 4fbd 70d8 c5bc 0528 ef3d 501f 84bc
000003b0: 1933 23bc 112b 0dbd f023 b53d 1d42 53bc
000003c0: 2bf3 003e bc58 393c 9b50 753d d5bb 20bd
000003d0: 3e8c 79bd 151a 7cbd 9ec0 d33c a6be d33d
000003e0: bda8 e23d 31a0 4c3e b297 033e 7819 863d
000003f0: b77c 813d b47f 43bd 412f 2d3e 1e39 debd

lstm.bias_hh_l0 f4 [256]
0.16251495 -0.10689598 0.18992235 0.027220353 0.1500054 0.022260144 -0.045380723 0.015483806
0.038350504 0.06992483 0.069454 0.10968537 0.023301665 -0.06292403 0.10850385 0.08217043
0.106853634 -0.060136743 0.020547112 0.028261319 0.056052934 0.054265525 -0.093555726 0.12212229
0.0038434202 0.09057452 0.008192917 -0.09098142 0.085515775 0.039759602 0.0038907488 0.12974675
0.14945282 0.0011476056 0.023268556 -0.05003008 -0.046437766 -0.11408425 -0.020030867 -0.05312357
0.013719444 0.049313463 0.09275337 0.029266376 0.10173871 -0.0136105465 0.04759338 -0.012778492
0.072088905 0.14947256 0.08066986 0.06734045 0.076188296 0.14538339 0.1404442 0.1262204
-0.022680163 0.15793414 0.09687338 0.1479568 0.03635096 0.08398141 0.06938499 0.121571355
0.17370252 0.097844504 -0.06195628 0.07309388 0.16522776 -0.029031577 -0.099794775 0.08620102
0.034978956 0.16023308 0.082841225 0.100009836 -0.064070635 0.00040987262 -0.046397403 0.017995004
0.12882318 -0.08848205 0.097832315 -0.09576567 0.10278019 -0.11475409 -0.06629569 0.0012959994
0.062606 -0.07296628 0.06767758 -0.09776536 -0.026470512 -0.0063139293 0.019222891 -0.078848444
0.14909676 0.19576597 -0.10286844 -0.0350936 -0.0582854 -0.09506183 -0.0065617957 0.09140758
-0.084697634 0.19214399 0.1197003 0.08989056 0.13034391 0.100396015 0.0954408 0.09043112
-0.09100143 0.0599585 -0.007150204 -0.106532685 0.10851451 -0.008520184 0.07972498 -0.027723365
0.16345638 0.10486658 -0.0027230838 -0.019002467 0.027518412 -0.002512901 0.073190935 -0.03631963
-0.07021748 0.022379722 -0.08901675 0.05309237 -0.07613745 -0.05548611 0.024890462 0.06314768
-0.04104251 0.033666756 -0.091031805 -0.038301557 0.07404568 -0.04472667 -0.10776681 -0.028241314
-0.00058622356 0.025915405 -0.008555462 -0.078045756 0.010043628 0.05887296 -0.018082678 0.034205336
0.012589101 0.003265961 -0.044709526 -0.014711053 -0.09689789 0.07308377 -0.08689044 -0.093129545
-0.07242525 0.016759427 -0.013608868 -0.09938352 0.03129478 -0.05298748 -0.07304967 0.073659346
-0.05548529 -0.07828982 -0.005434847 -0.06546106 0.009316451 -0.05632306 -0.009568556 -0.005424746
0.12736054 0.057409894 -0.051110707 0.02847402 -0.13688171 -0.10864108 -0.10837327 -0.05919215
-0.11889677 0.063433625 0.10822821 -0.07785646 -0.10935205 -0.033332925 0.06536079 0.032735676
0.10945709 0.08968092 0.15731268 0.078905724 0.04171329 -0.021588685 -0.008695427 0.007832574
0.046370864 0.10763326 -0.041127536 -0.104789644 -0.08803549 0.054412853 -0.013147178 0.0530761
0.051127516 0.054111592 -0.02868289 0.07119318 0.13446328 0.034960724 0.034664296 0.10951727
0.05478993 0.107057944 0.07969233 0.122500226 0.01799635 0.1247322 0.12876981 -0.07800629
0.012578706 -0.05092071 -0.026897585 0.06723913 -0.053053237 0.10954424 0.10545939 -0.05453619
-0.090912685 0.024030212 -0.10797431 0.11470876 -0.009217397 0.083126225 0.04835602 0.00049838575
-0.056058373 0.101007015 0.07052184 0.052475814 0.018973337 0.0068187183 -0.031492844 0.109043166
0.108656906 0.025918338 0.013062267 0.17092958 0.07409621 -0.050164923 -0.023544757 -0.006482404
00000000: 526a 263e 48ec dabd 017b 423e 38fd de3c
00000010: 049b 193e e85a b63c 23e1 39bd caaf 7d3c
00000020: 6b15 1d3d c034 8f3d e63d 8e3d b9a2 e03d
00000030: 22e3 be3c 50de 80bd 4437 de3d f848 a83d
00000040: 14d6 da3d f251 76bd 6b52 a83c 4884 e73c
00000050: c397 653d 8745 5e3d 259a bfbd 401b fa3d
00000060: e4e1 7b3b 227f b93d 963b 063c 7754 babd
00000070: e522 af3d f7da 223d effb 7e3b 55dc 043e
00000080: 290a 193e 416b 963a b39d be3c 57ec 4cbd
00000090: 8735 3ebd 01a5 e9bd c617 a4bc 1a98 59bd
000000a0: 85c7 603c eafc 493d 7bf5 bd3d 0ac0 ef3c
000000b0: 635c d03d c5fe 5ebc 47f1 423d e15c 51bc
000000c0: 59a3 933d 560f 193e 3d36 a53d cae9 893d
000000d0: 9c08 9c3d 62df 143e 9bd0 0f3e ec3f 013e
000000e0: c0cb b9bc 7db9 213e 8d65 c63d fd81 173e
000000f0: bfe4 143d 72fe ab3d b819 8e3d 67fa f83d
00000100: 13df 313e b362 c83d dec5 7dbd 3fb2 953d
00000110: 7731 293e a1d3 edbc 3461 ccbd 298a b03d
00000120: 1846 0f3d 2414 243e a9a8 a93d f5d1 cc3d
00000130: 7737 83bd 2ce4 d639 340b 3ebd 426a 933c
00000140: 39ea 033e 1436 b5bd 4f5c c83d cb20 c4bd
00000150: 6c7e d23d 3104 ebbd 09c6 87bd 86de a93a
00000160: 9337 803d 586f 95bd 8b9a 8a3d 3439 c8bd
00000170: b0d8 d8bc 14e5 cebb 5379 9d3c 4b7b a1bd
00000180: d2ac 183e e076 483e b0ac d2bd 4fbe 0fbd
00000190: acbc 6ebd c7af c2bd 5504 d7bb e633 bb3d
000001a0: f475 adbd 65c1 443e 6e25 f53d 8b18 b83d
000001b0: e078 053e 6d9c cd3d 7776 c33d f333 b93d
000001c0: f55e babd 0b97 753d 424c eabb cf2d dabd
000001d0: db3c de3d 3e98 0bbc da46 a33d 1c1c e3bc
000001e0: 1c61 273e 4ac4 d63d c475 32bb 10ab 9bbc
000001f0: 4b6e e13c 7caf 24bb 21e5 953d e4c3 14bd
00000200: 2fce 8fbd ae55 b73c 6a4e b6bd 6377 593d
00000210: f4ed 9bbd 6745 63bd 15e7 cb3c 9253 813d
00000220: 311c 28bd 27e6 093d e26e babd 18e2 1cbd
00000230: 43a5 973d 5033 37bd d8b4 dcbd 545a e7bc
00000240: ccac 19ba 8b4c d43c 352c 0cbc 74d6 9fbd
00000250: 078e 243c c624 713d 2022 94bc e51a 0c3d
00000260: 8442 4e3c bc09 563b 5621 37bd a106 71bc
00000270: 6772 c6bd f2ac 953d 9df3 b1bd b4ba bebd
00000280: b153 94bd 114b 893c bbf7 5ebc 9689 cbbd
00000290: f52e 003d 6609 59bd 119b 95bd b6da 963d
000002a0: 8b44 63bd 6a56 a0bd cd16 b2bb 7310 86bd
000002b0: 07a4 183c 02b3 66bd 6fc5 1cbc 11c2 b1bb
000002c0: cd6a 023e a326 6b3d 7659 51bd 5942 e93c
000002d0: b82a 0cbe 377f debd cef2 ddbd 7873 72bd
000002e0: 2680 f3bd 7de9 813d c0a6 dd3d 3573 9fbd
000002f0: f8f3 dfbd 1b88 08bd e1db 853d d815 063d
00000300: 0a2b e03d a1aa b73d 9316 213e 5399 a13d
00000310: 8edb 2a3d c1da b0bc 4477 0ebc 3254 003c
00000320: 60ef 3d3d d46e dc3d 5975 28bd f49b d6bd
00000330: f34b b4bd 03e0 5e3d 4367 57bc 5366 593d
00000340: 166b 513d 1ea4 5d3d 61f8 eabc bbcd 913d
00000350: beb0 093e fa32 0f3d 26fc 0d3d 974a e03d
00000360: 686b 603d 3241 db3d bb35 a33d 66e1 fa3d
00000370: 156d 933c 9873 ff3d 3cdc 033e c3c1 9fbd
00000380: eb16 4e3c 3c92 50bd 5358 dcbc abb4 893d
00000390: 5a4e 59bd bb58 e03d 18fb d73d 5761 5fbd
000003a0: 6e30 babd 02db c43c a321 ddbd 6dec ea3d
000003b0: 9104 17bc 153e aa3d f610 463d 1aa6 023a
000003c0: 779d 65bd c4dc ce3d c16d 903d e1f0 563d
000003d0: f96d 9b3c 8e6f df3b a4fe 00bd 0652 df3d
000003e0: 8387 de3d b252 d43c 1e03 563c 2a08 2f3e
000003f0: c1bf 973d bc79 4dbd efe0 c0bc 596a d4bb

lstm.weight_ih_l1 f4 [256, 64]
-0.10441567 -0.04951651 -0.055438828 -0.13665028 -0.13204257 0.12042284 0.015337106 0.19993809
0.06330839 -0.015457958 0.047208425 -0.025715483 4.9566526e-05 -0.038813543 -0.13289401 -0.0153994495
-0.05188974 -0.050092474 0.19540548 -0.026671601 -0.119074434 -0.0012384942 0.053381093 0.020471005
-0.07732534 0.09850228 0.027213268 -0.016106984 -0.16128978 -0.13004099 0.07845629 0.13256122
-0.046195544 -0.017147772 -0.012932855 0.019268693 0.022131275 -0.005688682 -0.06128232 0.075375475
-0.03557833 -0.09370985 -0.035128772 -0.098642364 0.13569492 0.10154202 0.25408164 0.08492163
0.014579502 0.060054183 -0.03776713 -0.09266286 0.13426615 0.11184968 0.22867323 -0.13039161
-0.03284011 0.14466655 -0.051572625 -0.004540635 0.065411896 -0.10350213 0.078484245 -0.0024772838
0.016740618 0.075129315 0.061329644 -0.04573516 -0.0721573 0.058804266 -0.08987908 0.06110101
-0.0011725485 0.080996305 -0.069637775 -0.050903916 -0.101271346 0.08177919 -0.07103195 -0.036771987
-0.14434604 0.1070935 0.1347396 -0.088684075 -0.02006438 -0.036319673 -0.08614652 -0.107683666
-0.0062734038 0.10794225 -0.078105226 0.1274599 -0.05921108 -0.16271247 -0.05882578 0.11266236
-0.02545089 0.06524157 0.010425198 0.09973775 -0.07854264 0.037660018 0.11423813 0.037303794
-0.06413371 -0.05397363 -0.010309223 -0.06581345 -0.10152393 0.045850772 0.013844912 -0.06974481
-0.048091624 -0.0002562455 0.07237959 0.065101564 0.100265115 -0.0011665145 0.06607777 -0.046695303
0.044687964 -0.06398736 0.09780834 0.028948156 -0.0091621615 -0.036516644 0.15988815 0.08589868
-0.061295163 -0.055014137 -0.019753689 -0.07841675 -0.07742595 0.012258546 0.001866106 0.001270665
0.12292236 0.09454084 -0.0125134615 0.14760129 0.06470028 0.2022438 -0.057551216 0.064370334
-0.20485358 0.0027095429 0.08042888 -0.17999834 -0.07123335 0.009003886 0.098760225 0.252889
-0.028525148 0.115194015 0.038766433 -0.07216734 -0.2140311 -0.023733828 0.13830866 -0.02676676
-0.08207982 0.015829165 -0.1622172 -0.106176026 0.103089765 -0.025888827 -0.09757108 -0.02401876
0.101070434 0.103050165 -0.1169524 -0.10973964 0.10959529 -0.02999551 0.13367727 0.05347954
-0.0049790563 -0.17066462 -0.104263365 -0.032915786 0.15149105 0.0678046 0.093915574 -0.10148594
-0.022373302 -0.06541024 -0.1458526 -0.20237134 -0.019121217 -0.33908102 0.15951496 0.21533394
-0.0107538905 -0.094592094 0.075465135 -0.06896889 0.069248594 -0.12072695 0.1121443 -0.036199287
0.12416027 0.04865524 0.093392946 0.01884613 -0.0643815 0.0071789655 0.09265745 -0.11026607
0.036560275 0.013946041 0.07631281 -0.082670696 -0.084324025 0.03335 -0.023853827 -0.03985075
0.034441326 0.110549726 -0.09731916 0.00831299 -0.05342407 0.0053557237 -0.065630935 0.12044244
0.080945015 0.07419226 -0.038945094 0.07664241 -0.06854224 -0.10089256 -0.1020459 -0.0048744422
-0.09311449 0.066752546 -0.0055275015 -0.011194599 -0.08740471 0.13189034 0.12348877 -0.08083113
0.11227449 -0.00825028 -0.018828847 0.029237295 -0.092239074 -0.060748667 0.010745024 0.10262524
0.13103369 0.08013866 0.0691068 0.02728222 0.02115778 -0.10287244 0.15974379 0.112276696
00000000: e2d7 d5bd d3d1 4abd d313 63bd 0dee 0bbe
00000010: 2b36 07be 40a0 f63d 7c48 7b3c 92bc 4c3e
00000020: d4a7 813d 6043 7dbc 9f5d 413d 47a9 d2bc
00000030: a7e5 4f38 f3fa 1ebd 5e15 08be f94d 7cbc
00000040: 568a 54bd c42d 4dbd 6018 483e 677e dabc
00000050: 4cdd f3bd f854 a2ba 22a6 5a3d cfb2 a73c
00000060: bf5c 9ebd 90bb c93d 5cee de3c cbf2 83bc
00000070: 2629 25be 7729 05be b1ad a03d 21be 073e
00000080: 8a37 3dbd 7c79 8cbc 53e4 53bc 61d9 9d3c
00000090: a64c b53c 2068 babb 2c03 7bbd 755e 9a3d
000000a0: 95ba 11bd f3ea bfbd 30e3 0fbd 0205 cabd
000000b0: 9cf3 0a3e 43f5 cf3d fd16 823e 64eb ad3d
000000c0: ddde 6e3c 60fb 753d b5b1 1abd 07c6 bdbd
000000d0: 117d 093e 7211 e53d 5129 6a3e 6185 05be
000000e0: 5a83 06bd 7823 143e d13d 53bd 9bc9 94bb
000000f0: acf6 853d edf8 d3bd 59bc a03d ed59 22bb
00000100: 9f23 893c 66dd 993d cb34 7b3d cb54 3bbd
00000110: 35c7 93bd bedc 703d 8612 b8bd 0d45 7a3d
00000120: 33b0 99ba 64e1 a53d 409e 8ebd a080 50bd
00000130: 5a67 cfbd d97b a73d 3379 91bd 399e 16bd
00000140: 73cf 13be d653 db3d 2df9 093e ff9f b5bd
00000150: 0e5e a4bc f0c3 14bd 966d b0bd 4189 dcbd
00000160: 2091 cdbb d410 dd3d a2f5 9fbd d984 023e
00000170: 5187 72bd 199e 26be 4df3 70bd 86bb e63d
00000180: 637e d0bc 5f9d 853d 73ce 2a3c 4e43 cc3d
00000190: f7da a0bd 6441 1a3d aef5 e93d ddcb 183d
000001a0: 8958 83bd 7413 5dbd 04e8 28bc 34c9 86bd
000001b0: c7eb cfbd 05ce 3b3d c5d5 623c 5ed6 8ebd
000001c0: b9fb 44bd b058 86b9 c03b 943d f853 853d
000001d0: cc57 cd3d bbe5 98ba c853 873d 9343 3fbd
000001e0: ba0a 373d ce0b 83bd bd4f c83d af24 ed3c
000001f0: e41c 16bc 7a92 15bd b8b9 233e a6eb af3d
00000200: a310 7bbd 8156 61bd 7dd2 a1bc f698 a0bd
00000210: 7f91 9ebd 12d8 483c 2098 f43a 718c a63a
00000220: b8be fb3d a19e c13d 4305 4dbc cb24 173e
00000230: 9581 843d 0019 4f3e d3ba 6bbd 98d4 833d
00000240: 23c5 51be 9692 313b e6b7 a43d 7c51 38be
00000250: cae2 91bd 0985 133c cd42 ca3d ab7a 813e
00000260: 92ad e9bc d7ea eb3d 8dc9 1e3d 78cc 93bd
00000270: f82a 5bbe 726d c2bc c9a0 0d3e f745 dbbc
00000280: 7719 a8bd 2aac 813c 441c 26be d172 d9bd
00000290: ba20 d33d ce14 d4bc 59d3 c7bd fec2 c4bc
000002a0: 04fe ce3d f70b d33d bd84 efbd 2dbf e0bd
000002b0: 7f73 e03d 25b9 f5bc b2e2 083e 5d0d 5b3d
000002c0: 5a27 a3bb b5c2 2ebe 0888 d5bd b4d2 06bd
000002d0: 7820 1b3e 23dd 8a3d cf56 c03d dcd7 cfbd
000002e0: 3748 b7bc cef5 85bd 625a 15be 6f3a 4fbe
000002f0: 19a4 9cbc 079c adbe e457 233e 8080 5c3e
00000300: 1631 30bc 80b9 c1bd 778d 9a3d 903f 8dbd
00000310: 35d2 8d3d b13f f7bd e9ab e53d b445 14bd
00000320: bd47 fe3d b84a 473d cd44 bf3d 3363 9a3c
00000330: 73da 83bd 873d eb3b 30c3 bd3d 2dd3 e1bd
00000340: 3ac0 153d f07d 643c e449 9c3d 414f a9bd
00000350: 13b2 acbd 029a 083d 1a69 c3bc 8a3a 23bd
00000360: 5912 0d3d e567 e23d 454f c7bd 3533 083c
00000370: 33d3 5abd 117f af3b 8369 86bd 87aa f63d
00000380: 80c6 a53d 1df2 973d e484 1fbd b2f6 9c3d
00000390: e05f 8cbd c2a0 cebd 71fd d0bd c9b9 9fbb
000003a0: cfb2 bebd 8fb5 883d 0b20 b5bb 8d69 37bc
000003b0: 3e01 b3bd 430e 073e aee7 fc3d cb8a a5bd
000003c0: 2bf0 e53d 2f2c 07bc f43e 9abc 0d83 ef3c
000003d0: d7e7 bcbd 98d3 78bd e60b 303c 2f2d d23d
000003e0: b22d 063e bd1f a43d de87 8d3d f67e df3c
000003f0: 1553 ad3c c9ae d2bd e093 233e 53f1 e53d

lstm.weight_hh_l1 f4 [256, 64]
-0.09644404 0.118246555 0.06930958 -0.097712204 0.13899605 -0.0056046546 -0.03599197 0.0035139879
0.03853345 -0.05056673 -0.06643779 0.10685402 -0.029200347 -0.1079314 0.054035254 0.048174933
-0.050882954 -0.014911961 -0.062386226 0.0009371428 0.09825202 0.012087749 -0.00021663577 -0.12851952
0.045310874 0.092592135 -0.0032809274 0.093646355 0.053990103 0.1709311 -0.030352945 -0.050639737
0.12536901 -0.058909994 0.12280327 0.10561502 -0.006236025 -0.014712867 -0.054826524 0.196815
-0.137582 -0.017251208 0.04309932 -0.12553388 0.0017474875 0.09178562 0.14510551 -0.055845723
-0.11626629 -0.06295171 -0.046448674 -0.0320207 0.15511529 -0.09154407 0.043756165 -0.04173782
0.002304266 -0.12593415 -0.08644023 0.04593151 -0.02435445 -0.06915349 -0.022813585 0.100064576
0.05270016 0.0023579733 -0.062324546 0.022748074 -0.056167044 -0.032960393 -0.0045464537 -0.120895185
0.046104718 0.059556328 -0.017655287 0.02001867 -0.036545902 -0.11840078 -0.09617031 0.10512346
-0.0008540035 -0.045561355 0.07611023 0.10444131 0.106454834 -0.04490736 -0.011554277 -0.028124552
-0.015452889 -0.10173263 0.008665882 0.12460013 0.015835926 -0.07737062 0.011268078 0.05702317
0.011041937 0.08210408 -0.11279628 0.13503477 -0.12051436 0.10478349 -0.048577163 0.079831995
0.08600402 0.052747354 0.0054774866 0.11635251 0.064939484 0.016177755 -0.027627636 0.081296146
0.0825017 0.028126564 0.0542123 0.112657055 0.07688476 -0.05660252 0.13429336 -0.05928882
0.043967117 -0.087169245 0.069715 -0.029192219 -0.017003044 -0.041696772 0.12000614 0.04468866
-0.23802088 0.13021925 -0.10741491 0.108398534 0.07247208 0.0026036568 -0.14571925 0.0127279805
0.017173683 -0.0708898 0.020792674 0.050618052 0.029220674 0.02584778 -0.018327774 0.19436404
0.15018538 0.04931393 -0.019212345 -0.027917922 0.08667246 -0.06996689 -0.13456841 -0.08693508
0.027300688 -0.018336797 0.17285088 0.11997377 -0.101049654 0.20796889 -0.08128912 -0.07433486
-0.09533401 -0.057747494 0.07796998 0.17979473 -0.074339084 0.21157308 0.16128793 -0.055776585
0.04516504 0.12891455 0.018446382 0.07955808 -0.084967434 0.046780996 0.06109755 -0.07115624
0.00614781 0.07842927 0.07521286 -0.05427018 0.13236982 0.04401936 -0.03727777 -0.06257277
0.14442003 0.08918804 0.08433554 -0.11915366 0.10416046 0.001096121 0.10024612 0.20320581
0.017225493 0.11859292 0.10387984 -0.087002434 -0.07139727 0.08400851 0.02670228 -0.10005121
0.005855504 0.13137788 0.05011982 -0.10685738 -0.014886025 0.041226808 -0.014074883 -0.041618463
-0.14602198 0.03869387 -0.058431495 -0.0823426 0.011246983 0.038062748 -0.087056614 -0.07074497
0.018217126 -0.121084 -0.12578762 -0.09428938 -0.11108296 0.112909086 0.115858905 0.05972544
0.06326743 0.123539805 0.086876854 -0.045096714 -0.106671885 -0.05486027 -0.05547658 0.108934365
-0.02814924 -0.05957137 -0.05873517 0.005412435 -0.060571697 -0.0006938118 -0.094649635 -0.07550485
0.06473674 -0.0062491074 -0.026569985 0.050653778 -0.042734385 0.11728662 -0.1101028 0.05657011
-0.010084554 0.086260274 -0.116358526 0.026477447 -0.04434908 -0.050493352 0.034946058 -0.00475612
00000000: 7484 c5bd 402b f23d 2ef2 8d3d 561d c8bd
00000010: fb54 0e3e 40a7 b7bb 516c 13bd ef4a 663b
00000020: 40d5 1d3d 0f1f 4fbd 8910 88bd 48d6 da3d
00000030: 9135 efbc 230b ddbd 1254 5d3d 1453 453d
00000040: a56a 50bd 4c51 74bc b388 7fbd 97aa 753a
00000050: 5b38 c93d b20b 463c b928 63b9 9f9a 03be
00000060: e597 393d f2a0 bd3d d404 57bb a9c9 bf3d
00000070: ba24 5d3d 9008 2f3e bda6 f8bc 9d6b 4fbd
00000080: bc60 003e 9b4b 71bd 4880 fb3d b04c d83d
00000090: 9257 ccbb 3d0e 71bc c791 60bd df89 493e
000000a0: 4ce2 0cbe 6852 8dbc ea88 303d f48b 00be
000000b0: f30b e53a 19fa bb3d 8a96 143e 7cbe 64bd
000000c0: 051d eebd d3ec 80bd f740 3ebd 2328 03bd
000000d0: 8bd6 1e3e 757b bbbd aa39 333d 47f5 2abd
000000e0: 2b03 173b e2f4 00be 9307 b1bd ae22 3c3d
000000f0: fc82 c7bc 58a0 8dbd 8ee3 babc a8ee cc3d
00000100: 1fdc 573d 3a88 1a3b 0648 7fbd 2b5a ba3c
00000110: 6a0f 66bd 7a01 07bd 6bfa 94bb e597 f7bd
00000120: 4dd8 3c3d 56f1 733d d2a1 90bc 32fe a33c
00000130: 28b1 15bd 1c7c f2bd f1f4 c4bd f84a d73d
00000140: 34df 5fba 8b9e 3abd aedf 9b3d 53e5 d53d
00000150: fe04 da3d c8f0 37bd 264e 3dbc 7665 e6bc
00000160: 1d2e 7dbc 3259 d0bd 58fb 0d3c 5a2e ff3d
00000170: 58ba 813c 7d74 9ebd bf9d 383c 2191 693d
00000180: 3ee9 343c 2f26 a83d bc01 e7bd 8e46 0a3e
00000190: 3cd0 f6bd ba98 d63d d9f8 46bd f57e a33d
000001a0: e022 b03d 9c0d 583d 7d7c b33b 3a4a ee3d
000001b0: fefe 843d 3687 843c 5a53 e2bc 987e a63d
000001c0: a7f6 a83d ae69 e63c b70d 5e3d beb8 e63d
000001d0: c275 9d3d 0bd8 67bd 3384 093e d5d8 72bd
000001e0: dd16 343d ca85 b2bd bdc6 8e3d 8524 efbc
000001f0: f849 8bbc 3cca 2abd c7c5 f53d 750b 373d
00000200: bfbb 73be 3258 053e 59fc dbbd 0d00 de3d
00000210: 3e6c 943d 1da2 2a3b 6d37 15be 0589 503c
00000220: d3af 8c3c ac2e 91bd 6655 aa3c e054 4f3d
00000230: 3260 ef3c b9be d33c 2124 96bc 5e07 473e
00000240: 32ca 193e 67fd 493d 3563 9dbc 20b4 e4bc
00000250: 5581 b13d cd4a 8fbd 4dcc 09be 050b b2bd
00000260: b1a5 df3c 0d37 96bc d2ff 303e cfb4 f53d
00000270: 1ff3 cebd ccf5 543e e97a a6bd e03c 98bd
00000280: 7a3e c3bd a388 6cbd baae 9f3d 1c1c 383e
00000290: 173f 98bd 9da6 583e aa28 253e fd75 64bd
000002a0: fafe 383d 2d02 043e de1c 973c 59ef a23d
000002b0: 6803 aebd 6e9d 3f3d 6d41 7a3d 5dba 91bd
000002c0: 9173 c93b 869f a03d 3309 9a3d 694a 5ebd
000002d0: f48b 073e a54d 343d 93b0 18bd 2726 80bd
000002e0: d8e2 133e 38a8 b63d 1db8 ac3d d606 f4bd
000002f0: 1452 d53d b8ab 8f3a d64d cd3d 2f15 503e
00000300: 7a1c 8d3c d8e0 f23d f4be d43d 552e b2bd
00000310: bb38 92bd a70c ac3d bdbe da3c a6e7 ccbd
00000320: 87df bf3b ec87 063e 714a 4d3d 0bd8 dabd
00000330: 84e4 73bc 71dd 283d 579a 66bc 1f78 2abd
00000340: c986 15be 777d 1e3d dd55 6fbd 3da3 a8bd
00000350: 4445 383c afe7 1b3d bd4a b2bd bde2 90bd
00000360: 153c 953c e3fa f7bd 78ce 00be ca1a c1bd
00000370: 777f e3bd e13c e73d 6f47 ed3d aaa2 743d
00000380: 5b92 813d 7002 fd3d 7eec b13d 55b7 38bd
00000390: ca76 dabd 2ab5 60bd 693b 63bd fb18 df3d
000003a0: 3c99 e6bc 1c01 74bd 4a94 70bd cc5a b13b
000003b0: 071a 78bd ece0 35ba abd7 c1bd 49a2 9abd
000003c0: b294 843d 50c5 ccbb 4ca9 d9bc 567a 4f3d
000003d0: 400a 2fbd f833 f03d 947d e1bd 0fb6 673d
000003e0: af39 25bc 3aa9 b03d 614d eebd 3be7 d83c
000003f0: 62a7 35bd 1ed2 4ebd 9923 0f3d 3ad9 9bbb

lstm.bias_ih_l1 f4 [256]
-0.11261944 -0.056590263 0.033654485 -0.028243229 -0.07668428 -0.0024929708 -0.11013558 0.09440755
0.034842063 -0.109226204 -0.07221041 0.00029437768 0.029188382 -0.039241344 -0.07102847 0.062698804
-0.019367408 0.025955956 0.06588378 -0.01662157 0.07627431 -0.12533836 -0.07624025 -0.07013877
-0.09306541 0.045260284 -0.017705819 -0.043973964 0.03232077 0.118805505 -0.12423772 0.028085923
0.06728633 0.07380013 -0.038037963 -0.16154854 -0.10932025 -0.03319419 0.080671936 0.09039074
-0.122354284 -0.15694492 0.081353724 0.051620685 0.09006459 -0.026376842 -0.06965625 0.045727
-0.0007876906 -0.06523015 0.033801172 -0.096954204 0.019660134 -0.08549108 -0.10556217 -0.032334164
0.0036840076 0.060378756 -0.113113135 -0.05701988 -0.054122593 0.11338487 0.11467174 -0.0846537
-0.018874953 -0.11260926 -0.13734424 0.04350924 -0.009847601 -0.12779005 0.009697116 -0.06682855
0.017104913 0.11307234 0.023097645 -0.12846155 -0.10269905 0.104317546 -0.040251154 -0.07963528
-0.12943687 -0.0023231544 0.09748174 0.009369527 -0.11025851 -0.08389986 0.0689584 -0.1060725
0.010342177 0.049568757 -0.059222635 0.06543466 0.05940062 0.059826553 -0.12283892 -0.08892857
0.051227007 -0.052872464 0.040567756 -0.055651885 -0.02601806 -0.101845585 0.017550718 -0.04699366
-0.062024396 -0.0029662012 0.08679891 -0.012643974 0.040445607 0.014363978 -0.10845149 -0.10611126
-0.05264199 -0.12452554 0.08870263 0.03540299 -0.12853639 0.10042155 -0.079739675 -0.007947287
-0.035169434 0.058170356 -0.063723855 -0.03747536 -0.1096311 -0.086981155 0.10201719 -0.010715427
-0.07585197 -0.054705612 -0.013476838 0.1193241 0.008061748 -0.03686096 -0.04267223 0.10532903
0.001363409 -0.020059125 0.018746007 0.048368573 -0.09285427 -0.08194183 0.053547025 0.054046743
-0.051312655 0.081489734 -0.058209274 -0.08742001 -0.053690907 -0.098996386 0.10366927 0.10081919
-0.056602567 0.047283955 -0.05080553 0.10429977 -0.069624916 0.083757095 0.06771669 0.033441376
-0.04945581 0.08584655 0.042128272 0.088314354 -0.07797475 -0.114012286 -0.038429834 -0.02310967
-0.11286584 -0.036183305 -0.0044966713 0.10237483 0.10650442 0.0272147 0.090117216 -0.10339202
-0.053871326 -0.08934814 -0.07248847 -0.06645741 -0.008613236 -0.010721099 -0.017535228 -0.05112908
0.083487086 -0.06361495 0.049280047 -0.09709971 0.037228115 0.021804612 0.0024428237 -0.018267745
0.031884212 0.07110301 0.09611463 -0.12430306 0.10024221 0.04223057 0.038713954 0.027291665
0.06276605 -0.03650568 0.034154527 -0.103365675 -0.06696101 0.062454943 -0.12504362 0.13251363
0.013508908 -0.01902018 -0.123042315 0.027838884 0.107686676 -0.11328903 -0.019806713 0.121068604
0.05748391 0.113678515 -0.045721706 -0.00601994 0.056840945 -0.03967351 -0.10871261 0.09027085
-0.13040116 -0.06974176 -0.017008087 0.075577505 -0.03183403 -0.06422153 -0.0059616263 -0.09247779
0.06717641 -0.14719193 0.0490893 0.1272286 0.071526736 -0.041219015 0.046808653 -0.12733999
0.02073208 0.018103372 -0.10465435 -0.10332818 -0.07993587 -0.08890423 0.08710057 0.09827892
0.060795415 0.101105794 -0.022088345 -0.12384902 0.017109286 0.012485097 -0.054644357 0.076917425
00000000: 05a5 e6bd 31cb 67bd 49d9 093d 585e e7bc
00000010: a60c 9dbd 1c61 23bb c38e e1bd bf58 c13d
00000020: 8db6 0e3d fdb1 dfbd 0de3 93bd b456 9a39
00000030: 791c ef3c 88bb 20bd 6077 91bd 3b68 803d
00000040: 66a8 9ebc 96a1 d43c 13ee 863d f529 88bc
00000050: b535 9c3d b358 00be d923 9cbd eaa4 8fbd
00000060: 1499 bebd d962 393d cb0b 91bc 0b1e 34bd
00000070: c962 043d 4d50 f33d 5970 febd 7314 e63c
00000080: 6acd 893d 8624 973d b2cd 1bbd fb6c 25be
00000090: 4ce3 dfbd a2f6 07bd 5437 a53d c81e b93d
000000a0: e294 fabd 2bb6 20be c89c a63d 3670 533d
000000b0: c973 b83d 3f14 d8bc f0a7 8ebd 3c4c 3b3d
000000c0: 057d 4eba 6397 85bd 1973 0a3d ed8f c6bd
000000d0: 4a0e a13c f315 afbd fb30 d8bd d470 04bd
000000e0: 646f 713b b74f 773d dca7 e7bd ad8d 69bd
000000f0: a7af 5dbd 5436 e83d 04d9 ea3d eb5e adbd
00000100: a59f 9abc af9f e6bd f8a3 0cbe bf36 323d
00000110: d557 21bc 65db 02be a7e0 1e3c 68dd 88bd
00000120: 9a1f 8c3c 7992 e73d 4637 bd3c 6d8b 03be
00000130: e153 d2bd 70a4 d53d 65de 24bd d217 a3bd
00000140: 198b 04be 1040 18bb 82a4 c73d a582 193c
00000150: 37cf e1bd b1d3 abbd 103a 8d3d 8a3c d9bd
00000160: 3c72 293c 9c08 4b3d 6f93 72bd 9b02 863d
00000170: 114e 733d b00c 753d f992 fbbd 2f20 b6bd
00000180: 69d3 513d cc90 58bd 602a 263d 3bf3 63bd
00000190: d423 d5bc 6b94 d0bd 86c6 8f3c 6d7c 40bd
000001a0: 4b0d 7ebd 9964 42bb a0c3 b13d ac28 4fbc
000001b0: 4baa 253d e456 6b3c d11b debd dc50 d9bd
000001c0: 219f 57bd 3f07 ffbd b9a9 b53d ba02 113d
000001d0: 0b9f 03be d0a9 cd3d 8e4e a3bd 5635 02bc
000001e0: d30d 10bd 0a44 6e3d a781 82bd c37f 19bd
000001f0: 4586 e0bd 2d23 b2bd 63ee d03d c28f 2fbc
00000200: 4758 9bbd fe12 60bd f5cd 5cbc 3260 f43d
00000210: 6c15 043c 85fb 16bd 14c9 2ebd bfb6 d73d
00000220: 6ab4 b23a 0953 a4bc 3a91 993c 201e 463d
00000230: 612a bebd 1ed1 a7bd 2054 5b3d 1e60 5d3d
00000240: 382d 52bd 17e4 a63d d96c 6ebd 4309 b3bd
00000250: ffea 5bbd 9ebe cabd 8e50 d43d 4b7a ce3d
00000260: 18d8 67bd d2ac 413d 7619 50bd 1e9b d53d
00000270: 8297 8ebd d788 ab3d 0caf 8a3d d3f9 083d
00000280: 2d92 4abd 51d0 af3d b28e 2c3d 28de b43d
00000290: 3ab1 9fbd 467f e9bd 9a68 1dbd 7e50 bdbc
000002a0: 3526 e7bd f234 14bd d058 93bb e5a9 d13d
000002b0: fd1e da3d 5df1 de3c 608f b83d 32bf d3bd
000002c0: 2ea8 5cbd 28fc b6bd d674 94bd d31a 88bd
000002d0: 881e 0dbc 8ca7 2fbc 0aa6 8fbc ba6c 51bd
000002e0: 47fb aa3d 8e48 82bd e0d9 493d 36dc c6bd
000002f0: 827c 183d 969f b23c c817 203b 3da6 95bc
00000300: 0599 023d 749e 913d bfd7 c43d 9a92 febd
00000310: ca4b cd3d f6f9 2c3d 8692 1e3d c592 df3c
00000320: 7d8b 803d fb86 15bd 9ee5 0b3d 62b1 d3bd
00000330: db22 89bd c1d0 7f3d 6f0b 00be a7b1 073e
00000340: 7854 5d3c 35d0 9bbc 9cfd fbbd 5f0e e43c
00000350: d58a dc3d 1404 e8bd b041 a2bc d1f2 f73d
00000360: 4074 6b3d 48d0 e83d af46 3bbd eb42 c5bb
00000370: 0dd2 683d b180 22bd b8a4 debd ecdf b83d
00000380: e287 05be c5d4 8ebd 8b54 8bbc 61c8 9a3d
00000390: 6664 02bd 9486 83bd bf59 c3bb ff64 bdbd
000003a0: c993 893d 7bb9 16be dd11 493d 3748 023e
000003b0: 9c7c 923d 45d5 28bd 6eba 3f3d 6a65 02be
000003c0: 53d6 a93c 864d 943c 0555 d6bd ba9d d3bd
000003d0: 6bb5 a3bd 6c13 b6bd c961 b23d 7546 c93d
000003e0: 9d04 793d 8e10 cf3d 9ef2 b4bc 8ea4 fdbd
000003f0: c628 8c3c 4b8e 4c3c c3d2 5fbd e286 9d3d
