older ver/nvda_lstm_v5_multistock/nvda_lstm_v5_artifact.pth (torch, 383434 bytes, 15 tensors)

lstm.weight_ih_l0 f4 [256, 36]
0	0x3e1a1ce9	0.15050091
1	0x3e54ca91	0.20780398
2	0xbd8acb5e	-0.067770705
3	0x3e2eca4f	0.17069362
4	0x3b95dda5	0.004573541
5	0x3db8cf4b	0.09023913
6	0x3d3b9f2e	0.045806102
7	0x3d8a79e7	0.06761532
8	0x3e26348d	0.16230984
9	0xbcc918d7	-0.024547977
10	0x3db8d5c9	0.09025151
11	0x3dd3fca6	0.10350923
12	0x3e04742a	0.12934938
13	0x3caa2813	0.020771062
14	0x3d5dba9b	0.05413304
15	0x3d2cec75	0.04221769
16	0x3e1bad2e	0.15202782
17	0x3db1ad17	0.086755924
18	0xbd761215	-0.060075838
19	0x3dcde5bb	0.10053583
20	0x3d523fb5	0.051330287
21	0x3c30374e	0.010755373
22	0x3c830f27	0.015998436
23	0x3e178864	0.14798123
24	0xbd1d07f0	-0.038337648
25	0xbdadcd1e	-0.084863886
26	0x3db4835d	0.08814118
27	0x3d1b1bcf	0.037868317
28	0x3d8ef91f	0.0698111
29	0xbdc383aa	-0.09546597
30	0x3e5e2be3	0.21696429
31	0xbd31f0db	-0.04344259
32	0x3e1ea31d	0.1549191
33	0x3da41e4f	0.080135934
34	0x3c6df700	0.014524221
35	0x3dd726d0	0.1050545
36	0x3d496135	0.04916497
37	0x3dfc1544	0.123087436
38	0x3c85d340	0.016336083
39	0x3d2347a7	0.039863255
40	0x3df35904	0.11882213
41	0xbd42a5e1	-0.047521476
42	0xbde9ac57	-0.11409824
43	0x3dc33db2	0.09533252
44	0x3e0a9016	0.13531527
45	0xbe09bfec	-0.13452119
46	0x3db0156c	0.08597836
47	0x3d677416	0.056507193
48	0x3deb453c	0.11487815
49	0xbd93a688	-0.07209498
50	0x3ce51b83	0.02796722
51	0xbc0ffe3c	-0.008788642
52	0xbdbfba22	-0.09361674
53	0x3e365395	0.17805322
54	0x3e11521a	0.14191476
55	0x3d24106e	0.04005473
56	0xbdbd1a3b	-0.09233519
57	0x3da0ac17	0.078453235
58	0x3da71156	0.081576034
59	0xbd52fbcf	-0.051509675
60	0xbae8e5ad	-0.0017768644
61	0x3ccc4734	0.024936296
62	0x3dc22184	0.09479049
63	0xbd41b75d	-0.04729401
64	0x3df1fd6f	0.11815917
65	0x3d792a40	0.06083131
66	0x3dda61be	0.10663174
67	0x3c51b8b6	0.012800386
68	0xbcf13b7d	-0.029447312
69	0x3ccd85c4	0.025088198
70	0x3e3d8d1f	0.18510865
71	0x3dc86beb	0.09786209
72	0x3dea0528	0.11426765
73	0xbdda30d7	-0.10653847
74	0xbe1d5245	-0.15363415
75	0xbe00e5c5	-0.1258765
76	0xbd846f12	-0.064664975
77	0x3be5a943	0.007008703
78	0xbdd6b264	-0.10483244
79	0x3dc71ac0	0.09721899
80	0xbd93f26d	-0.072239734
81	0xbe0e0590	-0.1386931
82	0x3cf8de48	0.03037943
83	0xbd7e3309	-0.06206039
84	0x3dc5458f	0.09632408
85	0xbcdeb7e8	-0.027187303
86	0x3d3365d3	0.04379828
87	0xbde72182	-0.11285688
88	0xbd5e9424	-0.054340497
89	0x3d24521e	0.040117376
90	0x3ce6383b	0.028102985
91	0xbd948e5e	-0.07253717
92	0x3d41595f	0.04720437
93	0x3da38ff4	0.07986441
94	0xbe07f48b	-0.1327688
95	0xbdaa744e	-0.083229646
96	0x3dd39960	0.10331988
97	0xbcb285e8	-0.021792367
98	0xbdbf6050	-0.09344542
99	0xbe2ba0df	-0.16760586
100	0xbdbe4f36	-0.09292452
101	0x3b887671	0.00416451
102	0x3bd922d5	0.0066264668
103	0xbdc14a8d	-0.094380476
104	0x39e25ce7	0.00043175297
105	0xbdbb7224	-0.0915263
106	0xbde7baff	-0.113149635
107	0xbd98e1de	-0.07464956
108	0xbde53bd4	-0.11193052
109	0xbe3a9122	-0.18219426
110	0x3e4dd274	0.20099813
111	0x3e12a0ed	0.14319201
112	0x3e4ba202	0.1988602
113	0xbe00240c	-0.12513751
114	0x3dbe9378	0.09305471
115	0x3e44c0cd	0.19214173
116	0x3df451be	0.119296536
117	0xbdaa2c7f	-0.08309268
118	0xbc6445c4	-0.013932649
119	0x3db23c6a	0.08702929
120	0xbbad35ea	-0.005285968
121	0x3c3f4ca9	0.011675992
122	0x3d36b8dd	0.044609893
123	0x3d22da82	0.039759167
124	0x3df65830	0.12028539
125	0xbd589572	-0.052876897
126	0x3db83c7b	0.08995911
127	0xbdd454ee	-0.103677616
128	0x3e1e491e	0.1545758
129	0x3c16701a	0.0091820005
130	0x3db046b8	0.086072385
131	0x3e1c5f59	0.15270747
132	0x3d747b32	0.0596878
133	0x3e5407e0	0.20706129
134	0x3dbcc62f	0.09217488
135	0xbd2c6635	-0.04208966
136	0x3cc1852b	0.02362307
137	0xbc2f204e	-0.010688854
138	0x3e45c3bc	0.19312948
139	0x3d5c45b3	0.053777408
140	0x3e1f2ae6	0.15543708
141	0xbc731008	-0.014835365
142	0x3e40a87a	0.18814269
143	0x3cbaea9e	0.022816952
144	0x3bc019ad	0.005862436
145	0x3dc58e49	0.09646279
146	0x3de20078	0.11035246
147	0x3e08ad7d	0.1334743
148	0x3e158c7e	0.14604375
149	0xbdd3d060	-0.10342479
150	0x3d662f7a	0.05619762
151	0x3c9091c6	0.017647635
152	0x3c3ac43e	0.011399327
153	0xbe1c576d	-0.15267725
154	0x3e307a5f	0.17234181
155	0xbdb2ddd2	-0.08733715
156	0x3b761c79	0.0037553592
157	0xbc08bcde	-0.008345811
158	0xbd7c1f8b	-0.06155352
159	0xbd8c4215	-0.06848542
160	0x3e2935da	0.16524449
161	0x3ceadf1e	0.028670844
162	0x3de66c65	0.11251143
163	0xbdf040d2	-0.117311135
164	0xbd010af0	-0.03150457
165	0x3bc26b2f	0.0059331874
166	0xbd70b5f7	-0.058767285
167	0x3dd6015d	0.10449479
168	0x3cd56a4e	0.026051667
169	0xbd42b746	-0.047538064
170	0xbdbe9c02	-0.093071
171	0x3d40ed5f	0.047101375
172	0x3df84291	0.121220715
173	0x3b84e755	0.0040558972
174	0xbd5b6409	-0.053562198
175	0xbc01be3b	-0.00791889
176	0xbdda68b8	-0.10664505
177	0x3da2f684	0.079571754
178	0x3e05d0ef	0.13067983
179	0xbd62a375	-0.055331666
180	0x3b57319b	0.0032835964
181	0x3e2adfbd	0.16686912
182	0xbc988214	-0.018616714
183	0xbceda904	-0.029011257
184	0x3dbe06e3	0.09278657
185	0x3d8f5f4c	0.07000598
186	0xbd97500a	-0.07388313
187	0xbdad57bc	-0.08464
188	0xbd0fc7fb	-0.035102826
189	0x3d7b6bb4	0.06138201
190	0xbd6e039e	-0.05810892
191	0xbd3830e1	-0.04496849
192	0x3d9b337d	0.0757818
193	0x3dfe1ef3	0.12408247
194	0x3d3db49d	0.046314824
195	0xbdbddb7b	-0.09270378
196	0x3cc5ed1a	0.02416091
197	0xbb9584bf	-0.0045629437
198	0x3cda7be2	0.0266704
199	0x3d049335	0.03236695
200	0xbe06d3cd	-0.13166733
201	0xbd723da9	-0.059140835
202	0x3dfcb803	0.12339785
203	0xbc8917ed	-0.016735042
204	0xbc7249ee	-0.014788134
205	0xbea215c1	-0.31657222
206	0xbd252f13	-0.040328097
207	0xbdd491d6	-0.103793785
208	0xbd423669	-0.04741517
209	0x3d97bda4	0.07409218
210	0x3d52f153	0.051499676
211	0x3d900458	0.070320785
212	0xbde7c6d2	-0.11317219
213	0xbd7ad411	-0.0612374
214	0xbbc190b2	-0.0059071416
215	0x3e34b67b	0.17647736
216	0x3d33360f	0.043752726
217	0x3c931d48	0.017958298
218	0x3d66a334	0.056307986
219	0xbd4243fc	-0.047428116
220	0xbd968632	-0.073498145
221	0x3dc4ac54	0.096031815
222	0xbdf7ba11	-0.12096036
223	0xba1a4eaa	-0.00058863556
224	0xbde42ed0	-0.11141741
225	0x3d08029b	0.03320561
226	0x3de19fa8	0.1101678
227	0x3cd4c00d	0.025970483
228	0xbda49bb6	-0.08037512
229	0xbdc24c4c	-0.09487209
230	0xbe0456d6	-0.1292375
231	0x3dbfd71f	0.09367203
232	0x3d9f9a79	0.07793135
233	0x3de68691	0.11256135
234	0x3d878cc1	0.066186436
235	0x3d308a69	0.04310075
236	0x3cf2d22b	0.029641232
237	0xbd30439c	-0.043033227
238	0xbdc5e1ee	-0.09662233
239	0xbdfb7b3c	-0.122793645
240	0x3d2fb3c3	0.042896044
241	0xbdd7f159	-0.1054408
242	0xbb92c462	-0.004478977
243	0xbda95326	-0.082678124
244	0xbcc9d99f	-0.024639903
245	0xbda5ea64	-0.08101347
246	0xbd256ac6	-0.04038503
247	0x3d3d4a07	0.046213176
248	0xbd919793	-0.071089886
249	0x3da189fd	0.07887647
250	0xbd1aadd5	-0.037763435
251	0xbdba7d5c	-0.09105942
252	0x3ccdbb45	0.025113711
253	0xbbbdb928	-0.0057898946
254	0x3cd1794e	0.025570538
255	0xbdb7c393	-0.0897285

lstm.weight_hh_l0 f4 [256, 64]
0	0xbd45043d	-0.048099745
1	0x3dc42d44	0.09578946
2	0xbc6a7b50	-0.014311627
3	0x3ce52f7f	0.02797675
4	0x3e12fb5f	0.14353703
5	0x3c1d9a38	0.009619288
6	0x3e364c2d	0.17802496
7	0xbd8a0f57	-0.06741207
8	0xbd3c1f89	-0.04592851
9	0xbd210bfb	-0.039318066
10	0x3dea036c	0.11426434
11	0x3e1071cc	0.1410591
12	0x3dd6ec3b	0.10494276
13	0xbd921d9a	-0.07134552
14	0x3c98b79c	0.01864224
15	0x3d698e8d	0.057020713
16	0x3cd35d41	0.025801303
17	0x3db659ae	0.08903824
18	0xbdc39d27	-0.09551459
19	0x3d91eb2a	0.07124932
20	0x3d9ee7cd	0.07759056
21	0x3bf21fd7	0.0073890495
22	0x3d360bdc	0.044444904
23	0xbd951381	-0.07279111
24	0xbc9b613f	-0.018967269
25	0x3d768be0	0.06019199
26	0x3e42455d	0.18971772
27	0xbd856116	-0.06512658
28	0xbd202f7e	-0.039107792
29	0xbc515e9d	-0.012778905
30	0x3e0ba208	0.13636029
31	0x3d930eec	0.071805805
32	0x3d3201d3	0.04345877
33	0xbe76227b	-0.24036591
34	0x3b9506c0	0.004547924
35	0xbdcefeb9	-0.10107178
36	0x3d4f405e	0.050598495
37	0x3e09d357	0.13459526
38	0xbda255f5	-0.07926551
39	0xbcb8f84e	-0.022579338
40	0x3d0c036e	0.03418296
41	0x3d801e17	0.06255739
42	0x390abbd4	0.00013230677
43	0x3cf84b09	0.030309217
44	0xbae1c37f	-0.00172244
45	0xbc7d0c13	-0.015444773
46	0x3d855ba2	0.06511618
47	0xbc836e7a	-0.01604389
48	0xbd2029ca	-0.039102353
49	0xbe4e9917	-0.20175587
50	0xbcdb3d03	-0.026762491
51	0xbc0eb23c	-0.008709487
52	0xbe31d8c2	-0.17367843
53	0xbe559f9d	-0.20861669
54	0xbd887036	-0.066620275
55	0x3d09587d	0.033531655
56	0xbd43f47b	-0.047840577
57	0x3d9ff69a	0.078107074
58	0x3dfcab04	0.12337306
59	0xbd59ce9e	-0.05317556
60	0xbd97ec79	-0.074181505
61	0x3d044d8d	0.03230052
62	0xbdca86f2	-0.0988902
63	0x3cd7d28d	0.026345516
64	0xbca1c3e9	-0.019746738
65	0xbdc78961	-0.09743
66	0xbe3b65db	-0.18300574
67	0xbdb8656c	-0.0900372
68	0x3e0b7489	0.13618673
69	0x3d829a36	0.0637707
70	0x3e7f20e5	0.24914892
71	0xbe11b85b	-0.14230482
72	0xbd8d8250	-0.06909621
73	0xbd17b0fc	-0.03703402
74	0x3d30fdf1	0.043210927
75	0x3e428e50	0.189996
76	0x3d95cd4a	0.073145464
77	0x3d9a6e57	0.07540577
78	0x3ddba3ec	0.10724625
79	0x3ddbbc97	0.1072933
80	0xbd2ea7ed	-0.042640615
81	0x3d9c9a74	0.07646647
82	0xbd62c5ee	-0.05536454
83	0xbd7da0ac	-0.061920807
84	0x3e0048da	0.1252779
85	0xbcdb3c9c	-0.0267623
86	0xbd76c968	-0.06025067
87	0x3db1c1ed	0.086795665
88	0x3e6e7dd5	0.23290189
89	0x3e327314	0.17426711
90	0x3de8b80d	0.1136323
91	0x3e0222fb	0.12708656
92	0xbe4d5774	-0.20052892
93	0xbd2f3ec4	-0.042784467
94	0xbd0a515a	-0.03376899
95	0xbe6f5ac1	-0.23374464
96	0xbe3780b6	-0.17920193
97	0xbdfec1a4	-0.12439278
98	0xbd61755a	-0.055043556
99	0x3e4b62f1	0.19861962
100	0xbdccbeb4	-0.09997311
101	0x3e08e5c9	0.13368906
102	0xbc2293be	-0.00992292
103	0x3e8a9d9f	0.2707338
104	0xbd9456cf	-0.0724312
105	0x3e06e836	0.13174519
106	0xbd219726	-0.039450787
107	0xbe3509e4	-0.17679554
108	0x3ca4ffb6	0.020141464
109	0xbd3e241a	-0.046421148
110	0xbe82f255	-0.2557551
111	0xbdf4ac65	-0.11946944
112	0xbe013538	-0.12617958
113	0xbc995817	-0.018718762
114	0x3de7d814	0.113205105
115	0xbd41690c	-0.04721932
116	0x3d702716	0.058631025
117	0xbd0eebf0	-0.034892976
118	0x3e77c10c	0.24194735
119	0xbd66a33e	-0.056308024
120	0x3dda4cc9	0.10659177
121	0xbe0498c8	-0.12948906
122	0xbdc5333f	-0.09628915
123	0xbd867948	-0.06566101
124	0x3cdc2860	0.026874721
125	0xbd03c893	-0.032173704
126	0xbe739533	-0.23787384
127	0x3dff6aeb	0.12471565
128	0x3d049881	0.032372
129	0xbd2bdf90	-0.041961253
130	0x3d96db82	0.073660865
131	0x3d34c5ef	0.044134077
132	0xbda1b72c	-0.078962654
133	0xbc0aa231	-0.008461521
134	0x3ddabcdf	0.106805556
135	0xbc166a53	-0.009180623
136	0xbd92f757	-0.071760826
137	0xbd74dc08	-0.05978015
138	0xbdaefe03	-0.08544543
139	0x3beb22a5	0.007175761
140	0x3dab54d0	0.08365786
141	0x3d8c64a7	0.068551354
142	0x3d042e04	0.032270446
143	0x3cc686fa	0.024234284
144	0xbd0b6e0a	-0.03404049
145	0x3dbd8f74	0.09255877
146	0x3d757627	0.059927132
147	0xbd982ddd	-0.07430623
148	0xbdf2653e	-0.11835717
149	0xbde54cf8	-0.11196321
150	0xbd3f0f45	-0.04664542
151	0x3dc09629	0.09403641
152	0x3c3dbae3	0.011580202
153	0xbd8f7ef2	-0.07006635
154	0x3ca9acdc	0.020712309
155	0xbd973cba	-0.073846295
156	0x3d8e8072	0.06958093
157	0x3dcaee97	0.09908789
158	0x3d49851a	0.0491992
159	0xbd214bf8	-0.03937909
160	0xbd2ce96f	-0.042214807
161	0x3dde2049	0.10846002
162	0x3d9bde4a	0.07610758
163	0xbcd78eb1	-0.026313158
164	0x3d295502	0.041340835
165	0xbd0a99f2	-0.03383822
166	0xbc54c662	-0.012986751
167	0xbdbc0b1a	-0.09181805
168	0xbdf52ca7	-0.119714074
169	0x3c98977b	0.018626919
170	0xbd756600	-0.059911728
171	0x3db3d6d2	0.08781208
172	0x3dd078d1	0.10179294
173	0xbd36e198	-0.044648737
174	0xbd541b21	-0.051783685
175	0xbca78118	-0.020447299
176	0xbad4f050	-0.0016245935
177	0xbca42e75	-0.020041684
178	0x3e1fa44c	0.15590018
179	0xbdaa0cbf	-0.083032124
180	0xbd49e265	-0.049288172
181	0xbdb584f0	-0.088632464
182	0x3d30d011	0.043167178
183	0x3c9671e1	0.018364849
184	0x3de38797	0.11109846
185	0x3bcafe26	0.0061948476
186	0x3d4abd62	0.049497016
187	0x3bde2158	0.006778877
188	0x3d94d324	0.072668344
189	0x3ce6689e	0.028126057
190	0x3ca418c2	0.020031337
191	0xbcd5693e	-0.02605116
192	0xbe376c6c	-0.17912453
193	0x3e9614d1	0.29312757
194	0xbded3de9	-0.11584074
195	0xbe26b622	-0.16280416
196	0x3e144d0d	0.14482518
197	0x3bb2625c	0.0054438543
198	0x3d0281f0	0.0318622
199	0xbe27f887	-0.164034
200	0xbdfa50c1	-0.12222434
201	0x3d8404e2	0.06446244
202	0xbde2c8f1	-0.11073483
203	0xbd2a06cb	-0.041510385
204	0x3d5bc5f8	0.053655595
205	0xbdd10b1a	-0.102071956
206	0xbd3ea091	-0.046539847
207	0x3de06c9d	0.10958216
208	0x3e7ec76c	0.24880761
209	0x3d948c66	0.072533414
210	0xbd489dc2	-0.048978575
211	0xbe530aaf	-0.20609544
212	0xbd6fef83	-0.058578026
213	0xbd3b184c	-0.04567747
214	0xbe4427e7	-0.19155847
215	0xbe4bc5e3	-0.19899707
216	0x3d764a02	0.060129173
217	0x3e4a8113	0.197758
218	0x3ea91868	0.33026433
219	0x3d9f800f	0.07788097
220	0xbe6b3583	-0.22969632
221	0xbdda3d6b	-0.10656246
222	0x3e0c3b8d	0.13694592
223	0xbd7168cc	-0.058937833
224	0xbde7dac2	-0.113210216
225	0xbe34933c	-0.1763429
226	0xbe520408	-0.2050935
227	0xba3b6ba2	-0.00071495224
228	0xbd95dfb6	-0.0731806
229	0xbdbf7846	-0.09349112
230	0xbde03b72	-0.10948838
231	0xbd030d0a	-0.031994857
232	0xbd91b3af	-0.0711435
233	0x3e225fb1	0.15856816
234	0xbe4071a7	-0.18793355
235	0x3e1db69f	0.15401696
236	0xbdc3b785	-0.09556488
237	0xbe49ad45	-0.19695003
238	0xbe9c2c30	-0.30502462
239	0xbe807c05	-0.2509462
240	0xbe536a72	-0.20646074
241	0xbe1044f1	-0.14088799
242	0x3e7d737e	0.24751088
243	0x3ba92585	0.0051619434
244	0xbdfdb3f0	-0.12387836
245	0xbd9197b8	-0.07109016
246	0xbc19447e	-0.009354709
247	0x3d006a63	0.03135146
248	0xbd8b0b4b	-0.06789263
249	0xbe3f3a35	-0.18674548
250	0x3d6af8bb	0.057366114
251	0x3e3823b4	0.1798237
252	0xbdbc329e	-0.09189342
253	0x3e4e67e8	0.20156825
254	0xbe805e73	-0.2507206
255	0x3e2fcf6b	0.17168967

lstm.bias_ih_l0 f4 [256]
0	0xbd688c89	-0.05677465
1	0x3bf4bb23	0.0074685975
2	0x3dade322	0.08490588
3	0xbc163a47	-0.009169168
4	0xbd06ef4f	-0.032943066
5	0x3c6476fe	0.013944386
6	0x3c2c9024	0.010532413
7	0x3de1d3ab	0.110267006
8	0xbd9ec376	-0.07752125
9	0x3d82a31d	0.06378768
10	0xbd60c181	-0.05487204
11	0x3d78a5b0	0.060704887
12	0x3d535dd8	0.05160317
13	0xbb70f8dc	-0.0036769425
14	0x3e0e50bf	0.1389799
15	0x3dbaeff2	0.09127797
16	0xbc93d7ef	-0.018047301
17	0xbdd1d670	-0.10245979
18	0x3d88c575	0.06678287
19	0xbdcbe354	-0.09955469
20	0x3d6426d7	0.055701103
21	0x3c8ab831	0.016933532
22	0x3d886276	0.06659405
23	0x3d82d18a	0.06387623
24	0xbb032949	-0.0020013622
25	0x3dfc55e9	0.123210736
26	0xbd3a0325	-0.045413155
27	0x3dca6e35	0.098843016
28	0x3de7454f	0.112925164
29	0x3e00cf65	0.12579115
30	0x3e06cfa7	0.1316515
31	0x3d944022	0.07238795
32	0x3da7e146	0.081972644
33	0x3d1df07d	0.038559426
34	0xbdaddda6	-0.08489542
35	0xbd2c13c4	-0.042011037
36	0xbd46feea	-0.04858295
37	0xbb82f1cb	-0.003996109
38	0xbd2594c5	-0.04042508
39	0xbdb70e64	-0.08938292
40	0x3d650227	0.055910256
41	0xbc89107b	-0.016731491
42	0xbdde7936	-0.10862963
43	0x3dc31780	0.09525967
44	0xbdeb5ab0	-0.11491907
45	0x3dbddcd4	0.09270635
46	0x3d163d46	0.03667953
47	0x3da5a903	0.08088877
48	0x3e093bfe	0.13401791
49	0x3dc1ee3c	0.09469268
50	0xbd82bd8b	-0.06383809
51	0xbbc33df9	-0.0059583155
52	0x3da376d2	0.079816476
53	0xbdb1aeed	-0.086759426
54	0xbd979825	-0.07402066
55	0xbdc1dd3c	-0.09466025
56	0xbd85f220	-0.06540322
57	0x3d4991a5	0.049211163
58	0xbce2815f	-0.02764958
59	0x3da5f250	0.08102858
60	0xbd719e5b	-0.05898891
61	0xbcc8a99d	-0.02449494
62	0x3d5a3b2e	0.053279094
63	0x3debb3ee	0.11508928
64	0x3d8718fc	0.06596562
65	0xbd2e798d	-0.04259639
66	0x3dc1b39d	0.09458087
67	0x3d9ff153	0.07809701
68	0x3e329347	0.17438994
69	0x3d0dbffd	0.034606922
70	0xbdb24b89	-0.087058134
71	0x3ce5c246	0.028046738
72	0xbd3824a4	-0.04495682
73	0xbd94b81c	-0.072616786
74	0x3d248416	0.04016503
75	0x3d3e35bc	0.046437964
76	0xbd6b2677	-0.05740973
77	0xbcdc480f	-0.026889829
78	0x3c79f2c7	0.015255637
79	0x3dc714b6	0.09720747
80	0x3df1cada	0.11806269
81	0x3bdcfa45	0.0067437016
82	0xbcf9f015	-0.030509988
83	0xbd19e556	-0.037572227
84	0x3ccdce8b	0.025122901
85	0x3d1d0d98	0.038343042
86	0xbce8f110	-0.02843526
87	0xbd490e8d	-0.049086142
88	0xbd28c7c9	-0.041206155
89	0x3e3a9825	0.18222101
90	0xbc4a3a35	-0.012342979
91	0x3df11d86	0.11773209
92	0x3d86b5ae	0.065776214
93	0xbb2182a3	-0.0024644516
94	0xbae6ea9c	-0.0017617526
95	0x3c498aec	0.012301188
96	0xbc03c413	-0.008042353
97	0x3d5ce7fd	0.05393218
98	0xbd4941dc	-0.049135074
99	0x3df032a3	0.11728408
100	0x3ce458b3	0.027874326
101	0x3caa42f1	0.020783873
102	0xbd403213	-0.046922754
103	0x3d71a272	0.05899281
104	0x3d210c76	0.039318524
105	0x3d8d18d1	0.06889499
106	0xbde475a9	-0.111552544
107	0x3dbb0a1e	0.09132789
108	0x3c9f756c	0.01946517
109	0x3e1fc5e0	0.15602827
110	0xbc773e83	-0.015090588
111	0x3dd8de0c	0.10589227
112	0x3dff93d0	0.12479365
113	0x3d4a8cfa	0.049450852
114	0x3e31c4b5	0.17360194
115	0xbd89f06d	-0.06735311
116	0x3e09235a	0.13392392
117	0xbcee3b5c	-0.02908104
118	0x3df97b9c	0.1218178
119	0x3dddb55f	0.108256094
120	0x3d14683e	0.036232226
121	0x3d000c50	0.031261742
122	0x3da65ea6	0.081235215
123	0x3e358970	0.1772821
124	0xbda4dd04	-0.08049968
125	0x3e093962	0.13400796
126	0x3dfe1be2	0.12407662
127	0x3d7c3384	0.061572567
128	0xbae61347	-0.0017553353
129	0xbd3122db	-0.04324613
130	0xbcccf60c	-0.025019668
131	0xbce2c2b6	-0.027680736
132	0xbdca7f9f	-0.09887623
133	0x3daae73f	0.08344888
134	0x3d7a8a5e	0.061167113
135	0xbe011094	-0.1260398
136	0x3d670b7f	0.056407448
137	0xbdc800af	-0.097657554
138	0xbd41ce9f	-0.04731619
139	0x3de88b33	0.11354675
140	0xbc0d8f1a	-0.008640075
141	0x3d8c29dd	0.06843922
142	0x3d2ad5e0	0.041707873
143	0x3c44fc5b	0.012023057
144	0xbdfb4c9d	-0.12270472
145	0x3d8ce2f6	0.06879227
146	0xbd5ba8f5	-0.053627927
147	0xbd950945	-0.07277159
148	0xbd1531ba	-0.036424376
149	0x3dc5a33b	0.09650274
150	0xbcf001c9	-0.029297726
151	0x3d77eb4a	0.060527124
152	0x3c97be3b	0.018523326
153	0xbdacc488	-0.08435923
154	0x3b4060b9	0.0029354526
155	0x3dcd63fd	0.10028837
156	0x3d96dadf	0.07365965
157	0xbc0d684a	-0.0086308215
158	0x3d3c7445	0.04600932
159	0x3d87d85a	0.06633063
160	0xbd5870be	-0.052841894
161	0xbd7061a8	-0.058686882
162	0x3d9b74d9	0.07590646
163	0x3da7f585	0.08201126
164	0x3ca4342a	0.020044405
165	0xbc3e3c2e	-0.011611028
166	0xbdaa315f	-0.08310198
167	0x3ae03543	0.0017105717
168	0xbdcdcb6f	-0.100485675
169	0xbcbb36a5	-0.022853205
170	0xb9677168	-0.00022072124
171	0x3d6a9db6	0.05727931
172	0x3dd7e8c1	0.10542441
173	0xbbafd71d	-0.0053662197
174	0x3cb4efb4	0.022086956
175	0xbd5adc52	-0.05343277
176	0xbd763e4b	-0.060118
177	0xbde328ea	-0.11091788
178	0x3d5cd937	0.05391809
179	0x393eb551	0.00018187358
180	0x3ddfe6c1	0.10932685
181	0x3d547c2d	0.051876236
182	0x3c1081de	0.008820025
183	0xbd2615de	-0.040548198
184	0x3dc0fba2	0.09422995
185	0xbdd66225	-0.10467938
186	0xbc29283e	-0.010324536
187	0x3ced900f	0.028999357
188	0xbdef4771	-0.11683548
189	0x3db06469	0.08612902
190	0xbcbd280e	-0.023090389
191	0x3ded8f9c	0.11599657
192	0x3d1acfec	0.037795946
193	0xbd0cde19	-0.034391496
194	0x3d6ffdef	0.05859178
195	0xbcc5ac82	-0.02413011
196	0xbd62778c	-0.05528979
197	0xbcd0f8ff	-0.025509356
198	0x3da59956	0.08085887
199	0x3d817f11	0.06323064
200	0x3dd36be5	0.103233136
201	0xbc489301	-0.01224208
202	0x3c999c00	0.018751144
203	0xbd36332f	-0.044482406
204	0x3e0445ce	0.12917253
205	0x3cacf126	0.021111082
206	0xbd92fe1e	-0.07177375
207	0x3cec7e28	0.02886875
208	0xbd34f08e	-0.044174723
209	0x3d0e67d4	0.034766987
210	0x3d1a56b7	0.037680354
211	0xbd5a43dc	-0.053287372
212	0xbda69538	-0.0813393
213	0xba3f5b99	-0.0007299721
214	0xbd8a07aa	-0.06739743
215	0x3df1e83b	0.118118726
216	0x3bfce82a	0.007718106
217	0x3db03b23	0.086050294
218	0x3debe9f2	0.11519231
219	0xbc6d36fc	-0.014478441
220	0x3d4474fa	0.04796312
221	0xbde840f7	-0.11340516
222	0x3d924b64	0.07143286
223	0x3dc6a688	0.09699732
224	0xbdfa08d4	-0.12208715
225	0x3e0f82cf	0.14014743
226	0x3dad58ee	0.084642276
227	0x3d93b2ee	0.072118625
228	0xbb34a2a5	-0.0027562764
229	0x3d30f4c5	0.04320218
230	0x3e1329e2	0.14371446
231	0x3dccaa30	0.09993398
232	0xbd439b2a	-0.047755398
233	0xbc019448	-0.007908888
234	0x3dde0765	0.10841254
235	0xbc778733	-0.015107918
236	0xbd337d0d	-0.04382043
237	0xbd45da97	-0.048304167
238	0x3d9a9026	0.075470254
239	0xbc8e891b	-0.017399361
240	0x3e186d02	0.14885333
241	0xbc84ec88	-0.016226068
242	0x3d92bfd2	0.07165493
243	0xbd559ea1	-0.052153233
244	0xbd75d28c	-0.060015246
245	0xbdd5b9ae	-0.10435806
246	0x3d927582	0.07151319
247	0x3d665012	0.056228705
248	0x3da3207a	0.07965179
249	0x3de5fcee	0.11229883
250	0x3d8a5c61	0.06755901
251	0x3cdcdc62	0.026960555
252	0x3d9945da	0.07484026
253	0xbdec45bd	-0.11536739
254	0x3e427fda	0.18994084
255	0xbdd23808	-0.10264593

lstm.bias_hh_l0 f4 [256]
0	0x3e078cd9	0.13237323
1	0xbc06354d	-0.008191419
2	0x3dea0b81	0.114279754
3	0x3dda81ae	0.10669266
4	0x3db9d3b9	0.09073586
5	0x3d45314c	0.048142716
6	0xbd52cc84	-0.051464573
7	0x3cdeacd8	0.027182028
8	0x3d1839dd	0.037164558
9	0x3da2f0f1	0.07956112
10	0x3d7afdf1	0.061277334
11	0x3dced0df	0.10098433
12	0xbc4ca1ac	-0.012489717
13	0xbd7f5172	-0.06233353
14	0x3ddecb4a	0.10878618
15	0x3dc94b6c	0.09828839
16	0x3e12a8f1	0.14322259
17	0xbda1e99c	-0.079058856
18	0x3b73827d	0.0037156634
19	0x3d06fdfd	0.032957066
20	0x3d19e3cd	0.037570763
21	0x3d82d135	0.06387559
22	0xbdbf7367	-0.09348183
23	0x3d8f9ea9	0.07012684
24	0x3ce2a0c0	0.027664542
25	0x3e0d6d02	0.13811114
26	0x3b0a6463	0.0021116964
27	0xbdd003ad	-0.10156951
28	0x3e007cf2	0.12547663
29	0x3c9af262	0.018914405
30	0x3cb1177e	0.021617647
31	0x3de7cd8f	0.11318504
32	0x3de0f75a	0.109846786
33	0xbc7f8ab9	-0.015597039
34	0xbccda165	-0.025101373
35	0xbce6f792	-0.028194223
36	0xbdb49da2	-0.088191286
37	0xbd7edde3	-0.062223326
38	0xbd0700b4	-0.032959655
39	0xbd1d635f	-0.038424846
40	0x3c61f645	0.013791625
41	0x3d53b264	0.0516838
42	0x3db63392	0.08896555
43	0x3d3a6249	0.04550389
44	0x3d8a85f6	0.06763832
45	0xbd607703	-0.054801
46	0x3d030589	0.0319877
47	0xbb8f9898	-0.0043822043
48	0x3d8e47d6	0.06947295
49	0x3df3d3ec	0.11905655
50	0x3df6dff4	0.120544344
51	0x3cf7b865	0.030239293
52	0x3d9c734f	0.07639181
53	0x3dd1fc75	0.102532305
54	0x3e19df15	0.15026505
55	0x3d8c72ef	0.06857859
56	0xbd6fc688	-0.058538944
57	0x3d9e308f	0.077241056
58	0x3d39a4fa	0.04532335
59	0x3df06e0c	0.1173974
60	0x3d45c426	0.048282765
61	0x3d2a762a	0.041616596
62	0x3da7137c	0.08158013
63	0x3d9b16e6	0.07572727
64	0x3e185070	0.14874434
65	0x3e3bc0e1	0.18335296
66	0xbdde5c51	-0.10857452
67	0x3e0887ad	0.13333006
68	0x3e263f7e	0.16235158
69	0xbcef1449	-0.029184477
70	0xbdc312eb	-0.09525093
71	0x3d952a6e	0.072834834
72	0x3d1a9b03	0.037745487
73	0x3decfe4c	0.11571941
74	0x3da2e4d9	0.079538055
75	0x3dc2105c	0.094757766
76	0xbdc693dd	-0.096961714
77	0xbcf11205	-0.029427538
78	0xbd604c09	-0.054760013
79	0x3cb5f07d	0.0222094
80	0x3e2d8d2a	0.16948381
81	0xbd5f19d8	-0.054468006
82	0x3dbd0ad7	0.09230583
83	0xbdd04cf4	-0.10170928
84	0x3de8e916	0.113725826
85	0xbdc527ff	-0.09626769
86	0xbd9eaf4b	-0.07748278
87	0xbd7829e8	-0.06058684
88	0x3db1a6dd	0.08674405
89	0xbd32189f	-0.04348051
90	0x3dc95996	0.0983154
91	0xbde078ba	-0.10960527
92	0x3d8bd009	0.06826789
93	0xbc632b2d	-0.013865274
94	0x3c9f63ed	0.019456828
95	0xbd882bff	-0.066490166
96	0x3df39dd7	0.1189534
97	0x3e0ca9fd	0.1373672
98	0xbdead952	-0.11467232
99	0xbc015be2	-0.007895442
100	0xbdc83179	-0.09775061
101	0xbd85085a	-0.064957336
102	0xbb7e55ff	-0.0038808582
103	0x3ddbdb5d	0.107351996
104	0xbd8eab2c	-0.06966242
105	0x3e506ee6	0.20354804
106	0x3de6c079	0.1126718
107	0x3dc40af5	0.095724024
108	0x3dc96340	0.098333836
109	0x3dcdda8b	0.100514494
110	0x3def2436	0.116768286
111	0x3dc28e38	0.09499782
112	0xbda8ff1e	-0.08251785
113	0x3d59ae08	0.053144485
114	0x3d996566	0.07490043
115	0xbd8c40fc	-0.06848332
116	0x3e195eaf	0.14977525
117	0xbcef0fd8	-0.02918236
118	0x3dc2ab13	0.09505286
119	0xbd3d0a95	-0.04615267
120	0x3dcafd87	0.09911638
121	0x3d287631	0.04112834
122	0xbcaa09ef	-0.02075669
123	0x3a9aed84	0.0011820053
124	0x3d242c27	0.04008117
125	0xbdbc595a	-0.0919673
126	0x3e212ef7	0.15740572
127	0xbde1680a	-0.11006172
128	0xbd9c5ca2	-0.07634856
129	0xb99bfb30	-0.00029751053
130	0xbd94a19e	-0.072573885
131	0x3d253d0f	0.040341433
132	0xbd91f661	-0.07127071
133	0xbd3e8d0e	-0.04652124
134	0x3d488e32	0.048963733
135	0x3d80b2f5	0.06284133
136	0xbd08782f	-0.03331774
137	0x3d221dc4	0.039579168
138	0xbdbdff1d	-0.092771746
139	0xbc9b6ae4	-0.018971868
140	0x3da522d0	0.080632806
141	0xbcb65fe7	-0.022262527
142	0xbe0f2d49	-0.13982119
143	0xbc42768c	-0.011869084
144	0xbcb049ce	-0.021519568
145	0x3cc56d0c	0.02409985
146	0xbcdf651f	-0.027269898
147	0xbd9df077	-0.07711881
148	0x3ced56b0	0.028972
149	0x3db46c0d	0.088096716
150	0xbcca6468	-0.02470608
151	0x3d342349	0.043978963
152	0x3cd39829	0.025829392
153	0xbb972bba	-0.004613367
154	0xbd0d7c41	-0.034542326
155	0xbbbfd02d	-0.005853674
156	0xbe1834c0	-0.14863873
157	0x3d86ca1f	0.0658152
158	0xbd259635	-0.04042645
159	0xbdd94299	-0.106084056
160	0xbda7fe86	-0.08202843
161	0x3a867fca	0.0010261473
162	0xbc6b4753	-0.014360267
163	0xbda215bf	-0.07914304
164	0x3d97c06f	0.07409751
165	0xbd78c5e8	-0.060735613
166	0xbd821033	-0.06350746
167	0x3d927fcf	0.07153284
168	0xbd8eea57	-0.069782905
169	0xbda539b8	-0.080676496
170	0xbd13101e	-0.035904042
171	0xbd544096	-0.051819406
172	0xb98ea4dd	-0.00027207183
173	0xbd8aa553	-0.06769814
174	0x3bed69d6	0.0072452826
175	0xbbab1c89	-0.0052219075
176	0x3def5a4f	0.11687147
177	0x3da1a268	0.07892305
178	0xbd0a2a4a	-0.033731736
179	0x3cf74db3	0.030188417
180	0xbde59997	-0.112109356
181	0xbdf1deaf	-0.11810052
182	0xbda5c9e8	-0.08095151
183	0xbd5da112	-0.054108687
184	0xbde466d0	-0.111524224
185	0x3d9ce2e1	0.07660461
186	0x3dc96fba	0.09835763
187	0xbde613b1	-0.112342246
188	0xbddeac5c	-0.10872719
189	0xbd44439a	-0.047916032
190	0x3dd9d6e0	0.10636687
191	0x3d2fc001	0.04290772
192	0x3d88b023	0.066742204
193	0x3e23b0bd	0.15985389
194	0x3dc780ad	0.0974134
195	0x3dedf0d1	0.11618198
196	0xbcfb240d	-0.030656839
197	0xbc9ff418	-0.019525573
198	0xbc87050f	-0.016481904
199	0xb98a256e	-0.00026349298
200	0x3d0eb9a7	0.03484502
201	0x3dded055	0.1087958
202	0xbd53aa3f	-0.05167603
203	0xbe002d6a	-0.12517324
204	0xbdcb3f67	-0.099242024
205	0x3d37c330	0.04486388
206	0xbd141bfa	-0.036159493
207	0x3d849483	0.06473639
208	0x3da98097	0.0827648
209	0x3d624ed8	0.055250973
210	0xbd32d799	-0.04366264
211	0x3d919ade	0.07109617
212	0x3dedb316	0.116064236
213	0x3d549601	0.051900867
214	0x3ccfaa34	0.025349714
215	0x3d4b6c42	0.04966379
216	0x3d9630ce	0.073335275
217	0x3e1548bf	0.14578532
218	0x3d96e0ab	0.07367071
219	0x3df260e0	0.11834884
220	0x3cd74f68	0.026282981
221	0x3d9873a7	0.07443934
222	0x3de8730f	0.11350071
223	0xbdbe8c82	-0.093041435
224	0xbb4da5fd	-0.0031379454
225	0xbdade7a6	-0.08491449
226	0xbdbd93be	-0.09256695
227	0x3db4bb6e	0.08824812
228	0xbdc26d02	-0.09493448
229	0x3e31ade3	0.17351489
230	0x3e107188	0.14105809
231	0xbd35fb47	-0.04442909
232	0xbdb41efe	-0.08794974
233	0x3d24f4a3	0.040272366
234	0xbdee4243	-0.11633732
235	0x3ded0351	0.11572898
236	0xbd307169	-0.043076906
237	0x3d8de650	0.06928694
238	0x3d10e956	0.035378776
239	0xbb834b42	-0.004006774
240	0xbd07b640	-0.03313279
241	0x3d96768d	0.073468305
242	0x3da8853f	0.0822854
243	0x3d220e06	0.039564155
244	0x3ca2e138	0.019882783
245	0xbd136b2b	-0.035990875
246	0x3c682fe9	0.014171579
247	0x3d7d76ac	0.061880752
248	0x3d9eff3f	0.07763528
249	0xbd7c5dda	-0.06161294
250	0xbd44252f	-0.047887024
251	0x3e0796f5	0.1324118
252	0x3daf88e8	0.08571035
253	0xbdf142c3	-0.11780312
254	0xbb32e910	-0.002729956
255	0xba22c524	-0.0006209186

lstm.weight_ih_l1 f4 [256, 64]
0	0xbd3b60b0	-0.045746505
1	0x3c9e7f24	0.019347735
2	0xbcf0125b	-0.029305628
3	0xbe1e1b0d	-0.15440007
4	0xbdc31682	-0.095257774
5	0x3d9fb00d	0.07797251
6	0x3c88483e	0.01663601
7	0x3e13ccb4	0.14433557
8	0x3dd4e588	0.10395342
9	0x3bc93e2f	0.006141446
10	0x3d5bae25	0.053632874
11	0xbce84009	-0.028350847
12	0x3d8bb222	0.068210855
13	0xbda9edb2	-0.0829729
14	0x3d791abc	0.06081651
15	0xbd2ac441	-0.04169107
16	0xbb87c728	-0.0041436143
17	0xb9dd3b44	-0.0004219656
18	0x3e1fba88	0.155985
19	0x3dfe6260	0.12421107
20	0xbd176157	-0.036958065
21	0xbbe52b28	-0.00699367
22	0xbcab43e4	-0.020906396
23	0x3de2c139	0.110720105
24	0xbdae0472	-0.084969416
25	0x3de6778a	0.11253269
26	0x3bd3b8fe	0.006461262
27	0x3d5b9588	0.0536094
28	0xbdb3a457	-0.0877158
29	0x3c55af4e	0.013042284
30	0x3d665f02	0.05624295
31	0x3e055ab1	0.13022877
32	0xbc730adb	-0.014834131
33	0x3c4a9bba	0.01236623
34	0xbd03adb7	-0.03214809
35	0x3c5e4cb4	0.013568092
36	0xbd7cc05e	-0.061706893
37	0xbc0aca13	-0.00847103
38	0xbd81b3ca	-0.0633312
39	0x3e00b58f	0.12569259
40	0xbc4968f5	-0.01229309
41	0xbd4f8322	-0.050662167
42	0xbc9ed536	-0.019388776
43	0xbd545c96	-0.05184611
44	0x3dbd966e	0.09257208
45	0x3d746ab2	0.059672065
46	0x3da577b0	0.08079469
47	0xbd083556	-0.03325399
48	0x3d611add	0.05495726
49	0x3dba156a	0.09086116
50	0xbdc4f49e	-0.096169695
51	0xbd737997	-0.05944213
52	0x3e0b5d1f	0.13609742
53	0x3d9dcb47	0.07704788
54	0x3d6964e7	0.056980994
55	0xbdf43456	-0.11924045
56	0xbd16390b	-0.036675494
57	0x3da68678	0.08131117
58	0xbde33032	-0.11093177
59	0x3bdc89f6	0.0067303134
60	0x3d95f683	0.07322409
61	0xbd975bc0	-0.07390547
62	0xbe7d58af	-0.24740861
63	0xbdb8af4e	-0.09017812
64	0x3dcad90d	0.099046804
65	0x3c805ed5	0.01567022
66	0x3d7ac07b	0.06121872
67	0xbd28a3cd	-0.041171838
68	0xbdcd15b5	-0.10013906
69	0x3dba898b	0.091082655
70	0xbda84dd0	-0.082179666
71	0x3d80e772	0.06294145
72	0x3d002513	0.031285357
73	0x3db336e1	0.08750702
74	0xbda1f25c	-0.079075545
75	0xbd43a438	-0.047764033
76	0xbdbf4554	-0.09339395
77	0x3d921d46	0.0713449
78	0x3c7fd0ec	0.015613776
79	0xbd5d8194	-0.054078653
80	0xbe291c1f	-0.16514634
81	0x3dc3cc54	0.09560457
82	0x3dfeec35	0.12447397
83	0xbda1f9ee	-0.079089984
84	0xbca53044	-0.020164616
85	0xbd1c89e2	-0.038217433
86	0xbdbf4dca	-0.09341009
87	0xbd97b20a	-0.07407005
88	0xbb25f899	-0.0025325178
89	0x3dd5b962	0.104357496
90	0xbdb31da7	-0.0874589
91	0x3dfebf9c	0.1243889
92	0xbbd51567	-0.0065027955
93	0xbdb345fe	-0.08753584
94	0xbda18262	-0.07886197
95	0x3dfb901c	0.12283346
96	0xbca5f2e8	-0.020257428
97	0x3d6f56f4	0.058432534
98	0x3c937d91	0.01800421
99	0x3dd16c57	0.10225742
100	0xbd9a2341	-0.075262554
101	0x3d01ae83	0.031660568
102	0x3d4d7157	0.050156917
103	0x3b93e796	0.004513691
104	0xbd858e2b	-0.06521257
105	0xbd98186e	-0.074265346
106	0xbc55d326	-0.01305083
107	0xbdffa418	-0.1248247
108	0xbdd7cbd9	-0.10536928
109	0x3d294462	0.04132498
110	0x3c972ef2	0.018455002
111	0xbd9e6e28	-0.077358544
112	0xbd465f0c	-0.048430488
113	0x3ba5c17c	0.0050584655
114	0x3d16ac2d	0.036785293
115	0x3d233182	0.039842136
116	0x3dcf6b75	0.10127918
117	0x3bee256f	0.007267646
118	0x3d9431b0	0.0723604
119	0xbdcad9ee	-0.09904848
120	0x3d56dafe	0.05245494
121	0xbd4b08b2	-0.04956884
122	0x3dac19c4	0.08403352
123	0x3d4bcc06	0.04975512
124	0xbc551eb3	-0.013007808
125	0xbd5f3a4c	-0.054498956
126	0xbc27531e	-0.010212688
127	0x3c2e21e2	0.0106281955
128	0x3c9b7cf7	0.018980486
129	0x3d60e8bc	0.054909453
130	0xbdd88183	-0.105715774
131	0xbd2afc00	-0.041744232
132	0xbdb0f9e4	-0.08641413
133	0xbdb0b6ac	-0.08628592
134	0xbd416c49	-0.04722241
135	0xbd26e3ad	-0.040744472
136	0x3d5a3a00	0.05327797
137	0x3d75fe4b	0.060056966
138	0x3d8906b6	0.06690733
139	0x3d529a9d	0.051416982
140	0x3ded9d36	0.11602251
141	0x3dcd2879	0.10017485
142	0x3d84303a	0.06454511
143	0x3daa5201	0.08316422
144	0xbdad9c5e	-0.0847709
145	0x3d6a9cd7	0.05727848
146	0x3dc4eca5	0.09615449
147	0xbdcc3087	-0.09970193
148	0xbdc48823	-0.095962785
149	0xbb7e37d9	-0.0038790612
150	0x3ce2eaae	0.027699795
151	0x3e0b3385	0.13593872
152	0xbe073c0a	-0.13206497
153	0x3dda671a	0.10664196
154	0xbcd2ae3e	-0.02571785
155	0xbb7a3ca0	-0.0038183108
156	0xbd3fd247	-0.046831395
157	0x3d57e558	0.052708954
158	0x3d83735c	0.064184874
159	0xbc31f1d2	-0.010860877
160	0xbdfb4778	-0.12269491
161	0xbc7c5842	-0.015401902
162	0xbde0ed49	-0.109827586
163	0xbe04661e	-0.1292958
164	0x3ca1c777	0.019748433
165	0x3d598f0a	0.05311493
166	0xbdd9df63	-0.10638311
167	0xbdcc9d1e	-0.09990905
168	0x3d61b6fe	0.055106156
169	0x3e1a96da	0.15096608
170	0xbdac4464	-0.08411482
171	0xbd88b205	-0.066745795
172	0x3d716d1d	0.05894195
173	0xbd62007d	-0.055176247
174	0xbd52d468	-0.051472098
175	0xbd490cf6	-0.049084626
176	0x3d7a7aef	0.061152395
177	0xbe3dd87c	-0.18539613
178	0xbe25aae6	-0.16178474
179	0x3cda1715	0.026622334
180	0x3c893c10	0.016752273
181	0x3d9ee0d0	0.07757723
182	0xbd4cd53c	-0.050008044
183	0x3bb1c94b	0.0054256073
184	0xbd5db023	-0.054123055
185	0xbdd7c930	-0.1053642
186	0xbe351874	-0.1768511
187	0x3cf73501	0.030176641
188	0xbd36ca1e	-0.044626348
189	0xbdcfcfc4	-0.1014705
190	0xbd7923d3	-0.06082518
191	0x3deee6aa	0.116650894
192	0xbd139875	-0.036034066
193	0xbe0a1c51	-0.13487364
194	0x3d92811d	0.07153533
195	0xbd31f9c4	-0.043451086
196	0x3d18f201	0.037340168
197	0xbd913f1c	-0.07092115
198	0x3de66ea9	0.112515755
199	0xbd0e7f2b	-0.034789246
200	0x3e03f692	0.12887028
201	0x3d888821	0.066665895
202	0x3dc0a645	0.094067134
203	0x3caf950d	0.021433378
204	0xbd97a37a	-0.074042276
205	0x3c09282f	0.008371397
206	0x3e0e2e4e	0.13884851
207	0xbde71ec8	-0.11285168
208	0xbb561262	-0.0032664766
209	0x3c991d61	0.018690767
210	0x3dbef03a	0.09323163
211	0xbdbf80d7	-0.09350746
212	0xbdc789e7	-0.097431
213	0x3d0a49b5	0.0337617
214	0xbd2cd2b5	-0.042193133
215	0xbd472da7	-0.04862752
216	0x3d1cd8d7	0.038292732
217	0x3e0e219f	0.13880013
218	0xbdbf580b	-0.09342965
219	0xbbc23db9	-0.005927768
220	0xbd031e72	-0.032011457
221	0xbc7985de	-0.01522967
222	0xbd72a2a5	-0.05923714
223	0x3df9fbb8	0.12206215
224	0x3d941de7	0.07232266
225	0x3d648e81	0.055799965
226	0xbd07278b	-0.032996695
227	0x3d9dfe37	0.07714503
228	0xbd3c19d2	-0.04592306
229	0xbdf581a0	-0.11987615
230	0xbd9ea74d	-0.07746754
231	0xbcbdfee3	-0.023192829
232	0xbdb19001	-0.08670045
233	0x3d11506d	0.03547709
234	0xbba19e6b	-0.004932215
235	0xbd95e727	-0.073194794
236	0xbda7bea0	-0.08190656
237	0x3ddc6a24	0.10762432
238	0x3ddbbee0	0.10729766
239	0xbda27e70	-0.07934272
240	0x3dc588ca	0.09645231
241	0x3bdd7da3	0.006759362
242	0xbd7ed158	-0.062211365
243	0x3d7800aa	0.06054751
244	0xbde8bea6	-0.11364488
245	0xbdd1ddda	-0.10247393
246	0xbc07b5a2	-0.008283051
247	0x3da61908	0.08110243
248	0x3da83b5d	0.08214448
249	0x3de40bfd	0.11135099
250	0x3d5a1eac	0.053251907
251	0x3d52aedb	0.051436286
252	0x3c8d1413	0.017221486
253	0xbd811e0b	-0.06304558
254	0x3da06480	0.07831669
255	0x3d914ff8	0.07095331

lstm.weight_hh_l1 f4 [256, 64]
0	0xbd6f691b	-0.058449846
1	0x3dd68243	0.10474064
2	0x3cc441ac	0.023957096
3	0xbd630a3f	-0.055429693
4	0x3d7f8255	0.062380154
5	0xbdde4963	-0.10853841
6	0x3d9d6fd4	0.07687345
7	0xbc17ea45	-0.009272163
8	0x3a834610	0.0010015387
9	0xbd458d56	-0.04823049
10	0x3d3338d9	0.043755386
11	0x3dc00c32	0.09377326
12	0x3bdc9e84	0.0067327637
13	0xbdb11682	-0.08646871
14	0x3d3c086a	0.04590646
15	0x3d8e9f03	0.06963923
16	0xbdeb4e73	-0.114895724
17	0xbdb5c1f0	-0.08874881
18	0xbd398f14	-0.045302466
19	0xbd13798f	-0.0360046
20	0x3dd6ac0c	0.10482034
21	0x3d008ce3	0.03138436
22	0x3d201602	0.03908349
23	0xbdac4651	-0.08411849
24	0x3db71c9f	0.08941006
25	0x3d9504ac	0.07276282
26	0x3c37fe74	0.0112301
27	0x3dcf9d8b	0.10137471
28	0x3d2e5cae	0.042568855
29	0x3ddacc54	0.10683504
30	0xbc724344	-0.014786545
31	0xbcaae65b	-0.020861795
32	0x3e0f2ed1	0.13982703
33	0xbdf485be	-0.11939572
34	0x3de46c68	0.11153489
35	0xbc2bc462	-0.010483833
36	0xbc939834	-0.018016912
37	0xbcb70aca	-0.022344012
38	0xbc815715	-0.015788594
39	0x3df4ea3e	0.11958741
40	0xbd032e5c	-0.032026634
41	0xbc5d2ae0	-0.013498992
42	0x3cce9569	0.025217729
43	0x3d103249	0.035204206
44	0x3d111c98	0.03542766
45	0x3dd7a2a1	0.10529066
46	0x3df597e8	0.119918644
47	0x3d109657	0.035299625
48	0xbd91aa76	-0.07112591
49	0xbda5d5aa	-0.08097394
50	0xbdadd339	-0.08487553
51	0xbd608323	-0.05481256
52	0x3da4ac6b	0.080406986
53	0xbdb87d04	-0.0900822
54	0x3cb71497	0.022348685
55	0xbd1e0d47	-0.03858688
56	0xbc46d3a0	-0.012135416
57	0xbdeb0db8	-0.11477226
58	0xbd57518a	-0.052567996
59	0x3c649a61	0.013952822
60	0xbdb5a580	-0.08869457
61	0xbd96f87f	-0.073716156
62	0xbd31f3a5	-0.04344525
63	0x3d805e23	0.06267955
64	0x3d6a15d5	0.057149727
65	0x3c10f0d3	0.0088464795
66	0xbd620d1d	-0.055188287
67	0x3cd9dabf	0.026593564
68	0xbdc77ae4	-0.097402364
69	0xbdb90e4b	-0.09035929
70	0x3b601850	0.003419418
71	0xbde78c02	-0.11306001
72	0x3c877dca	0.016539473
73	0x3d9e9f79	0.07745261
74	0xbb3e11ed	-0.0029002384
75	0x3caa75df	0.020808158
76	0xbcdbf506	-0.026850235
77	0xbd2d178a	-0.042258777
78	0xbdcdf1d9	-0.100558944
79	0x3dc0c51b	0.09412595
80	0xbcfc0897	-0.030765815
81	0xbd6ccb63	-0.057811152
82	0x3d7f6c91	0.062359396
83	0x3dd38139	0.10327382
84	0x3dd45de1	0.103694685
85	0xbd3a77bd	-0.045524348
86	0xbc0f234d	-0.008736444
87	0xbce0f617	-0.027461095
88	0xbc229ee5	-0.009925579
89	0xbdd992b7	-0.10623687
90	0xbbf0705d	-0.0073376135
91	0x3e05e748	0.13076508
92	0x3c0b1824	0.008489642
93	0xbd9cdb9d	-0.076590754
94	0x3cb23ee2	0.0217585
95	0x3d76e6a6	0.060278557
96	0x3c4ad946	0.012380904
97	0x3dd36435	0.10321847
98	0xbddc5460	-0.10758281
99	0x3e034232	0.1281822
100	0xbdf612f3	-0.12015333
101	0x3d5e6dc3	0.054303896
102	0xbd4118cc	-0.04714279
103	0x3d6deb88	0.05808595
104	0x3dbb345b	0.091408454
105	0x3d0a89c0	0.033822775
106	0x3c164286	0.009171134
107	0x3e0d1249	0.13776506
108	0x3d79a7f0	0.060951173
109	0x3d3ec7f3	0.046577405
110	0xbc6613ee	-0.014042838
111	0x3daf35ec	0.08555207
112	0x3db50440	0.08838701
113	0x3c9277c4	0.017879374
114	0x3d4bd063	0.04975928
115	0x3de5782d	0.11204562
116	0x3d9e57d5	0.077315964
117	0xbd681ec7	-0.056669977
118	0x3de22b6f	0.110434406
119	0xbd66dde5	-0.05636396
120	0x3d3cbadc	0.04607664
121	0xbdc03f3d	-0.09387062
122	0x3d966c31	0.073448546
123	0xbcf70fe3	-0.030158943
124	0xbca6ca13	-0.020360028
125	0xbd2dbf2e	-0.04241865
126	0x3df70b73	0.12062731
127	0x3d2f03bd	0.042728174
128	0xbc67eebc	-0.01415604
129	0x3d161108	0.036637336
130	0xbd6d3671	-0.057913247
131	0x3df8a9b5	0.12141744
132	0x3d7fe536	0.062474452
133	0x3df944e3	0.12171342
134	0xbd802625	-0.062572755
135	0x3bdf7a1b	0.006819976
136	0xb9923890	-0.00027889432
137	0xbd69dd3a	-0.057095744
138	0x3dd2b2f7	0.10288041
139	0x3cb3cb0d	0.021947408
140	0xbcad618b	-0.021164676
141	0x3de45d3c	0.111505955
142	0xbbf1add8	-0.00737546
143	0x3de5f0f9	0.112276025
144	0x3d029ae8	0.03188601
145	0x3d74ee04	0.059797302
146	0x3d4cdf8b	0.050017875
147	0xbc9f3aa9	-0.019437151
148	0x3db29668	0.08720094
149	0xbd793368	-0.06084004
150	0xbdc86451	-0.09784759
151	0xbd97ad9c	-0.0740616
152	0x3d5807fc	0.05274199
153	0xbd3ad0d7	-0.04560932
154	0x3deb86a7	0.11500292
155	0x3db32993	0.08748164
156	0xbdce3346	-0.100683734
157	0x3db6dd90	0.089289784
158	0xbd897fc6	-0.06713824
159	0xbabd825d	-0.0014458407
160	0xbdde0d77	-0.10842412
161	0xbcdf3c57	-0.027250452
162	0x3d89010e	0.06689654
163	0x3b639316	0.0034725121
164	0xbb6f0afb	-0.003647505
165	0x3d769881	0.060204033
166	0x3e09f07c	0.13470644
167	0xbc91da7c	-0.017804377
168	0x3cfe2d95	0.031027595
169	0x3b23315a	0.0024901242
170	0x3bbcd6b3	0.005762899
171	0x3e2fbc65	0.1716171
172	0xbd42bb41	-0.04754186
173	0x3cbe3632	0.023219202
174	0x3d3def27	0.04637065
175	0x3ce7bde4	0.02828879
176	0x3d7aa471	0.06119198
177	0x3d55757c	0.052113995
178	0x3d795735	0.060874183
179	0xbcfedaf0	-0.031110257
180	0x3da0af3d	0.07845924
181	0x3cadeabc	0.021230094
182	0xbd14387a	-0.036186673
183	0xbdaf1710	-0.08549321
184	0x3dd10709	0.1020642
185	0x3dc91050	0.098175645
186	0x3de0d65a	0.10978384
187	0xbded445e	-0.11585306
188	0xbcaebfbb	-0.021331659
189	0xbceefcf0	-0.029173344
190	0x3dccd59a	0.10001679
191	0x3dcbf1bf	0.09958219
192	0xbc1836ec	-0.009290438
193	0x3df9a2e7	0.12189274
194	0x3dd528ba	0.104081586
195	0xbdaca386	-0.08429627
196	0xbd29818d	-0.041383315
197	0x3d83863c	0.064220876
198	0xb7ca2885	-2.4099145e-05
199	0xbdda2253	-0.10651078
200	0x3c128ee2	0.008945199
201	0x3e002206	0.12512979
202	0x3d70830d	0.05871873
203	0xbdd2e0e5	-0.102968015
204	0xbb5e124b	-0.0033885415
205	0x3d4900e0	0.0490731
206	0xbc8f780e	-0.017513301
207	0xbd287d42	-0.04113508
208	0xbdf59447	-0.11991172
209	0x3bdbd141	0.0067082946
210	0xbd86c69e	-0.06580852
211	0xbdb57883	-0.088608764
212	0x3bbedc24	0.0058245827
213	0x3d1b1406	0.037860893
214	0xbdb4486d	-0.088028766
215	0xbd94cb39	-0.07265324
216	0x3cc13c6f	0.023588387
217	0xbdec6c2c	-0.1154407
218	0xbdfd42a7	-0.123662286
219	0xbdb7b9ea	-0.08971007
220	0xbde9ab36	-0.11409609
221	0x3df44ab1	0.11928309
222	0x3dfb065f	0.122570746
223	0x3d2e2aff	0.042521473
224	0x3d83adc4	0.064296275
225	0x3db0750e	0.086160764
226	0x3d81644d	0.06317959
227	0xbd48345c	-0.04887806
228	0xbddfa74d	-0.10920582
229	0xbcc8047e	-0.024416205
230	0xbd4ffd5e	-0.05077874
231	0x3d6946fc	0.05695246
232	0x3bc9b15e	0.006155177
233	0xbd70d007	-0.05879214
234	0xbd5d3dbf	-0.054013964
235	0x3ab9822a	0.0014153172
236	0xbd6dd1b6	-0.058061324
237	0x3c25aec7	0.010112471
238	0xbdddfb07	-0.10838895
239	0xbda83d9e	-0.082148775
240	0x3d0e3e4b	0.034727376
241	0x3c11acf6	0.008891335
242	0xbcf962a6	-0.030442547
243	0x3d42d795	0.047568876
244	0xbd09474d	-0.033515263
245	0x3dddd5f2	0.108318225
246	0xbdd70daa	-0.10500653
247	0x3d3bc3cf	0.045841035
248	0xbbc14849	-0.0058985096
249	0x3da540f4	0.080690295
250	0xbde35471	-0.1110009
251	0x3cd8321e	0.026391085
252	0xbd07e076	-0.033173047
253	0xbd551156	-0.052018486
254	0x3cf10f59	0.029426264
255	0x3b37e0db	0.0028057608

lstm.bias_ih_l1 f4 [256]
0	0xbdcb8870	-0.09938133
1	0xbd6001da	-0.054689266
2	0x3d4fd36c	0.050738737
3	0xbcdf8027	-0.027282787
4	0xbd9a5689	-0.075360365
5	0xbcd882ef	-0.026429622
6	0xbe155215	-0.14582093
7	0x3dad0587	0.0844832
8	0x3cefd038	0.029274091
9	0xbdde9d8d	-0.10869894
10	0xbd2de83f	-0.042457815
11	0x3baaab7e	0.0052084317
12	0x3ca43315	0.020043889
13	0xbd829443	-0.06375935
14	0xbd597186	-0.05308678
15	0x3daadc82	0.0834284
16	0xbd6f7d76	-0.05846926
17	0x3c9fb783	0.019496685
18	0x3db49445	0.08817343
19	0xbcb35ddd	-0.021895343
20	0x3da34402	0.07971956
21	0xbdee8d66	-0.11648063
22	0xbd92a8d2	-0.07161106
23	0xbd883710	-0.06651127
24	0xbdb3034b	-0.087408625
25	0x3d349be2	0.044093974
26	0xbc067941	-0.00820762
27	0xbcf7c352	-0.030244503
28	0x3d2217b1	0.039573375
29	0x3dab10fb	0.08352848
30	0xbded15eb	-0.11576446
31	0x3d40601e	0.046966664
32	0x3d99e02a	0.07513459
33	0x3d893830	0.0670017
34	0xbd26ab15	-0.0406905
35	0xbdf53de7	-0.119746976
36	0xbdd08211	-0.10181058
37	0xbd92dfab	-0.071715675
38	0x3da8e39d	0.08246539
39	0x3db4ebec	0.08834061
40	0xbe16c637	-0.1472405
41	0xbe0a4a8a	-0.13504997
42	0x3db66094	0.089051396
43	0x3d37c0bd	0.044861544
44	0x3dbaedb8	0.091273725
45	0x3cb54a91	0.022130283
46	0xbda15e9b	-0.07879373
47	0x3d71b2e6	0.0590085
48	0x3c3d1a45	0.011541908
49	0xbd884923	-0.06654575
50	0x3d0be7c9	0.034156594
51	0xbdb550fa	-0.08853336
52	0x3d026cba	0.03184197
53	0xbd9c8e9e	-0.076443896
54	0xbdb8668d	-0.09003935
55	0xbd1a9aa6	-0.03774514
56	0x3c6dad10	0.014506593
57	0x3d75587c	0.05989884
58	0xbddd4748	-0.108046114
59	0xbd6714f9	-0.056416485
60	0xbd5c9478	-0.05385253
61	0x3dfab952	0.12242378
62	0x3dee7529	0.1164344
63	0xbda2fe6f	-0.079586856
64	0x3b80b5d7	0.003927927
65	0xbde50127	-0.111818604
66	0xbdf4258d	-0.11921225
67	0x3d39d8a0	0.045372605
68	0x3ca28afc	0.019841664
69	0xbe298195	-0.16553338
70	0x3b65ea8c	0.0035082428
71	0xbda8d3ce	-0.082435235
72	0x3c8815f4	0.01661203
73	0x3de523c9	0.11188466
74	0x3cafb872	0.021450255
75	0xbdff5973	-0.12468233
76	0xbd950997	-0.0727722
77	0x3d4a26d5	0.04935344
78	0xbd085b39	-0.03329012
79	0xbd87ce55	-0.066311516
80	0xbdd43db9	-0.10363335
81	0x3b12459a	0.0022319318
82	0x3df45876	0.11930935
83	0x3c0d827b	0.008637066
84	0xbdda1271	-0.10648049
85	0xbda552f7	-0.08072465
86	0x3d963a99	0.07335395
87	0xbdda9c7a	-0.10674377
88	0x3c9f6191	0.019455703
89	0x3d4aff7c	0.049560055
90	0xbcfebda0	-0.03109628
91	0x3da22377	0.07916921
92	0x3d816bb1	0.06319369
93	0x3d6d11b8	0.057878226
94	0xbdf0e994	-0.117633015
95	0xbd9ff33b	-0.078100644
96	0x3d6f1365	0.058368105
97	0xbcc0db97	-0.023542209
98	0x3d448b2e	0.047984295
99	0xbd66b86a	-0.056328215
100	0xbcd5ff0a	-0.026122589
101	0xbda531e3	-0.08066156
102	0x3ca546ba	0.020175327
103	0xbd80f21c	-0.06296179
104	0xbd2b92c9	-0.041888032
105	0x3d38ea6a	0.04514543
106	0x3dbc00a6	0.09179811
107	0xbd35cdeb	-0.04438583
108	0x3d378118	0.044800848
109	0x3d38b582	0.045094974
110	0xbdb4eb4a	-0.0883394
111	0xbdba5140	-0.090975285
112	0xbd2014ce	-0.03908234
113	0xbdf5977f	-0.11991786
114	0x3db9af4c	0.09066638
115	0x3d288c26	0.04114928
116	0xbdebfc9f	-0.11522793
117	0x3de520ce	0.111878976
118	0xbd85f6c5	-0.06541208
119	0xbc283c0e	-0.010268224
120	0xbce6a4d4	-0.028154768
121	0x3d675847	0.056480672
122	0xbd73f094	-0.059555605
123	0xbd160481	-0.03662539
124	0xbdc33065	-0.09530715
125	0xbda41fd5	-0.08013884
126	0x3dee8217	0.116459064
127	0xbbd9db44	-0.006648453
128	0xbdaa58a9	-0.08317692
129	0xbd52e643	-0.051489126
130	0xbd0e536a	-0.03474752
131	0x3dfe30e7	0.12411671
132	0x3ce72f9a	0.02822094
133	0xbd5521a2	-0.052034028
134	0xbd5e2844	-0.05423762
135	0x3dca882e	0.098892555
136	0x3cad14c9	0.021128075
137	0xbccc7372	-0.024957392
138	0x3ca2da1d	0.019879395
139	0x3d531256	0.05153116
140	0xbdbd8e5b	-0.09255668
141	0xbdab41aa	-0.08362134
142	0x3d3da868	0.046303183
143	0x3d909091	0.07058824
144	0xbd354684	-0.044256702
145	0x3d838c86	0.06423287
146	0xbd91dbcf	-0.07122003
147	0xbda815c6	-0.08207278
148	0xbd83c8d4	-0.06434789
149	0xbddf442d	-0.109016754
150	0x3def2d14	0.1167852
151	0x3dcd31b2	0.10019244
152	0xbd67692f	-0.056496795
153	0x3d3947f2	0.045234628
154	0xbd27dde8	-0.04098311
155	0x3dec7d57	0.11547344
156	0xbd977f17	-0.07397287
157	0x3deb1066	0.11477737
158	0x3d98fe7f	0.07470416
159	0x3d057748	0.03258446
160	0xbd47d486	-0.048786663
161	0x3db8c2d0	0.090215325
162	0x3d52d9bc	0.05147718
163	0x3daf0a63	0.08546903
164	0xbdae2d37	-0.08504718
165	0xbdc58e83	-0.096463226
166	0xbcf4d15e	-0.02988499
167	0xbc7d00e8	-0.015442111
168	0xbddaebed	-0.106895305
169	0xbcb49acd	-0.022046471
170	0xb95307dd	-0.00020125457
171	0x3dc6407f	0.096802704
172	0x3de88c70	0.11354911
173	0x3d253815	0.040336687
174	0x3dcb12ac	0.09915671
175	0xbdeab4ee	-0.11460291
176	0xbd71bd05	-0.059018154
177	0xbd90e11d	-0.07074187
178	0xbd92deba	-0.07171388
179	0xbd9c7bf9	-0.076408334
180	0x3b84a280	0.004047692
181	0xbbc5464a	-0.006020342
182	0xbcdaea53	-0.026723063
183	0xbd4c5dfc	-0.049894318
184	0x3db01248	0.08597237
185	0xbd540193	-0.051759314
186	0x3d3b7f1d	0.04577552
187	0xbdd8c8de	-0.105851874
188	0x3d71f5b0	0.059072196
189	0x3cfd5e50	0.03092876
190	0xbc18ba79	-0.009321802
191	0xba7e8ef4	-0.0009710633
192	0x3d3d457f	0.046208855
193	0x3d917ed1	0.071042664
194	0x3dd843fa	0.105598405
195	0xbe00799b	-0.12546389
196	0x3dc8f4bb	0.09812304
197	0x3cc62f86	0.024192583
198	0x3afdd885	0.0019366896
199	0x3c78fd89	0.015197166
200	0x3d4c7c8e	0.049923472
201	0xbd06e002	-0.032928474
202	0x3d86a54d	0.06574497
203	0xbdc8b95f	-0.09800982
204	0xbdb6e6f7	-0.08930772
205	0x3d1087c7	0.035285737
206	0xbddb7e06	-0.107173964
207	0x3def73ee	0.11692034
208	0xbcacc4c6	-0.021089923
209	0xbcf90321	-0.030397
210	0xbdcf5d2c	-0.10125193
211	0x3ca0541d	0.019571358
212	0x3de303d3	0.11084714
213	0xbdd74e4d	-0.105129816
214	0xbc8ad80b	-0.01694872
215	0x3dfcb2aa	0.12338765
216	0x3d7a82e2	0.061159976
217	0x3de08f1d	0.10964797
218	0xbd3ee59b	-0.046605688
219	0x3bdc115d	0.006715937
220	0x3d80c95b	0.062884055
221	0xbd962719	-0.07331676
222	0xbdcdb659	-0.10044546
223	0x3de49ebc	0.11163089
224	0xbdf61a5e	-0.12016748
225	0xbd9f69a8	-0.07783824
226	0xbcd4ee0f	-0.025992421
227	0x3defd962	0.11711384
228	0xbce099f2	-0.027417157
229	0xbdd0c372	-0.10193528
230	0xbb7379d5	-0.0037151475
231	0xbdcf26a5	-0.10114793
232	0x3d31975b	0.043357234
233	0xbdf30293	-0.11865725
234	0x3d6458d9	0.055748794
235	0x3decaa63	0.11555936
236	0x3d9596d6	0.0730416
237	0xbbe1f7b9	-0.006895986
238	0x3d1b7233	0.037950706
239	0xbde4094b	-0.11134585
240	0x3d0530da	0.03251729
241	0x3c93f506	0.018061172
242	0xbddb6067	-0.10711747
243	0xbdc75a7f	-0.09734058
244	0xbd9167a1	-0.07099844
245	0xbdaafa04	-0.08348468
246	0x3ddafb4a	0.10692461
247	0x3dbe205a	0.09283514
248	0x3d92a033	0.07159462
249	0x3dcef680	0.1010561
250	0xbc92895d	-0.017887766
251	0xbdfc11d0	-0.12308085
252	0x3cc03e77	0.023467286
253	0x3c9fb3fd	0.019495005
254	0xbd6a0a43	-0.057138693
255	0x3da82b86	0.082114264
