nvda_lstm_v7_multistock/V7_2 Sieu Bot 144 loi nhuat_catlo_7_%/best_finetune.pth (torch, 368258 bytes, 15 tensors)

lstm.weight_ih_l0 f4 [256, 22]
00000000: 46d5 853e 5aec 933e 8c27 fbbc a8f1 04be
00000010: 505b 003e c415 c93b e90b f0bd d78f da3d
00000020: 392e 0cbe ec38 1ebe 99e0 83bc b7cf 4abd
00000030: e982 5abd 026f bbbd a08e f1bd bf97 26be
00000040: 18e8 833d b83f 9c3c b718 0f3d 13be 863d
00000050: 4471 60bd 0f55 b7bd 8650 f13c 9fc4 1ebe
00000060: 9378 4e3e 97e0 903c 473a 97bd 053f 0c3e
00000070: b3f8 913e 958e 993d 820b 95bd 795f 103d
00000080: ffde 173e d1a1 6b3d db99 bd3c a1ac 4bbd
00000090: dfd1 a83e 4650 b0bc e4e9 e93d 5453 503e
000000a0: 17c1 203e a45b dfbd b1b4 ac3e 3b16 2e3e
000000b0: 4575 113d 9c8c cebd 2577 08be f2d4 34bd
000000c0: ada2 2f3c 53dd 28bd 0c96 003d 54f0 2a3d
000000d0: 7175 00be b3e9 b2bd ac7d d03c 9212 8c3b
000000e0: 27d8 bdbd 9960 3b3c a68b 98bd fbcd 413e
000000f0: 4456 20bc a516 853b dd36 75bc bd27 65bd
00000100: fb20 75bd 08f2 543d f7b7 b73d 58a6 b83d
00000110: e4fb e23d 964b 373e a054 833e 56f4 fc3c
00000120: aba3 183e 02a4 a93c 887e 723e b4b5 e13d
00000130: 8cc1 603e b43c 573e f562 ec3d 8ce4 d63d
00000140: 200d a73e a95a 203e 66e2 213e 0f06 65bd
00000150: 7a9e 2abd a898 0b3e 52c5 7ebd 031f 7e3e
00000160: a624 353e 77e0 21bd a680 033d 0b14 813d
00000170: 62d1 433e 7d70 00be 973d 2abe a0d3 5a3d
00000180: 2de4 a3bd e98c 8fbc e66a f3bc 5841 433d
00000190: b695 1a3d c760 82bc 54eb 36bd 8692 85bd
000001a0: 90d9 c03b 6bfb 2abd bc86 16bd 5b6c 73bc
000001b0: 6f8a 41be 52e1 543d 4a86 903e 41bc 103e
000001c0: e36b fdbc 70f7 3fbd 5c97 b03d 8433 b5bd
000001d0: 4eef 2a3e 6263 73bd c8ef f13d cd6b ba3d
000001e0: 1212 d3bd ecc0 0a3d 3f3e e63d 18ec aabc
000001f0: 236c 23bf 7776 53be c355 d83b a08c 233c
00000200: 5258 593b 130e bc3e a93f a2bd 87be a93c
00000210: 1117 7e3e 8e30 b73d 0715 ccbd a053 063c
00000220: 0de2 033e 21ec eb3d c952 e6bd f4cc fcbc
00000230: 44a5 20bd 1eac cdbd a316 e13d be59 2c3e
00000240: 6f75 283d 8ff0 a9bb 9336 c23b eba5 72bd
00000250: f43e 9bbb 50bf 9bbd f457 c3bd d031 9cbd
00000260: 8cdd 763e 3bc0 f5bd 683e 4c3e 3004 053e
00000270: be9b 31bd f920 863d e51b 0f3e b918 9ebc
00000280: d282 29bd b044 a23c 400f 5ebc 5fef c9bd
00000290: 8b3b 6b3d 84e9 2abe b55d 1cbc 4f8b 4f3c
000002a0: 2e4b 593c 0e83 c2be c119 383e 8d15 05be
000002b0: 5a06 debd a37a 9b3d cd26 36bc 9056 4fbc
000002c0: 508f 6f3d 1b69 2abe c9ab 3c3d 9caa 2dbd
000002d0: 7cae 753d 36c0 5dbd b6f6 a9bc 336d c2bb
000002e0: ccb2 febd 650e 8d3d b8cf 233e 5079 1dbe
000002f0: a095 4dbb 526e 5bbd 7ae3 4f3e 2b23 b53e
00000300: 0cfc 6bbb 59e6 2e3e 94ee bd3d 25dd 8ebc
00000310: cf52 88bb 3821 043e abdd e2bc dacb 873b
00000320: 5855 b13c 69bd 3bbe bfad f43d 27ff 89bd
00000330: e462 e33c 7381 843d b831 3b3b aea3 89bd
00000340: 035c 523e 7561 503d f83a c2bc 28b1 d43d
00000350: b022 ddbb 4c96 9dbe d8f0 703d 006c d5bd
00000360: cce5 0c3d dd26 c53d 9e12 f9bc e7e7 533d
00000370: 92b4 31bd fc42 b7bc a0d5 a4bc f00b 15bd
00000380: 4eae 243e 8703 2ebd a3df 3abc 4630 27bd
00000390: dd9b e7bd 3798 0fbd 70c5 333e 8300 213c
000003a0: b404 003d c26f 143e de4d c73e 6484 96bd
000003b0: e04e e33a 1e3a 09be 27bb a53e 8fe9 b63c
000003c0: 7ecd 9b3e 101d 4a3d e831 523d 2301 f13d
000003d0: 319a 1f3d 8769 bc3d b688 093e 0c36 213e
000003e0: b466 40be cda1 30bd 1301 233e d149 933d
000003f0: cabc 103d 77e2 163d c366 2e3e 76aa 48bd
0.26139277 0.2889126 -0.030658506 -0.1298281 0.12534833 0.006136628 -0.11721022 0.106719665
-0.13689508 -0.15451401 -0.016098307 -0.0495145 -0.053347502 -0.091520324 -0.11794782 -0.16268824
0.06440753 0.019073352 0.03493568 0.065792225 -0.05479552 -0.089517705 0.029457342 -0.15504692
0.20163183 0.017685218 -0.073841624 0.13695915 0.28510055 0.074978985 -0.072775856 0.0352473
0.1483116 0.057527367 0.023144653 -0.04972518 0.3297262 -0.021522652 0.11421564 0.20344287
0.15698658 -0.10906151 0.33731607 0.17000668 0.035512228 -0.10085413 -0.133267 -0.044148393
0.010719937 -0.041226696 0.031393096 0.0417331 -0.125448 -0.08735981 0.02545055 0.0042746747
-0.092697434 0.011436605 -0.07448511 0.18926232 -0.009786192 0.0040615373 -0.014966694 -0.0559461
-0.059845906 0.05198863 0.089706354 0.090161026 0.110832006 0.17899927 0.256505 0.030878227
0.14906184 0.020708088 0.2368108 0.11020985 0.21948832 0.2101925 0.11542312 0.104928106
0.326272 0.15659584 0.1580902 -0.05591398 -0.04165504 0.13632452 -0.062199898 0.24816518
0.17689762 -0.039520707 0.03210511 0.06302651 0.19122842 -0.12542911 -0.16625057 0.053424478
-0.080025055 -0.017523246 -0.02971406 0.04766974 0.03774043 -0.015915288 -0.04465802 -0.06522088
0.0058853105 -0.041743677 -0.036749586 -0.014857377 -0.18900464 0.051972695 0.28227454 0.14134313
-0.030935233 -0.046866834 0.086226195 -0.088477165 0.1669285 -0.05942095 0.11813313 0.091025926
-0.10306181 0.03387539 0.11242341 -0.020864531 -0.6383688 -0.2065066 0.0066020205 0.009982258
0.0033164215 0.36729488 -0.079222985 0.020720733 0.24813487 0.08944808 -0.09964948 0.008198649
0.128792 0.115196474 -0.11246259 -0.030859448 -0.03922011 -0.100425944 0.10990646 0.16831109
0.04112762 -0.0051861475 0.005926916 -0.059240263 -0.004737729 -0.07604849 -0.0953826 -0.076266885
0.24107951 -0.11999556 0.19945681 0.12989879 -0.043361418 0.06549258 0.13975485 -0.019298898
-0.041384526 0.019808143 -0.013553441 -0.098601095 0.05742983 -0.16690642 -0.009543826 0.012667491
0.013262553 -0.37990612 0.17978574 -0.12996502 -0.10841055 0.075917505 -0.011117649 -0.012654915
0.058486283 -0.16641657 0.046062265 -0.042399034 0.059980854 -0.054138385 -0.020747524 -0.0059334277
-0.124364465 0.06887511 0.15997207 -0.15378308 -0.00313697 -0.053572007 0.20301619 0.35378394
-0.0036008386 0.17080058 0.09274021 -0.017439434 -0.004160262 0.12903297 -0.02769359 0.004144174
0.02164714 -0.18333973 0.11947202 -0.067381196 0.027757116 0.06470003 0.002856357 -0.067206725
0.20542912 0.050874192 -0.02370976 0.103853524 -0.00674852 -0.3077873 0.058823436 -0.1042099
0.03439884 0.09626553 -0.030404385 0.05173483 -0.043385096 -0.022370808 -0.020121396 -0.036388338
0.16082117 -0.042483833 -0.011405858 -0.04081752 -0.113090254 -0.035057273 0.17555785 0.009826782
0.031254485 0.14495757 0.38926595 -0.0734947 0.0017342232 -0.13401076 0.32369348 0.022328166
0.30430216 0.049344122 0.051317126 0.11767795 0.038965408 0.09199815 0.13431057 0.15743273
-0.18789178 -0.043123055 0.15918379 0.07191814 0.035336293 0.036837067 0.17031388 -0.04899069

lstm.weight_hh_l0 f4 [256, 64]
00000000: 2b90 1d3e 414a 9e3d 4da9 2c3d 02e0 17be
00000010: 125f 8bbe 2075 33be b9e4 403d b7f2 9e3b
00000020: 58ce c63d a847 d93b f023 d7bc c9b6 78bd
00000030: 17d6 a53d 8555 11be 2e7f ed3d 2592 04be
00000040: aea0 553c 9c37 ff3d dc91 8dbd 495c a03d
00000050: 8dc7 f5bd d039 e93d 1da6 42be 9d97 b43d
00000060: 9255 29be d8aa 32bb 293a b73d 03ca a03d
00000070: c480 a83d bed8 dd3d 984b f53d a7b1 a53c
00000080: ef9e 38be cf1e ac3d 4a71 433d 02d1 1f3d
00000090: efd4 0dbe 000e 74be 5674 28bd 278a e4bd
000000a0: 43bf fb3b b4f8 953e 10cc d03d 4ade 25be
000000b0: 8614 ac3c 1b94 223e cbd9 2a3d 423a 9dbd
000000c0: ab33 95bd 1709 dabc afe6 87bd 0e91 4cbe
000000d0: 4ef2 d2bc 06aa 29be 1afc ff3d e7d4 61bd
000000e0: eadb bfbd 7fe7 bf3d 355f 6dbc 58f2 1ebe
000000f0: 6c44 65bd c8b7 30be f5ae e93d a6d1 debd
00000100: 3c17 10be 6a9a 393d 9b81 20be 341d 393e
00000110: 0a4b 513e 0b0b 643d a553 283d b5c6 4fbe
00000120: e6e0 e5bd 3d24 dc3d d1fa d6bd e9fd 163e
00000130: 4d59 84be 38d2 713d ed09 9ebe 97ae 80bc
00000140: 731d 0c3e 843c 753d 4720 b5bc b0e3 b73e
00000150: a84e de3d 80a8 a63c 4b3f 073d b1d5 ab3d
00000160: 7f53 c43d 9f92 28be d9ec 3bbe 3e3b 3b3d
00000170: 96f3 b53d cf89 b83d df36 983b 86a1 f7bd
00000180: c09a 8d3d e0a8 cebb a224 c53d 1ee6 cebd
00000190: a802 05be 031f b63e 2f2c a7bd 5b5e f43d
000001a0: b462 29bd 4179 95be b0f3 7f3d dce2 c3bd
000001b0: 6da3 67bd 6799 5abd aa4a 3abd 3bcb cd3c
000001c0: def4 f4bc 1285 1fbc 9e0f cbbd 2cdb 70bd
000001d0: 3ad4 d8bd 862c b83c 5f5b 0e3d 1fa9 883d
000001e0: 7cef ca3d df12 413e 973f d6bd b117 29bd
000001f0: edf6 6c3d cc96 2a3e 8931 843d cb03 4e3e
00000200: 9265 95bc bf79 0f3e f2e2 103e 67e0 d2bd
00000210: 4b02 303d 4476 b6bd 5370 6cbc 7b2a 43bd
00000220: 6f74 033c 2778 ab3d e999 fa3d 55e7 29bd
00000230: 0796 bf3d 3b67 e13c 1f74 c03d 50f9 d9bc
00000240: fa4f 9f3d 3730 bfbd bc02 a8bd 9da5 63be
00000250: cc18 7abd 0870 cfbc 9357 56be a544 fabd
00000260: 6867 af3d 6387 98bc 89f7 30bd 54ba debd
00000270: 7d6f 6dbc ac85 8bbc e415 96bd a544 15be
00000280: 5ea5 0e3e 26f1 edbc 86d7 8bbd d65a 4abd
00000290: c437 43bd 72f7 76bd 7b22 d1bc edfd 35bc
000002a0: 1e0b 81bd 8b3c 71bc 9c13 c8bd 0f1c 9ebd
000002b0: 3feb e5bc 5579 49bc a1f1 e2bd a316 b23d
000002c0: 55cf 923d f2c7 723d 98d3 1e3d ede3 2ebe
000002d0: 6951 013e 2365 87bd 4da7 373d c538 823b
000002e0: f42f 2d3e c9be a4bd 36a9 063e a1a2 20bd
000002f0: 0c67 f63d 9d65 dd3d 429e a0bd 2170 a33d
00000300: f553 943b b04e 6b3d 111f 493d d817 293d
00000310: 027e 8d3d db78 ad3c 9621 a4bd 2320 3dbd
00000320: 5b27 37be 25a1 a0bd 4c58 a5bd 16d4 093c
00000330: 0175 04be 63ac 083e b596 e8bc 3065 31bd
00000340: 2290 c3bd c9da 653d 4664 083d 9fae 253e
00000350: 3194 4d3e 0d44 f83d f1dd efbd 3027 0e3e
00000360: 616a 9d3d aa18 75bd b3c7 94bd 775b ce3c
00000370: d9f5 8cbd c849 193d 5169 853d 57d4 113c
00000380: 813a 143e 9867 ba3d e979 173d 2311 a2bd
00000390: 9148 5fbd a24a 833c 7f9b 22be e01e ce3d
000003a0: fd6f 54ba 361d 14be 5fa0 e7bd ce5b d23d
000003b0: 3767 a03d d181 c5bd 796d 43be b20c 2cbc
000003c0: 34a6 edba b8c5 893d 7b93 d53c 9d39 3cbc
000003d0: 26c9 963c 64bf a4bb 9495 4bbd 654c f0bb
000003e0: 4ed2 bebc 8719 693e 064f 2c3e 7273 623d
000003f0: 81bb d03d cb93 febd 1340 cd3d 5625 313b
0.15387027 0.077290066 0.042153645 -0.14831546 -0.2722097 -0.17525148 0.047093127 0.004850711
0.09707326 0.0066308565 -0.026262254 -0.060721193 0.08097475 -0.1419278 0.11596523 -0.12946375
0.013038797 0.124617785 -0.06912586 0.07830102 -0.12000952 0.1138798 -0.1900868 0.088179804
-0.16536549 -0.0027262475 0.0894664 0.07851031 0.08227685 0.10832356 0.11977309 0.020226313
-0.18029378 0.08404314 0.047715463 0.039017685 -0.13850759 -0.23833466 -0.04112657 -0.11159163
0.0076827123 0.29291308 0.10195172 -0.16198078 0.02100588 0.1587681 0.04171161 -0.076771274
-0.072852455 -0.026615663 -0.06635796 -0.19977209 -0.025750306 -0.16568765 0.124992564 -0.05513468
-0.09368117 0.09370326 -0.014488031 -0.15522134 -0.055973455 -0.17257607 0.114103235 -0.10879831
-0.14071363 0.045313276 -0.1567444 0.18077546 0.20438781 0.055674594 0.041095395 -0.20290644
-0.112245366 0.107490994 -0.10497058 0.14745297 -0.2584938 0.05903837 -0.30866948 -0.01570825
0.13683109 0.059872165 -0.022110118 0.359159 0.10854846 0.020344019 0.033019345 0.08390368
0.09586238 -0.16462182 -0.18352069 0.045710795 0.08884351 0.0901066 0.004645213 -0.12091355
0.06914282 -0.0063067526 0.09626128 -0.10102485 -0.12989295 0.35570535 -0.08162724 0.119320594
-0.041353896 -0.29194072 0.062488258 -0.09564754 -0.05655234 -0.053368952 -0.04548136 0.025121322
-0.029901918 -0.009736316 -0.09915088 -0.05880277 -0.10587354 0.022482168 0.034755107 0.06672882
0.09908959 0.18854855 -0.104613476 -0.04128236 0.057852674 0.16659087 0.064547606 0.20118634
-0.018236909 0.14011286 0.14149073 -0.102967076 0.042970937 -0.08909276 -0.014431077 -0.047647934
0.008023365 0.083725266 0.12236387 -0.04148038 0.09354787 0.027515044 0.09397148 -0.02660814
0.07778926 -0.09335368 -0.082036465 -0.22231145 -0.061058804 -0.025321975 -0.20931844 -0.12220124
0.08564645 -0.018619245 -0.043204818 -0.10875383 -0.014491913 -0.017031513 -0.07328394 -0.14576967
0.1393027 -0.029045653 -0.06828217 -0.049403034 -0.047660604 -0.060294576 -0.025529137 -0.011107904
-0.063009486 -0.014723907 -0.09769365 -0.077201955 -0.028066276 -0.012296994 -0.11081243 0.08695724
0.07168452 0.059272714 0.03877601 -0.17079134 0.12628712 -0.06611087 0.044837285 0.0039740526
0.16912824 -0.08044202 0.13150486 -0.039217595 0.120313734 0.10810397 -0.07842685 0.07980371
0.00452661 0.05744809 0.049101893 0.041282505 0.069088 0.021175792 -0.080142185 -0.046173226
-0.17886107 -0.07843236 -0.08073482 0.008412382 -0.12935258 0.1334701 -0.028392175 -0.04330939
-0.095489755 0.056116853 0.033298753 0.16179894 0.20076062 0.12122355 -0.11712254 0.13882136
0.07686306 -0.059837975 -0.07264652 0.025190098 -0.06882829 0.03742388 0.06514228 0.008900723
0.14475442 0.0910179 0.036981497 -0.07913425 -0.054512564 0.016026799 -0.1587963 0.10064483
-0.0008103846 -0.14464268 -0.11309885 0.102714166 0.07832187 -0.09643901 -0.19084729 -0.010501074
-0.0018131197 0.06727165 0.0260713 -0.011488345 0.018406462 -0.0050276984 -0.049703196 -0.0073333257
-0.02329364 0.22763644 0.1682702 0.05528588 0.101920135 -0.12430533 0.10021987 0.002703031

lstm.bias_ih_l0 f4 [256]
00000000: 58d8 84bd 0cb2 3a3d 27a2 a83d 386a 8b3c
00000010: c282 943d 20ad 923d 3c5d 8cbd a10c ac3b
00000020: bc8f d6bd d5da 153e 2e02 11bd f840 b73d
00000030: 5eff ac3d 5f0c 693d 09d5 1a3e fc7b 283e
00000040: 23ee cb3d bc23 95bd b782 d83b 04b9 9ebd
00000050: 1fc1 843c fa1b 15bd 76b8 c63d fce1 bbbc
00000060: 52cd eb3b aaeb c93d 2150 693e 9924 67bd
00000070: be17 733d 28d6 88bd b95e a73c 9636 f23d
00000080: 8d27 573e b9ad dc3d 2629 893b 40bf 2dbc
00000090: 7a3e 323e 44f1 273c 73e1 4abc 5108 343d
000000a0: d214 3b3d f3c7 023d 30a3 0a3d 149f 143e
000000b0: cddc 0d3e 4bc0 133e c627 8b3d ff69 193c
000000c0: cd4e 0d3d 94c3 3c3e 9535 8c3d 6d74 bdbc
000000d0: 0b6a c5bd 4388 343a ff73 8e3d a6d7 19bc
000000e0: 1c23 fbbc e279 273d 0ef4 7f3c c68b b43d
000000f0: 2922 eb3b 7fc5 393e 780e 3b3e 2d36 3f3d
00000100: 95e8 9f3d e586 da3d 1897 923d 1374 24bc
00000110: ad8c a53d 73f0 143e 1a6b 9bbd 3bb6 fc3d
00000120: 4295 c0bd db3e 1f3e 1916 00bd bef4 463d
00000130: 38f7 a2bb d2d8 b5bc 9f54 cc3d dd3c 393e
00000140: f6d1 9b3d c1a1 bfbc c914 3c3d a63e 68bd
00000150: ba3e 193d 1730 803d f966 1b3e ded4 a3bb
00000160: 6d0c 20bd db70 083e 9214 b43d 1e92 763d
00000170: 045e ea3d d015 0fbc c447 2c3c a9cc 663d
00000180: 908a 013e 6953 383e f90e a0bd 7e12 193e
00000190: 3cab 40bd cda9 babc 96e2 bc3d 8597 0e3d
000001a0: 5685 f93d fd18 0a3e 2e9c c4bc a13a 94bd
000001b0: a8d0 073d 0785 9ebc 8353 2d3e 3281 1ebd
000001c0: 1635 0d3d 1219 5dbc ff38 123e 99e7 a63d
000001d0: d303 9ebd 9c7b ec3d 5c76 073e ee30 1dbd
000001e0: 825a 71bd d1ad 1fbe a08e 4ebc a8e2 bf3d
000001f0: 27a8 013e 19eb b1bc 8d7c 79bd 2613 2dbd
00000200: 0b54 983d 5f90 483c 2c03 2cbc c513 d4bd
00000210: 2a54 48bd 68d8 483d 3301 d7bb 068c babc
00000220: 7bc4 0fbd 4b2d ec3d 45f6 853c 3eee bebc
00000230: 0494 50bd 414f 8dbd 199e cbbd 5c1a f23d
00000240: a8ac be3d 63eb b43c 5e96 97bc ec40 3e3d
00000250: d098 93bd 6c6e e7bc c968 e8bd 6583 6d3c
00000260: d105 8c3d 28f1 c8bc 0d8e e93d 14a1 423d
00000270: 396a e4bd 2220 913d a3e7 413d 891f c4bb
00000280: e804 853d a96a 45bc 14f3 bb3d 640f 623d
00000290: aea2 11bc 9eb8 e9bd 1245 6ebd 2314 a13d
000002a0: 62c5 9c3d 67cb f8bd 9a1b c83d 34e7 0d3e
000002b0: 1b6a 15be ce92 8fbd a569 a43d dbe5 4b3d
000002c0: 02cf 8ebd 426e a5bc 55ea 4c3d 5c2b babd
000002d0: 5ad7 83bd 983e 6ebd 6e50 763d f872 da3d
000002e0: 8fd7 3b3c 8e68 a63d 5c6a ff3d 1a6d b93d
000002f0: 9365 493d 2481 e13d 3c86 59bd b9c7 adbc
00000300: 8548 f43d e0d4 cb3d 03b0 f8bd 7f9f 963d
00000310: 6e7b 3dbc fed5 b43d 1c40 59bd b237 a6bc
00000320: 5866 893d e3a2 0fbb 8108 073e 03ed 103e
00000330: 8012 023e b045 aabd 4a84 90bd c33c c0bb
00000340: 8c14 afbd baac 1ebd 758a 043d 0165 6d3d
00000350: 0467 fb3b 84e9 433d ee45 0f3d 9d5f 9d3d
00000360: 31b1 fb3d 4eac c63c 15f8 583e 61d0 583d
00000370: bb56 123e 1546 0fbd 78b4 28bd 8290 f6bd
00000380: c7c9 443e 02a0 08bd 1228 983d 575a cbbc
00000390: 612b 53bd c58f 2e3e 1cdb bb3d 2e49 a93d
000003a0: 5f49 5b3d b929 2f3d f187 bc3d dbd7 6b3e
000003b0: 5230 b83d 5f8c 5ebd 71a7 613d 2948 0bbe
000003c0: 32d3 f13c f6ab 973c b80d 81bd a156 fe3d
000003d0: 59bb 643d f216 b2bc cf3e b23d cc46 613d
000003e0: 2e2a 9abd 5cbf 02be 9eee ae3d 1fab dc3d
000003f0: 69f4 bcbc b45d 023e c18e 1e3c f5c6 313d
-0.06486577 0.045579955 0.08234053 0.017018422 0.072515026 0.07161927 -0.068537205 0.005250529
-0.10476634 0.14634259 -0.03540247 0.08947939 0.08447145 0.056896564 0.15120329 0.16453546
0.0995753 -0.072822064 0.0066073793 -0.07750133 0.016205369 -0.036403634 0.09703152 -0.022934906
0.007196107 0.098594025 0.22784473 -0.056431387 0.059348814 -0.06681472 0.02043091 0.11826818
0.21011181 0.107753225 0.0041858135 -0.01060468 0.17406645 0.010250393 -0.012382853 0.043953244
0.045674153 0.031928968 0.033847034 0.14513808 0.1385376 0.14428823 0.067946956 0.00936365
0.03449898 0.18433982 0.068461575 -0.023126805 -0.09639367 0.00068867597 0.06955718 -0.0093897935
-0.03065639 0.04088772 0.015622152 0.08815722 0.007175703 0.18141745 0.18267238 0.046682525
0.078080334 0.1067026 0.07157725 -0.01003744 0.080834724 0.14544849 -0.075887874 0.12339445
-0.09403469 0.15551321 -0.031271074 0.048573248 -0.0049733184 -0.022198115 0.09977078 0.18089624
0.07608406 -0.02339256 0.04591826 -0.05670037 0.037413336 0.062591724 0.15176 -0.004999741
-0.03907435 0.13324301 0.08792986 0.060197942 0.11443713 -0.008733228 0.010515157 0.056347523
0.12650514 0.18000568 -0.07815356 0.1494846 -0.0470383 -0.022786045 0.09222905 0.03481247
0.12183635 0.13486095 -0.024000254 -0.07237745 0.033157974 -0.019350542 0.16926388 -0.03869743
0.034474455 -0.013494747 0.14279555 0.081496425 -0.07715573 0.11547014 0.13228744 -0.03837674
-0.058924206 -0.1559365 -0.012607247 0.09369403 0.12661801 -0.021718549 -0.060909797 -0.04225459
0.07437905 0.012241452 -0.010498803 -0.10355333 -0.04890839 0.049034506 -0.0065614223 -0.022771847
-0.035099488 0.115320764 0.016352782 -0.023306962 -0.05092241 -0.06899882 -0.09942264 0.11821434
0.09310275 0.022084897 -0.018504318 0.046448633 -0.07206881 -0.028250895 -0.11348111 0.014496659
0.06837047 -0.024529055 0.11404047 0.047516897 -0.11153073 0.07086207 0.047340047 -0.0059852046
0.064950764 -0.012049356 0.09177223 0.05519046 -0.0088888835 -0.11412166 -0.05817134 0.07865169
0.07654835 -0.12148171 0.097708896 0.13857728 -0.14591257 -0.07010423 0.080279626 0.049779754
-0.06973077 -0.020194177 0.050028164 -0.090903014 -0.064375594 -0.058165163 0.060135297 0.1066646
0.011464967 0.08125411 0.12471458 0.090540126 0.049169134 0.1101096 -0.05310653 -0.0212134
0.119278945 0.09952712 -0.121429466 0.0735464 -0.011565072 0.08829878 -0.053039655 -0.02029023
0.06708974 -0.0021917156 0.13186838 0.14152913 0.1270237 -0.08314073 -0.07056482 -0.0058666184
-0.08548841 -0.038738944 0.032358605 0.057957653 0.0076721925 0.04783012 0.0349788 0.076842524
0.12289656 0.024252083 0.21188386 0.0529331 0.14290898 -0.034978945 -0.041187733 -0.120392814
0.19217597 -0.03335572 0.07429518 -0.02482335 -0.05155504 0.17047031 0.09172651 0.08265911
0.05353677 0.0427644 0.09205616 0.23031561 0.08993591 -0.054333087 0.055091325 -0.13601746
0.029519651 0.018514615 -0.06301445 0.12418867 0.05584273 -0.021739457 0.08703386 0.054999158
-0.075275764 -0.1276831 0.08541606 0.10774826 -0.023065763 0.12731057 0.00967759 0.04340263

lstm.bias_hh_l0 f4 [256]
00000000: e679 0f3e 4e39 ee3c eb25 a2bc 3056 193e
00000010: e217 67bd 6574 603c 53e1 1d3e 272b a2bb
00000020: 40bd 87bd 555d 25bc 83c3 60bd a74e 203e
00000030: 56a0 583d b2e9 ec3c b0c1 9abc 3fb0 abbc
00000040: fd2e bc3d 4273 d4bd 0126 0b3e 0ade c43d
00000050: ef49 023e c2a8 bb3d 437f c03b cbc4 903c
00000060: e723 b9bd c68a f43d ffaf 723e 787e 043e
00000070: d383 ae3b 9a38 243c 9684 993d 94e4 883d
00000080: a190 283d 6d30 013e 53ab 52bd 868b af3d
00000090: 76b4 0b3e 39c6 163e b6b5 243e 3063 963d
000000a0: 709b 713d 4831 8c3c d8ef 89bd d498 353e
000000b0: 2025 363e 9398 21bd 4b74 cc3c ac63 e2bd
000000c0: c109 b33d d1be 063e 6acc dc3d 8e8e 89bd
000000d0: 970b f1bc 77a0 1e3d 48ee 72b9 1c84 48bd
000000e0: 3984 b33d 5ee0 5dbc 325f 0c3e 2f32 e5bc
000000f0: 3c24 353d 8e07 c73d 8125 913d 6b6f 26bc
00000100: e88e e4bb 5c28 c83d 76b1 f5bd 99bb cb3d
00000110: d241 3abc cb68 273e 7ae2 733c f23f 4cbd
00000120: 9e49 b63d 0819 d53d 1205 3b3d 392e 363e
00000130: 7167 583c b893 ad3d fdea e7bc ea90 efbc
00000140: 744a fe3c f6a1 ca3d b2e7 46bd 2126 99bd
00000150: ffac 653e 9588 c3bd 63cb 083e d065 dfbc
00000160: 2c10 993d 4a67 333e f38b 0a3e 42ec ae3d
00000170: cdbc 99bc 994e dd3d de6e a23d 9431 b63d
00000180: aa17 253e 7fdc c8bc 0fe5 b9bd 6459 bd3d
00000190: 954e af3d 01a8 7f3c 8997 9f3d 7cb8 41bc
000001a0: c2ff 283e 8fa7 023d 7fa7 9f3d f3a9 f13d
000001b0: 83cb bd3d b8b4 68bd 1991 2a3e 367f d13c
000001c0: 8cc0 06be 2dee 183d 65fc 303e d59b 8b3d
000001d0: 5216 24bd 02cd f13d dacb cabc 1d21 94ba
000001e0: c6b3 0c3e f329 15be 786f ca3d ecf4 dabd
000001f0: 6393 ea3c 17a9 40bd 34b2 ef3d 2695 b7bd
00000200: aa24 ecbc 5fd2 f6bc f9bb 3bbd 9947 803d
00000210: ff25 0dbd 7863 313d 322d 05be 6a71 943d
00000220: b340 6abd b95a b6bd eb60 b8bd 6687 e53b
00000230: 22dd cc3d 8524 47bd fd16 b83d 2ec9 87bd
00000240: 8c46 45bd 75fb 293d 3808 683d 2066 54bd
00000250: bb3a 563d da8e cd3c c143 0abc 42ac a13d
00000260: df4a abbd f01d 07bd 80a7 27bc d144 80bd
00000270: 1184 9c3d 20b1 e8bd 16d2 893d 5d67 3dbd
00000280: fc5c 3fbd 6b65 ed3d b219 c23d ec2a 9cbd
00000290: f3ce 7cbd 8a0a 1bbc 5ecd 803d c58e 073d
000002a0: 66bd cfbd e33f e13d 376a 01bd 303a dd3d
000002b0: 694f 723d 6417 b83d 20a2 e5bb 65aa a0bd
000002c0: a778 d23d 943a 5dbd 6478 bfbd 2397 91bd
000002d0: 1080 4cbd 1cc3 d1bc bbb9 d4bd eeed e93d
000002e0: 43db 833d b4f5 8d3d 0a1e cebb 237d 68bd
000002f0: 149c 0bbd 93a1 453b 3f99 863d b497 cebc
00000300: e300 47bd 28d2 5a3d de81 abbd b6d7 013e
00000310: f439 9b3d d809 90bc 6f0c 173e 8733 84bd
00000320: 01ec abbc b362 e13d bfc7 bf3d 057a 2b3e
00000330: 48d8 96bd 3159 ac3d 9fdc c73c 4630 0c3d
00000340: 45ac d9bc ff57 47bd 1cb5 03bd e673 a13d
00000350: a410 f03d 1fe5 823d 238c 99bd 114d c2bd
00000360: d8d8 ebbd 74b9 d53d c867 ac3d 372c 353e
00000370: 24d2 a93c d363 023e 9dc5 1ebd 60fa 8a3d
00000380: 8c8f fc3d 3363 223e a4d1 b93c e257 fb3c
00000390: f94d e43d aabe 15bd 7823 c03b f514 27bd
000003a0: 8d05 70bd a14f 5ebc e631 cb3d 65e9 9d3d
000003b0: 0d23 e63d 1438 cebc 8239 7dbd def6 e6bd
000003c0: c84b e1bd e90a ccbb 6be6 8cbd 1a70 4a3d
000003d0: 5b6d 9f3d fc1b fdbc f2f4 adbc f6c7 223e
000003e0: c970 4d3d 6ead a2bd bd68 16bd 99b9 f03d
000003f0: 4603 023d 552f 6d3e 5e2a cfbc 0c43 ca3d
0.14011344 0.02908006 -0.019793471 0.14974284 -0.05641926 0.013699626 0.15417986 -0.004948992
-0.066278934 -0.010093053 -0.054873955 0.15655003 0.052887283 0.028920028 -0.018891186 -0.020958064
0.0918865 -0.10373546 0.13588716 0.09612663 0.12723516 0.091630474 0.005874546 0.017671963
-0.09040051 0.119405314 0.2369995 0.12938869 0.0053257733 0.0100232605 0.07495992 0.06684223
0.041153554 0.12616129 -0.05143292 0.08571534 0.13643059 0.14724053 0.16084942 0.07343137
0.058986127 0.017113343 -0.067352 0.1773408 0.177876 -0.039452147 0.024957797 -0.11054167
0.08742095 0.13158728 0.107811764 -0.06716643 -0.029424472 0.03872725 -0.00023167685 -0.048954114
0.08765454 -0.013542263 0.13708189 -0.027978031 0.04422401 0.09718238 0.070872314 -0.0101584
-0.0069750436 0.09773323 -0.119967386 0.09947891 -0.011368232 0.16348569 0.014885539 -0.04986567
0.0890076 0.10405165 0.045659132 0.1779107 0.013208256 0.08475441 -0.028310293 -0.029243905
0.031041361 0.09894173 -0.048560806 -0.07477976 0.22429274 -0.09547535 0.13358836 -0.027270228
0.07473788 0.1751987 0.13529949 0.08541156 -0.018766785 0.10806007 0.079313025 0.08896175
0.16122308 -0.024519203 -0.090768926 0.092455655 0.0855991 0.01560402 0.07792575 -0.01182377
0.16503814 0.031898078 0.07795619 0.11799993 0.092673324 -0.05681297 0.16656913 0.025573354
-0.13159388 0.037336517 0.17283781 0.06816832 -0.04006035 0.1180668 -0.024755407 -0.0011301372
0.13740453 -0.14566784 0.09884542 -0.106912464 0.028634733 -0.047036257 0.117039114 -0.08963995
-0.028826077 -0.03012961 -0.04583356 0.06263656 -0.034460064 0.04330775 -0.13005522 0.072481945
-0.05719061 -0.08904023 -0.09002861 0.007004666 0.10003115 -0.048618812 0.0898876 -0.06630169
-0.048162982 0.041499574 0.056648463 -0.051855206 0.052302103 0.025092531 -0.008439005 0.07894184
-0.0836389 -0.032987535 -0.010232806 -0.06263126 0.07642377 -0.11361909 0.06729524 -0.046241153
-0.046719536 0.115916096 0.09477557 -0.07625374 -0.0617208 -0.009462962 0.06289171 0.03309514
-0.10143547 0.109985135 -0.031595435 0.10802114 0.059157763 0.089888364 -0.007007852 -0.07845
0.10276919 -0.054010943 -0.093491346 -0.07108905 -0.049926817 -0.02560573 -0.10386988 0.114223346
0.06438305 0.0693163 -0.006290202 -0.056759965 -0.034084395 0.003015612 0.06572198 -0.025218822
-0.04858483 0.053423077 -0.083743796 0.12679943 0.07579413 -0.017582819 0.14750837 -0.064551406
-0.020986559 0.110051535 0.093642704 0.16745766 -0.07365471 0.084154494 0.024397193 0.034225725
-0.026571402 -0.048667904 -0.03215514 0.07883434 0.11721924 0.06391358 -0.07497432 -0.094873555
-0.11515969 0.10435763 0.08418232 0.17692648 0.020730086 0.12733392 -0.038762677 0.067860365
0.12332067 0.15858154 0.022682972 0.030681554 0.111476846 -0.036558785 0.005863603 -0.04079147
-0.058599044 -0.01356879 0.09921627 0.07710532 0.11237154 -0.025173225 -0.06182242 -0.11277555
-0.11000782 -0.0062268865 -0.06879886 0.049423315 0.0778453 -0.030897133 -0.021234963 0.15896592
0.05015639 -0.07943235 -0.03672098 0.1175415 0.031741403 0.23162587 -0.025288757 0.098760694

lstm.weight_ih_l1 f4 [256, 64]
00000000: 30e1 6e3d 131c 4a3d 0811 893d 40d9 00be
00000010: f6bc 21bc 6274 e9bb c5fb 0ebd 9e9f 8d3d
00000020: f05b 90bd 5887 5ebd c408 26be 2c06 ecbd
00000030: 140f b9bd 3936 e6bd 0e40 02bd 9a89 b5bd
00000040: 958e 933d d756 f03d 2473 ccbd 5c27 d23c
00000050: ac9e a1b8 ea7b 02bd 6ecd cdbc 0c06 0bbd
00000060: 2c33 e63d be61 0fbe ed37 e7bd f1ea 123e
00000070: c8a5 2e3e 7088 ce3d 3c23 d4bd acd3 1f3e
00000080: b356 81bd fbbe cb3c 7ab9 4ebc a424 17be
00000090: 8ed6 e13c f19d ce3c 664e d1bd 1c9a a33d
000000a0: aa61 dd3c 9438 8dbd d630 adbc fd5b 60bd
000000b0: f084 a6bd ce46 be3d 6555 8dbe 1ca5 c43b
000000c0: d16e 40bd 4921 48be 1018 b9bd 3044 d8bd
000000d0: cdda 8cbd e764 da3d 6792 c5bd 412b 1c3e
000000e0: 6975 9fbc 65f6 c7bd beb7 98bd 6789 a63d
000000f0: dff1 88bc 3373 03bd af1a 323c bc00 acbd
00000100: 8f16 21bd 3c2b 05bd 4b28 433d 632c 79be
00000110: 9ef1 febd c872 0b3e f059 86ba 190f 32be
00000120: c8d3 e03d 3ecf 0b3d e4d2 5cbd c391 3bbe
00000130: 3697 1c3c 7ed4 51be 836e 113e 560f 33be
00000140: 056f 9d3d 4659 1e3d e523 dbbc 4ca6 e0bc
00000150: c9cf 1dbd 1fc5 84bd 4389 44bd ead2 173e
00000160: b491 2ebe 7f99 44be 4e4d 863c 72fb 08be
00000170: 1910 073e bcf3 68bc 72b6 c6bc 8a9f 8c3d
00000180: dc5f 953d 899a 363d 0dae 2ebe 4408 a53d
00000190: cea1 a0bd d8fc c0bd dd6d 233e da4e 83bd
000001a0: c561 32b9 e63e 383e aebb 003e 08d2 4abe
000001b0: ecf2 6e3d a539 043e 2a01 8fbd d300 10bd
000001c0: e9d7 97bd 65f5 73be a00d e83c 603f 01be
000001d0: ccc3 ea3d 8c3c 973d fdc7 ddbd de11 d13d
000001e0: 1295 d0bd 55af eb3d 5613 223e d2e9 38bd
000001f0: 586e acbd d64a 5ebd 160e 81be b12c 26be
00000200: 9b9c 903d 183f 133e 6ea4 d03c 3061 8bbd
00000210: 5ca8 c9bd 0b01 21be 22be 10be 7bcb b33c
00000220: d3bb 6abd 4d8d 0f3e da24 e73d 9838 b2bd
00000230: b52e 4dbd de35 ca3d 9f02 0a3e b444 aa3c
00000240: e3c3 cfbb 385e e5bd 6063 5abd fc93 0b3c
00000250: 2df7 fdbc 5060 4d3d ec3d 24bd fe43 8f3d
00000260: e0eb 1f3d 41ea 0dbe b0b4 80bd 10f8 9f3d
00000270: 0213 073d 8682 04be eab7 473e b65a 04bd
00000280: c775 7e3d 8cb3 ad3d 5e90 6cbb c4b4 dd3c
00000290: 5148 843b 5445 c43b e18e d3bb 5734 babd
000002a0: 2a39 333b 6e6a 2fbd f60c 243c 67f7 05bd
000002b0: 177f 873d 9573 dbbd 69c5 aebd 1011 83bd
000002c0: e76c 22bd 4683 d6bd 7c42 433d e011 83bd
000002d0: 1027 abbd e70e 11be 1c08 8b3d 15a3 0b3d
000002e0: 086b c5bd f62a c83c 4ac4 f5bc 3117 d4bd
000002f0: 2ec7 09bd c315 883d d45d 00be de14 c5bd
00000300: 6578 a53d 97f3 6bbd 0e44 a8bd 1dfa 333d
00000310: c950 503d 73ad 483e 9be8 eb3d f9ac 9ebb
00000320: 58c6 33bb 33ec 1dbd 6eaf 2d3d 195e c03b
00000330: 6781 e13d a119 23ba 2480 42be aa2a 2cbe
00000340: 7ee7 afbd 6e50 cbbd 8817 b63d 664d 233d
00000350: 79ad e93a 1707 90bd cafb 18bd 8d89 d0bd
00000360: 9067 d53d f869 28be c782 093e ee10 f2bd
00000370: aa3d 60bd fbc5 333d 26c8 adbd 3685 c8bd
00000380: 70bf 243d 6238 813b 4707 2cbd 5eff a93d
00000390: 6d74 c23c 45e5 4dbd 1640 f5bd 0a08 893d
000003a0: 0b50 d5bd d03f 9fbb 2811 89bd 2848 a53d
000003b0: ce93 303d 0397 683e 41b7 4ebe b5e2 8a3d
000003c0: a680 bd3d 9678 713d ef79 14be 8b38 883d
000003d0: faff 6a3d 7304 5f3d 6c68 cc3c 3717 ef3c
000003e0: abc6 c3bd 92f0 333c cff0 a33d 098b 093e
000003f0: 9bd9 9b3d 708a 4fbc 4c04 55bd 9b37 6e3d
0.058320224 0.04934318 0.066927016 -0.12582874 -0.009871712 -0.0071244696 -0.034908075 0.0691521
-0.07048786 -0.054328293 -0.16214281 -0.11524615 -0.09036079 -0.11240811 -0.03179937 -0.08864136
0.0720493 0.117353134 -0.09982899 0.025653534 -7.706633e-05 -0.031856455 -0.02512237 -0.033941314
0.11240229 -0.1400213 -0.11289964 0.14347436 0.17055428 0.10084617 -0.10358283 0.1560809
-0.06315365 0.02487134 -0.012617463 -0.14760071 0.027568128 0.025221797 -0.102200314 0.079883784
0.027024109 -0.06895557 -0.02114145 -0.054775227 -0.081308246 0.09290849 -0.27604213 0.006001128
-0.046980683 -0.19543947 -0.09037793 -0.10559881 -0.068776704 0.10663777 -0.09647065 0.15250875
-0.019465165 -0.09763793 -0.07456921 0.08131676 -0.016716896 -0.032092284 0.01087062 -0.083985776
-0.039328154 -0.032511935 0.04764585 -0.24333338 -0.124484286 0.13618004 -0.0010250192 -0.17388572
0.10977894 0.03413319 -0.05391206 -0.18317322 0.009557536 -0.20491216 0.14202313 -0.17486319
0.07687191 0.038659357 -0.026750514 -0.027423047 -0.038528237 -0.0648291 -0.047982465 0.14826551
-0.17047769 -0.19199179 0.016394284 -0.13377169 0.13189735 -0.014218267 -0.024256919 0.06866367
0.07293674 0.04458097 -0.17058583 0.08058217 -0.07843362 -0.09423226 0.15959878 -0.06411524
-0.00017011825 0.17992744 0.12571594 -0.19806683 0.058337137 0.12912615 -0.06982644 -0.035157036
-0.074142285 -0.2382408 0.02832681 -0.12621832 0.114631265 0.07384595 -0.1082916 0.10208486
-0.10184683 0.11508051 0.15827689 -0.045144863 -0.08419484 -0.054270588 -0.2520606 -0.16227986
0.0706112 0.14379537 0.025469031 -0.068056464 -0.09846565 -0.15723054 -0.1413503 0.021947613
-0.05730803 0.14018746 0.11286326 -0.08702201 -0.05009337 0.098735556 0.13477562 0.020784713
-0.00634049 -0.111996114 -0.053317428 0.008519169 -0.031001652 0.05014068 -0.040098116 0.0699539
0.039043307 -0.13858892 -0.062844634 0.07810986 0.03297711 -0.12940416 0.19503751 -0.03231307
0.06212404 0.084815115 -0.0036096792 0.027063735 0.004036941 0.00598971 -0.0064562415 -0.09092014
0.0027347305 -0.04282611 0.010012856 -0.032706644 0.06616037 -0.10715405 -0.08533747 -0.06399739
-0.03965464 -0.10474257 0.047670826 -0.06399894 -0.0835706 -0.14165841 0.06788656 0.034091074
-0.09639555 0.024434548 -0.030000824 -0.10355986 -0.03363722 0.06644776 -0.12535793 -0.09623121
0.08079604 -0.057605352 -0.082161054 0.0439397 0.050858293 0.19597416 0.11518975 -0.0048423973
-0.0027431455 -0.038555335 0.04240363 0.0058705923 0.1101101 -0.00062217755 -0.18994194 -0.1681315
-0.085890755 -0.0992745 0.08891207 0.039868735 0.0017828188 -0.07032602 -0.0373495 -0.10182486
0.104201436 -0.16446674 0.13428794 -0.11819635 -0.054746307 0.04388998 -0.08485441 -0.09791033
0.04022163 0.003943489 -0.041999128 0.083006606 0.023737157 -0.050267477 -0.11975114 0.066909865
-0.104156576 -0.004859902 -0.066927254 0.08070403 0.043109708 0.22713856 -0.20187093 0.06781522
0.09253053 0.05895289 -0.14499639 0.0665141 0.057373025 0.054447602 0.024952136 0.029185874
-0.09559377 0.010982649 0.08004915 0.13431944 0.07609864 -0.012667283 -0.05200605 0.0581585

lstm.weight_hh_l1 f4 [256, 64]
00000000: 93f5 41bc 9742 703d 5382 52bb 16ce ba3d
00000010: fe89 013e 4c5b 02be ef6d ab3d 4f67 063d
00000020: ef77 703d 2636 9c3d f8f2 7b3d 506c 183e
00000030: dbc2 933d 6253 3f3d d71e 103e c250 8c3d
00000040: 2a85 95bd e2e1 e9bb 50f9 e6bc f0d0 d73c
00000050: acc7 c5bc 5fff 29bd b528 26bd abe8 e5bd
00000060: cae8 a1bd 7862 873d 50f1 603d 0c12 ab3d
00000070: d26d 0abd f14a a73c 05f9 0c3e 5688 d73d
00000080: c4bc b73d 0ab6 293c 9b53 cb3c 2216 783b
00000090: a87e 0fbe 3f85 df3d 0780 383e 385f 53bc
000000a0: 691f 7cbd 2607 a9bd 34bd 09be c8f0 82bd
000000b0: ea28 193e 42d5 65bc 27a8 b23d 2a8d 143d
000000c0: d8ad eb3c 91c4 96bc 22f4 853d 72e7 7bbe
000000d0: b441 cb3d b505 17be ae16 77bc 2ad4 123e
000000e0: d870 d93d fa85 32bd f889 2abd 0e36 e4bb
000000f0: fc58 2f3c 8d21 b6bd c4a0 a5bd f1ef 983c
00000100: fea6 92bb 045c 133e c2c0 343d 4087 05be
00000110: cf22 233c acff 28be 15cc 8fbd 6701 0f3e
00000120: a2c9 c3bd c187 8d3c 47af 943c 5a49 ec3c
00000130: 427f 1f3e e7a6 83bd 09ff 593d 7086 793d
00000140: 5863 2dbd d895 adbd 1ac9 db3d a45d f33d
00000150: 8009 babd 91c5 aa3e ae45 91bd 5109 6e3d
00000160: a6c5 8d3c 1b46 e63c 97aa 09bd 115f 223e
00000170: bd1a 983d 4fd6 f63d 813f 593a 9df0 bbbd
00000180: 354f a13d 6bc1 393e 9d13 41bd a0a3 93bc
00000190: 7317 903c 4ace 2d3d 1cba cc3d 7965 f63d
000001a0: 0dbb 2dbd 7fb1 06be 0360 fb3d c4d4 183e
000001b0: 9ccd 27be 2714 1c3e 48f9 953d b5c0 ed3c
000001c0: c726 8b3c e486 2b3d 4ed1 be3d f4d5 6fbc
000001d0: 3f9b 893d 55c6 b83d 7bd5 9fbd ee5d 74bb
000001e0: baa9 fb3a ed54 c33d 014d e8bd 9b80 7abd
000001f0: 199d c43d 88aa 6ebc 407c 033d 6c81 b23d
00000200: a036 943d ade5 173e b988 b5bb 6eb3 b53d
00000210: ab47 d13d 9113 b4bc 142a 69bd 767e 3bbe
00000220: 6ee7 ae3d 9817 9a3d 4ced 8b3d 97bf 0d3c
00000230: 909a 033e 0a8a e73c 3c0b 063e 1957 3e3d
00000240: 6e83 52bd ce5e 043e dd3e c8bc 9b3b 083e
00000250: b606 ebbd 4d5d 8d3c 7407 233d 9454 e23d
00000260: 38e1 a6bd 915e 8e3c 5fee ef3d 973e 623c
00000270: f6ee 4dbc 23ad 353e 9e1d 60bc 5023 543d
00000280: f389 c8bc 5a4a 5abd 6a03 8abd 4618 ec3d
00000290: b683 3e3c efec 6c3d 2a03 b83c 3a37 f7bd
000002a0: c7e7 5a3d 1587 05be fb0f 8bbd ee84 5c3d
000002b0: d9ec 23bc 9177 da3c 9998 e6bd acb9 6c3c
000002c0: f68d c6bd 5c26 843d 7c48 163e fefd c73d
000002d0: cf22 ea3d 790c 8f3d a689 3c3d 396d dd3d
000002e0: e67d bcbc 4de8 bf3d 3de5 183c 1284 d2bd
000002f0: 45d2 8cbd 1f98 a5bd 2d21 a6bd ad50 6e3c
00000300: b9af 2f3d 4efe 893d 4e3d ca3d 8709 97bd
00000310: 7329 403e 2fea 853d 9748 69bc 7420 9e3d
00000320: e1c2 62bd e191 b63d 0aab 013d ed02 de3d
00000330: 2a41 673b b52b 85bc 36f4 a1bd 323c f83d
00000340: 8350 2abe bb04 b33d c4d7 e3b9 e948 f73d
00000350: 093e b3bc aecc 643c 3e60 fdbd 40e1 85bd
00000360: f6fe 47bd e961 c73d 3d72 c03d 78fe 8d3d
00000370: 28a3 afbd 6c2d 863b e8ab b1bd c41b 2e3d
00000380: bf94 15be cffe c83d 3520 6f3d ac7b aabd
00000390: f25e 1abe 68e9 f63c 38ec f93a 7561 a03d
000003a0: 3c12 133e d798 a7bd 00e2 0ebe e2ec a5bd
000003b0: b1f2 573e d54d 0d3e e76f 4cbd 4bd3 633c
000003c0: 69b0 b33c 656f d4bd 35c7 2c3d 14e8 bcbd
000003d0: 4c2f 68bd e9a8 e4bc 13ca d0bb aa6b dd3d
000003e0: 21c5 1e3d 3bf7 983d ecda 653c d938 0fbe
000003f0: caf4 8dbd 5c5e e3bc e0f1 d03c d501 19bc
-0.011838335 0.058657255 -0.0032121136 0.09121339 0.12650296 -0.1273014 0.083705775 0.032813367
0.058708128 0.076275155 0.06151101 0.14885068 0.072149 0.04671038 0.14074264 0.06851341
-0.0730079 -0.007137523 -0.028195053 0.026344746 -0.024143063 -0.041503306 -0.040566165 -0.112260185
-0.07905729 0.06610578 0.054917634 0.083530515 -0.03379614 0.020421477 0.13766868 0.10524051
0.08971551 0.010358343 0.02482014 0.003785499 -0.1401316 0.109140866 0.18017589 -0.01290112
-0.061553393 -0.082533166 -0.13451082 -0.06393582 0.14957014 -0.014027895 0.08723479 0.036267437
0.028769419 -0.018404277 0.06540705 -0.24600008 0.09924641 -0.14748271 -0.015081091 0.14338747
0.10617226 -0.0435848 -0.041635484 -0.0069644516 0.010702368 -0.08893118 -0.08087304 0.0186691
-0.0044754734 0.1439057 0.04412914 -0.13039875 0.0099570295 -0.16503781 -0.070213474 0.13965379
-0.09559943 0.017276647 0.018149985 0.02884357 0.15575889 -0.064283185 0.053221736 0.060919225
-0.04233107 -0.08475846 0.107317165 0.11883095 -0.09083843 0.33353856 -0.070933685 0.058114354
0.01730616 0.0281096 -0.033609953 0.15856577 0.07426975 0.12052595 0.0008287356 -0.09176753
0.07876436 0.1814019 -0.047137845 -0.018022358 0.017589306 0.04243306 0.09996435 0.12031073
-0.042414714 -0.13153647 0.12274172 0.14924914 -0.16387028 0.15242063 0.07322937 0.029022554
0.016986264 0.04187669 0.093172655 -0.014638413 0.06719064 0.09022204 -0.0780439 -0.0037287432
0.0019200363 0.09537683 -0.11342812 -0.061157804 0.096002765 -0.014567025 0.032100916 0.087160915
0.072369814 0.14833708 -0.0055399803 0.08872114 0.10218748 -0.021981986 -0.056924894 -0.1830996
0.085402355 0.075240314 0.0683237 0.008651636 0.1285193 0.028264064 0.13090223 0.04646978
-0.051394872 0.1292679 -0.024444038 0.13303988 -0.114758894 0.017256403 0.03980203 0.11051288
-0.08148426 0.017379077 0.117153876 0.013808868 -0.01256918 0.17741828 -0.013678936 0.05179149
-0.024479842 -0.053293563 -0.067389324 0.11528067 0.011628082 0.057843145 0.022462446 -0.120710805
0.053443696 -0.13039811 -0.067901574 0.05383771 -0.010005199 0.026668342 -0.112595744 0.0144485645
-0.09695046 0.06452629 0.14676088 0.09765242 0.114324205 0.06984801 0.04602971 0.10811848
-0.023009252 0.0937048 0.009331998 -0.10279097 -0.06876043 -0.080856554 -0.081117965 0.014545602
0.04289219 0.06737958 0.09874974 -0.07374864 0.18765812 0.065388076 -0.014238498 0.07721034
-0.055361632 0.08914543 0.031657256 0.10840402 0.0035286644 -0.016256193 -0.07907908 0.12120856
-0.16632275 0.08741137 -0.00043457572 0.120744534 -0.021880167 0.013964815 -0.12371872 -0.06537104
-0.048827134 0.09735472 0.09396789 0.06933302 -0.085760415 0.00409477 -0.08675367 0.042506948
-0.14607523 0.09814226 0.058380324 -0.0832437 -0.15075281 0.030140594 0.0019067591 0.078310885
0.14362425 -0.08183449 -0.139534 -0.081018224 0.21088673 0.13799222 -0.049911406 0.013905357
0.021934705 -0.10372809 0.042182166 -0.09223953 -0.05668573 -0.027912574 -0.0063717454 0.10811551
0.038762216 0.074690305 0.014029246 -0.1398653 -0.069314554 -0.027754955 0.02550596 -0.009338816

lstm.bias_ih_l1 f4 [256]
00000000: 67e9 85bd 230d 3abc 21db 19bd e48f c63c
00000010: c376 1ebd 5d6e 823d f6f4 adbd e712 74bd
00000020: 2d67 ee3d 6892 193d 76fe e73d 0d1f cfbd
00000030: 5520 4abd addd 5bbc e23b c03d 0cd1 bd3c
00000040: 2856 f3bd 2308 3abd 3c72 ab3d 4916 abbc
00000050: 6a6f 553d 840b bb3c e042 ffbd 0dca ce3d
00000060: 7a27 33bd da20 f6bd 58ad bc3d 6c88 e03d
00000070: fdaf 37bd 16d5 d0bb aa38 e9bd b868 c93d
00000080: 1bce bdbd 64e9 b9bd 8eca d43c 1ca1 e7bd
00000090: 9a5a 7bbd 260c 21bd 30c6 9c3d 5229 edbd
000000a0: ec72 4a3d 2575 da3c 98c1 e0bd 7913 1abd
000000b0: 9e00 b1bc 85ca c6bd 97be bdbd 8293 07be
000000c0: b46b 8e3d 4282 acbd e8da dc3a e0ef 01bd
000000d0: e95c d23d 08a9 d13c 6569 a2bd da08 d83d
000000e0: 7269 10be c89f b3bc d598 cbbd 6411 193d
000000f0: 3c40 b93c 2f7d f2bb be18 943c 620b ce3c
00000100: 34a0 8c3d ac5c 98bd 9a1f b0bd d3df d23d
00000110: 6583 eeba 4964 82bd 94d3 b2bd 8fe2 75bc
00000120: d1a7 ca3d 5596 c53c 0b5e ffbd 2974 903c
00000130: 64dd 923d c6f4 3f3d 708f 6cbc cbfb 5c3b
00000140: 9612 6dbc f96e 93bc 34dd 0c3d 7b0d c7bd
00000150: 5164 cbbc 7033 cc3d 4744 b83d 3edb c23c
00000160: 04e0 f2bd 6484 13bd 0f42 d93d 2289 d83d
00000170: 997b 22bd 2a32 0bbb 6f49 f3bd 0926 c6bd
00000180: 02a8 b9bd f841 6dbc 16cd 9b3b 88b8 7abd
00000190: a72c db3c 6b85 813d c904 06bc efc4 043c
000001a0: 6223 82bd 2f62 8fbd 5484 7abd e93c c9bd
000001b0: 5872 0abe 93ed 753d e4a9 aa3d 63a0 d23c
000001c0: f003 cd3d 9249 33bd 44d4 9abd fb11 a03d
000001d0: ccfc a9bc 3138 3f3d 3831 89bd 6423 8b3d
000001e0: 5ca1 483d 8a07 85bd 2edd 81bd 76cb 19bd
000001f0: 6355 313d 6c6f b8bc c0b4 223d 5b44 73bd
00000200: f384 90bd 5a5d c6bd 7fc0 0b3c a932 aabd
00000210: ea35 e33c 0b62 61bd 151f bd3d 10ca 963d
00000220: 8660 acbc 121a e03c d6f4 36bb 7dae 503d
00000230: 9565 b1bd f0de d0bd 9be9 2d3d d576 62bd
00000240: 801c 9e3d 3400 3abd 2685 c3bc 1dcc 93bd
00000250: f810 ce3d 4595 c8bd ad16 193d 015e 8f3c
00000260: 57bb da3d ec02 25bc b313 d33d 1dc0 d53d
00000270: 365c cf3d 3ac6 82bd bf1e b53d 4122 083d
00000280: 3ea2 cbbd f5fe 0dbd 6aaf 853d 6d61 aabd
00000290: ad67 293d 7336 c7bd 6b6f 18bd 0a32 91bd
000002a0: 9254 9abc 7849 203d 3922 183d 7888 0a3c
000002b0: 750c 08bd c7c9 993d 56fd a6bd 06ea 79bd
000002c0: 4791 b4bd 133c 283d f644 f8bc aadf 89bb
000002d0: 650a c4bd 66a1 c53d cd3f 0c3e 93a5 b73b
000002e0: 938d c13d 8865 60bd 42b8 483c d691 ecbc
000002f0: 04f0 09bc fc75 21bd 6e6f d33d e184 d6bd
00000300: 157a 18bd c811 0e3e d303 84bd 978b 813c
00000310: 2b66 403d 5626 dfbd 33f4 443d ed5f 82bd
00000320: ab02 493b fef8 62bd 311a 973d 3938 17be
00000330: cac5 7dbd 3469 08be 30ab 11bd 3e43 8abd
00000340: ff43 c1bc 6772 bf3d 457b 20bd 92c3 0abd
00000350: 1ac8 033d d904 b43d df90 803d 9754 683d
00000360: f2a8 8f3d 8469 da3d 34a5 303d 7f8d 81bc
00000370: 2c46 db3d be42 ebbb 9e60 e5bd ace3 8f3d
00000380: 4d9b d4bd 8e1a 173c 4805 c9bb 9a7c 8f3d
00000390: 1556 013d f73b a93d 9069 bfbd 4bcf 513c
000003a0: 9105 afbc ce72 6cbd e59c eebc dc56 763d
000003b0: c4f2 0e3c 20ba ecbc 4537 9e3d 1d20 c6bd
000003c0: b8a2 cfbd cfad 7c3d 162d 88bd 24e0 43bd
000003d0: 5d75 c5bd 4fc6 fcbd 8c1b d03d 1181 9dbc
000003e0: 42e7 f8bd e55d 02be 250c bebd 83cd febd
000003f0: 0547 3abd 5c06 97bb 186e 9a3d 49cc 803d
-0.065386586 -0.011355671 -0.037562493 0.024238534 -0.03868748 0.063687064 -0.08493988 -0.05958834
0.11640773 0.03749314 0.113278314 -0.10113344 -0.04934724 -0.013419551 0.09386422 0.02317097
-0.118816674 -0.045417916 0.08371398 -0.02088465 0.052108206 0.02283264 -0.12463927 0.10097132
-0.04373882 -0.12017985 0.0921275 0.109635204 -0.04484557 -0.006373058 -0.11387761 0.09834427
-0.09267827 -0.09077719 0.025975492 -0.11310026 -0.0613657 -0.039318226 0.07654989 -0.11580147
0.049426004 0.026667187 -0.10974425 -0.037616227 -0.02160674 -0.09706596 -0.09264868 -0.13239864
0.069541365 -0.08423282 0.0016849907 -0.031722903 0.102716275 0.025593296 -0.07930259 0.10548563
-0.14102724 -0.021926776 -0.0994126 0.0373701 0.022613637 -0.007400177 0.018078204 0.025151912
0.06866494 -0.07439551 -0.085997775 0.10296597 -0.0018197118 -0.06366784 -0.087317616 -0.015007629
0.0989529 0.024119535 -0.12469109 0.017633514 0.07171133 0.046864294 -0.014438495 0.0033719416
-0.014469763 -0.017997252 0.034390643 -0.09719368 -0.024828108 0.099707484 0.08997398 0.023786183
-0.11859134 -0.03601493 0.10608303 0.10573031 -0.039668653 -0.0021239617 -0.11879241 -0.096752234
-0.09065248 -0.01448106 0.0047546728 -0.06121114 0.02675469 0.063242756 -0.008179852 0.008103593
-0.06354405 -0.07001149 -0.061161354 -0.09826071 -0.13520181 0.06004102 0.08333185 0.025711244
0.10010517 -0.043771334 -0.07560018 0.078159295 -0.020750426 0.046684448 -0.06698841 0.067938596
0.04898201 -0.064955786 -0.06341015 -0.03754755 0.04329432 -0.022514068 0.039723158 -0.05939136
-0.07056608 -0.09685774 0.008529781 -0.08310444 0.02773567 -0.05502514 0.09234444 0.07362759
-0.02104212 0.027356181 -0.002791693 0.050947655 -0.08661953 -0.10198772 0.04245911 -0.05528911
0.0772028 -0.04541035 -0.023867201 -0.07216666 0.1006183 -0.09794096 0.03737514 0.01750088
0.106802635 -0.010071497 0.10306492 0.10437033 0.1012501 -0.06385465 0.08843755 0.033235792
-0.099430546 -0.034666974 0.06527598 -0.08319364 0.04135864 -0.09727182 -0.03721563 -0.07089622
-0.018839154 0.039132565 0.037142012 0.008455388 -0.033215005 0.07509189 -0.08153789 -0.061014198
-0.08816772 0.041072916 -0.03030632 -0.004207571 -0.09572295 0.09649925 0.13696213 0.005604455
0.09450831 -0.054784328 0.012250962 -0.028878134 -0.008419041 -0.03941916 0.10323988 -0.104745634
-0.0372258 0.1387397 -0.06446042 0.015813632 0.046972435 -0.10895984 0.04808445 -0.06365953
0.0030671756 -0.05541324 0.073780425 -0.14767541 -0.061956204 -0.13321382 -0.035563648 -0.06751107
-0.023591993 0.093479924 -0.03918006 -0.033877917 0.032173254 0.08789987 0.06277632 0.056721296
0.07014646 0.10664657 0.0431263 -0.01581454 0.107067436 -0.007179587 -0.11200069 0.07025847
-0.10381184 0.00922264 -0.006134663 0.07006188 0.031576235 0.082633905 -0.09346306 0.01280577
-0.021364959 -0.057726674 -0.029127548 0.06014143 0.008724872 -0.028897345 0.077253856 -0.09674094
-0.10138458 0.061689194 -0.066492245 -0.04782118 -0.09641526 -0.12342512 0.10161504 -0.019226583
-0.12153484 -0.1273113 -0.0927966 -0.12441542 -0.045477886 -0.0046089124 0.0754053 0.06288964

lstm.bias_hh_l1 f4 [256]
00000000: dbd0 dcbd 10eb 0c3e 9203 eabd a8a2 eebd
00000010: 9847 2c3d 454d 563c 8010 743d 4a1f 9c3c
00000020: 0b52 afbd 320a 22bd d6bd abbd fd65 0abe
00000030: 264b b03d 9a45 25bd cd5a 62ba 7720 c6bd
00000040: e871 1bbe f671 e5bd 4ad7 823d 0aa5 f9bd
00000050: 9763 ff3c c84f 2f3d 9557 7f3d 5f94 05be
00000060: 7917 a3bd 0d91 e03d 3a0a 17bb 41bb f4bc
00000070: fb6f 00bd e352 043e d2f1 ee3d 5ab0 adbd
00000080: 9c8f adbd 9298 1ebe ffb1 dbbd 518a 09be
00000090: 6e3d c83d 2568 ca3d a120 04be 9d4e 06be
000000a0: 9420 64bd 9ba9 20bd 14cc 0abe fbee 43bd
000000b0: 51e3 30bd 81ed c3bd 4d06 abbd b593 d8bd
000000c0: 33b5 0bbe 13ff f53d 9e80 35bd e4eb 6fbd
000000d0: 07f2 de3b f95d c13d 356d d8bd e862 b0bd
000000e0: 0278 9f3d f792 6dbd 577d a7bd 2d24 1ebd
000000f0: c27d e0bd 3bd1 9a3d 828e e0bd d804 e63c
00000100: 5f1b 22bd ee42 d4bd 5b0d eb3c e949 993d
00000110: 32b4 e8bd ea10 e33d 19a1 073d 9cd3 913d
00000120: 33fa a23d a54b 6cbb 1058 cdbd 31af 80bd
00000130: 0f9d 6dbd f89e 953c 986e 2cbd 1b34 1ebe
00000140: cced 91bc 401e 723d 5227 8b3d f976 81bd
00000150: cb28 9ebd 323b b43d 55c8 e7bd f3d7 d1bd
00000160: 75b1 00be 46da efbd 30ae 943d e464 eebd
00000170: 4ce1 74bc 93b8 9bbd 69e6 8e3d 0170 f43d
00000180: 5509 6b3d 19ad 4bbd db51 35bd 379d 80bd
00000190: baf9 1a3d b402 8b3d b837 09be 4aec 9d3c
000001a0: 792a 03be 9446 06be f596 04be b9cc 3e3d
000001b0: c7e0 c13d 774b 00be f0bd a9bd 3a1b d93c
000001c0: 74ee cebc 9f7d debd df45 3e3d c6f4 063e
000001d0: 55f4 673d c484 b7bc 7a1e 843d 7923 1e3b
000001e0: 1f6d e03c 02ab 8f3c 6127 e0bd c031 bdbd
000001f0: 7de6 debd 8e50 df3b e40e e5bd 6455 453d
00000200: 83fb 7ebd 0f27 e23c 0bce 8ebd 494e 97bc
00000210: 7f03 693d 7f21 b4bc 4fdb b5bc 389b ac3d
00000220: 879a 91bd d84d 833c 445c 78bd 1178 b8bd
00000230: c3a2 5ebd 4972 d1bd 9370 403b b349 4fbd
00000240: 6d65 19bc 9d27 9ebd 037b a8bc 0c89 843d
00000250: 4dd3 a6bd 60df d23c 2914 0fbd 8d64 36bd
00000260: 30ce f8bd 9441 533d 85e6 603d c030 0ebd
00000270: 4e03 b5bd 107d 45bd 9353 dcbd c185 713d
00000280: 8699 923d f849 a13d a9ae c43b bc19 42bd
00000290: b9ac 0fbd 1ef9 613d beb1 f1bb e257 473d
000002a0: d389 c2bc 91cb 6ebd eaf0 cdbd cb30 093d
000002b0: cb0e 32bc 7d3e d53c b526 e5bc f529 b4bd
000002c0: 686e d1bd 7945 7cbd fa40 ef3c 3148 ed3d
000002d0: 3918 53bd fec9 e0bd 36a8 e2bd d367 a8bd
000002e0: c4ed 70bd 1574 233c 84d7 ebbb 7768 983d
000002f0: 1100 353d a5fe 9cbd 57a4 533c b423 543d
00000300: 9413 a23d de24 553d bf26 1f3d 4139 cebd
00000310: d611 b4bc 2dbe 8ebc 1817 723d dc20 863d
00000320: cef5 b5bd 4584 02be 338c 48bd 5bca 18be
00000330: 316a 96bd b41c a2bc 0d76 c5bd 48cb ca3c
00000340: f786 f4bd b2b8 a2bd f040 f2bd aad4 cd3d
00000350: 7b23 ccbd 5f5d 8a3d d5d6 dd3d 7db6 25bd
00000360: 67c5 72bd de41 633c 4ec9 5a3d 711c 853d
00000370: 6416 833d 7ddd 67bd 28cc 053c e13e 093d
00000380: fd42 08be d018 5cbd 85da ffbd 5675 d43d
00000390: a3ae 223d fca1 0a3c ecdd 55bc 162d adbd
000003a0: 7d8c 963d abea e7bd 0b12 b33c 2e67 2c3c
000003b0: ed48 08be 7bab f3bc 8689 ccbc 501e 7f3d
000003c0: 6712 88bd 660b 9ebc 21ec c8bb bd33 8d3b
000003d0: 8586 1a3d 6e9d 4a3d 81bc 733d 1b60 e93d
000003e0: 2cc0 97bd c189 843d e584 ddbd 57f0 713c
000003f0: d48f 303d c846 89bd 7439 02be f105 c43b
-0.107820235 0.13761544 -0.11426462 -0.11652118 0.042060465 0.013079946 0.059586048 0.019057889
-0.0856057 -0.039560504 -0.08385818 -0.13515468 0.086080834 -0.04034958 -0.0008634746 -0.09674161
-0.1518017 -0.11203377 0.063887194 -0.12189682 0.031175418 0.042800695 0.062339384 -0.1304488
-0.079634614 0.10965166 -0.0023046867 -0.029874446 -0.031356793 0.12922244 0.11667217 -0.08480902
-0.08474657 -0.15487888 -0.107273094 -0.1343167 0.09777342 0.09883145 -0.12903072 -0.13115926
-0.05569513 -0.03922425 -0.13554412 -0.04783533 -0.043185536 -0.09566785 -0.08350811 -0.10575048
-0.13643341 0.12011542 -0.044312112 -0.058574572 0.0068037543 0.09441752 -0.105677046 -0.08612615
0.077865615 -0.058001485 -0.081782036 -0.03860872 -0.109614864 0.07559439 -0.10964681 0.028078482
-0.039576884 -0.10364328 0.028692892 0.074848 -0.113624945 0.110872105 0.03311262 0.071204394
0.07957878 -0.003605583 -0.10026562 -0.06283415 -0.05801111 0.018264279 -0.042097658 -0.15449564
-0.017813586 0.05911088 0.06794609 -0.0632152 -0.077226244 0.08800353 -0.11317507 -0.10246267
-0.12567694 -0.11711554 0.07259786 -0.11640337 -0.014946293 -0.07603564 0.06977541 0.119354255
0.057381947 -0.049725626 -0.044267517 -0.06279986 0.037835814 0.06787625 -0.13400161 0.01927771
-0.12809171 -0.13112861 -0.1294821 0.046581957 0.09466701 -0.12528788 -0.08288181 0.02650224
-0.025260188 -0.10863804 0.046453353 0.13179311 0.056629498 -0.022402175 0.064511254 0.002413003
0.027395783 0.017537598 -0.10945011 -0.09238005 -0.10883806 0.006815023 -0.11184481 0.048177138
-0.06225158 0.027606515 -0.06972893 -0.018469946 0.0568881 -0.021988628 -0.022199301 0.08428043
-0.07109552 0.01602833 -0.060634866 -0.09007276 -0.05435444 -0.10226876 0.0029363974 -0.050607394
-0.009362561 -0.077223994 -0.020566469 0.06471452 -0.08145771 0.02574128 -0.034931336 -0.044529486
-0.12148702 0.051576212 0.05490734 -0.03471446 -0.08838521 -0.048214972 -0.10758128 0.05896545
0.071581885 0.078754365 0.0060022664 -0.047387823 -0.03507683 0.055169217 -0.007375925 0.048667796
-0.02374736 -0.058299605 -0.10055716 0.0334938 -0.010867785 0.026030773 -0.027972559 -0.08797065
-0.102261364 -0.06158969 0.029205788 0.11586035 -0.051536772 -0.10976027 -0.1106724 -0.08222928
-0.0588205 0.009976407 -0.0071973223 0.074418 0.044189516 -0.07665757 0.0129176 0.05179186
0.079138905 0.052037112 0.03885531 -0.10069514 -0.021981161 -0.017424667 0.059104055 0.06549236
-0.08884774 -0.1274577 -0.04896183 -0.14920942 -0.07344473 -0.019789077 -0.09641657 0.024755135
-0.11939805 -0.07945384 -0.11828792 0.10050328 -0.09967705 0.067560904 0.108319916 -0.040457238
-0.05927029 0.013870684 0.053414635 0.064995654 0.06400755 -0.056607712 0.00816635 0.03350723
-0.13306804 -0.0537346 -0.12492851 0.103739426 0.039717328 0.008461472 -0.013053399 -0.08455865
0.07351015 -0.11324056 0.02185919 0.010522647 -0.13309069 -0.029744854 -0.02496792 0.062284768
-0.06644135 -0.019292545 -0.0061316644 0.004309146 0.037725944 0.049466543 0.059505943 0.11395284
-0.07409701 0.06471587 -0.10816363 0.014766774 0.043105915 -0.067029536 -0.12717229 0.0059821536
