older ver/nvda_lstm_v4_multistock/best_reg_multistock_complete.pth (torch, 385409 bytes, 15 tensors)

lstm.weight_ih_l0 f4 [256, 36]
000000 7b 75 42 3d 61 71 6e 3d b8 cd 3e bd c6 c5 02 3e
       0.04747532 0.058213595 -0.046582907 0.12770757
000010 59 88 c1 bd 48 bc 1c 3c 11 88 a5 bd 9c 92 89 3d
       -0.094498344 0.009566374 -0.08082593 0.06717417
000020 4c 1e 47 3d fb 19 06 be 60 78 3f 3d 9b 66 d2 3c
       0.048612878 -0.13095848 0.046745658 0.025683692
000030 50 ea b3 3d ce b9 b1 3c ad 18 6b 3c c2 66 6e bd
       0.08784926 0.021695044 0.014349145 -0.058203466
000040 be 2f 95 3d f9 cb a8 3d c6 9c 7e bd a4 a1 a0 3c
       0.07284497 0.0824203 -0.06216123 0.019608326
000050 fb 56 73 bc 36 c6 46 3b b5 5b 2f 3c a7 c0 4d 3d
       -0.014852281 0.0030330545 0.010703017 0.050232556
000060 36 5a ef bd 02 da d1 bd a1 12 a0 bd 00 db b5 bb
       -0.11687128 -0.1024666 -0.07816053 -0.0055497885
000070 0d 98 84 bd e2 a6 0a be 6a 44 47 bc 91 16 bd bd
       -0.06474314 -0.13540223 -0.012162307 -0.0923282
000080 b8 7f b0 3d e6 59 4a 3d 7a 20 58 bd ef 82 e4 3d
       0.086181104 0.04940214 -0.052765347 0.11157786
000090 05 4f 24 3e 37 78 83 3d ee 21 30 3b 5c c6 1b 3e
       0.16045769 0.064194135 0.0026875692 0.15212387
0000a0 29 04 52 bc f6 a1 73 be 53 10 b5 3d 2c 1a 5c 3d
       -0.012818375 -0.23792252 0.08841004 0.053735897
0000b0 73 58 7d 3e 1a 7e 30 be 7b e4 cf 3d cd c9 e6 bd
       0.24740772 -0.17235604 0.10151001 -0.11268959
0000c0 a0 a5 15 3d db 14 8e bd c0 62 eb bd 95 cd c1 bc
       0.036534905 -0.069375716 -0.114934444 -0.0236576
0000d0 65 bb 05 be b4 ed 0b 3d f7 01 42 3d 55 19 1d 3e
       -0.13059767 0.03416224 0.047365155 0.15341695
0000e0 00 b1 60 3d 9f ae b7 ba 1d 7e 03 3e ca 9a 11 be
       0.0548563 -0.0014013833 0.12841077 -0.14219204
0000f0 c2 5b 9d 3d 83 f4 db bd 7d 2c 81 3d 38 cb a6 be
       0.07683517 -0.10739996 0.063073136 -0.3257692
000100 78 37 c0 3d 30 9c e4 bc 93 39 4c 3e f7 00 6c bd
       0.0938558 -0.027906507 0.19943838 -0.057618108
000110 83 66 24 be ab ef 7e bb 9f e5 01 3e 29 c6 c2 bd
       -0.1605473 -0.0038900177 0.1268525 -0.09510452
000120 19 4c 04 3e d2 54 ff bd 99 f1 c8 bd 7a 80 66 bc
       0.12919654 -0.1246735 -0.09811706 -0.014068717
000130 96 2d ba 3b 72 64 22 bd 06 ad 0d be 3a c3 64 3d
       0.005681704 -0.039646573 -0.13835534 0.055850245
000140 b6 9f 89 3c 4f 9e c7 bd bd 0e 34 3d 8e 71 d5 bd
       0.016799789 -0.09746992 0.043959368 -0.104220495
000150 8b bb 8d 3d 93 aa 8f bd 83 92 81 3d 76 fb 7c bd
       0.069205366 -0.07014956 0.06326773 -0.06176325
000160 11 49 01 be de 75 a3 bd cd 00 36 3d 70 27 21 3d
       -0.12625529 -0.07981466 0.044434357 0.03934425
000170 c5 e7 23 3e 75 ab 0d 3d 59 d3 27 bc bb 70 00 be
       0.16006382 0.034587342 -0.01024326 -0.12543003
000180 56 a1 44 3d 6a b6 d5 bc 35 75 e6 bc 96 4e 6a be
       0.048005424 -0.026087958 -0.02813206 -0.2288154
000190 24 27 8a bd 86 08 a5 3d 48 77 d5 3c f3 0f d8 bd
       -0.06745747 0.08058266 0.026057854 -0.10549917
0001a0 e3 b1 6a 3d 59 d4 eb bc 5e 36 9a bd 9a 71 16 be
       0.057298552 -0.028787779 -0.07529901 -0.14691773
0001b0 6f a0 ba 3c 95 6a 9c bd 63 e9 23 3e 63 8b 98 3e
       0.022781579 -0.076375164 0.16006999 0.29793844
0001c0 9c 6c c6 bd c8 de 1f be 16 d0 b2 bc c4 4e ff bd
       -0.09688684 -0.15612328 -0.021827739 -0.12466195
0001d0 46 1f f2 3d 88 93 4e be fd da 95 3d c9 96 9a bd
       0.11822371 -0.20173466 0.07317159 -0.07548291
0001e0 43 c7 ab bc df 6d 1e bd bd 7d a4 bd 0e 9b 1d be
       -0.020969039 -0.038679 -0.08031795 -0.1539118
0001f0 6c 0d b6 bd 11 b4 04 be 66 01 4b bd b7 08 1c be
       -0.08889279 -0.12959315 -0.04956188 -0.152377
000200 97 5f ac 3d 9c 9f 19 bd 04 99 a2 3d ad e8 37 3d
       0.0841667 -0.03750573 0.07939342 0.04489963
000210 a8 b4 f8 bc 6b a4 86 bc 85 f6 ce bd 82 cb 67 be
       -0.030359581 -0.016435822 -0.101056136 -0.22636226
000220 b7 65 45 be 82 4b c5 bd 7b d3 c9 3d 42 27 0a bd
       -0.19277082 -0.096335426 0.0985479 -0.033728845
000230 cb 39 ed 3c d0 8a 88 bd f9 9b dd 3d d2 6b a7 be
       0.028958222 -0.066671014 0.10820765 -0.32699448
000240 68 82 f8 ba ab d5 31 3d d5 ec 54 3d ce de 4b 3e
       -0.0018959763 0.04341666 0.051983673 0.19909212
000250 1f c4 bb bc 42 8a 55 be 1e 1f 3c bd 9a 40 e0 bc
       -0.022920666 -0.20853522 -0.045928113 -0.027374554
000260 59 b1 99 3c 7e d3 9b be 1d 84 be 3c a1 8b ab bd
       0.018761324 -0.30434793 0.023256356 -0.083762415
000270 c3 e3 b5 3d 25 10 57 3c 06 ce 56 bd 64 40 1d be
       0.08881333 0.013126408 -0.052442573 -0.15356594
000280 5b a7 79 3d a1 a1 0a be 20 90 c9 3a 5c e7 eb bd
       0.06095062 -0.13538219 0.0015378036 -0.11518738
000290 5a f4 9b 3c 0c ab 82 bd d6 23 10 be f6 a9 42 3d
       0.019037414 -0.06380281 -0.1407617 0.04752537
0002a0 bc f2 88 bd 96 5a 2c be a3 79 1a be e3 fc 8e be
       -0.06686923 -0.16831431 -0.15085463 -0.27927312
0002b0 48 b6 c4 3d 53 a1 2e bd 7e 75 0b be 22 53 cb bd
       0.0960508 -0.04263432 -0.13619038 -0.09927966
0002c0 46 88 02 be f2 e2 16 3d 9a 58 b3 3d cb 1d 7f be
       -0.12747297 0.036837526 0.08757134 -0.24913709
0002d0 bb f5 19 bd aa 15 06 3e 6c 74 c6 3d b2 41 92 3e
       -0.037587862 0.13094202 0.096901745 0.28565747
0002e0 75 72 fd bd 91 66 cf 3c 6d d4 af 3d ee 9a 24 3c
       -0.123753466 0.025317462 0.08585439 0.010046704
0002f0 a5 0c 9e 3d 03 4a 7b be b7 e6 9e 3d 1e 3c 29 be
       0.077172555 -0.24539952 0.07758849 -0.16526839
000300 d3 88 11 3e da e6 bf 3d 75 01 66 be 03 c3 5b be
       0.1421235 0.09370203 -0.22461493 -0.2146111
000310 b5 2e fb bc 70 11 22 be 97 3a 78 3d ae 27 45 bd
       -0.03066192 -0.15826964 0.06060275 -0.048133545
000320 c0 30 da bd 17 00 c7 bd c3 aa ac 3c 40 24 02 3c
       -0.106538296 -0.09716814 0.02107752 0.007943213
000330 52 92 55 3c cf 45 ac be ab be 8d be d4 9e 13 bf
       0.013035374 -0.3364701 -0.2768453 -0.5766423
000340 56 21 8e bd 3e 70 cf 3d ec dd 82 3c cc fd 8a 3c
       -0.06939952 0.101288304 0.015974961 0.016966723
000350 28 35 a5 bd 98 73 b4 bd a8 62 b8 3c 81 da fc bd
       -0.080667794 -0.0881111 0.02250798 -0.12346364
000360 ad 29 44 3d de f9 31 bd 7f 4b 50 3d 31 ab 25 bd
       0.047891308 -0.043451183 0.05085325 -0.040446464
000370 be 5c 1f bd ec 08 f6 3d 1c 82 3a be 4b 1c 2d bd
       -0.038906805 0.120134205 -0.18213695 -0.04226331
000380 09 70 e7 bd 96 6a a0 3d 4d 66 12 3e 08 db 5e 3c
       -0.11300666 0.0783283 0.14296837 0.013602026
000390 7d ad a1 bd 87 b6 11 be b5 a6 f7 bd 05 6a a7 3d
       -0.078944184 -0.14229785 -0.12092344 0.081745185
0003a0 74 89 35 3d 89 f8 19 3e 5a 8e 55 3d 79 4e 80 3c
       0.04432054 0.15036215 0.05213771 0.015662419
0003b0 42 6a cf 3c 3b 83 e2 bd 05 54 bd bd f3 d3 ff bd
       0.025319222 -0.110601865 -0.09244541 -0.12491598
0003c0 4f 2e b0 3b 21 af b9 bd 89 6c 20 bd 05 9e 35 be
       0.005376614 -0.09066606 -0.039166007 -0.17736061
0003d0 b8 b5 38 bd cc 4f b2 bd d2 04 b7 bd 6e 5f e0 3c
       -0.045095176 -0.08706626 -0.08936466 0.027389254
0003e0 0e 8e c5 bc 29 58 9c 3d 09 5e 2c bd 2d 85 02 be
       -0.024115589 0.07634003 -0.042081866 -0.12746115
0003f0 78 7a 2f bc 86 60 b0 bd b6 6b 1d bd eb 9d 9a bd
       -0.010710351 -0.086121604 -0.0384328 -0.07549652

lstm.weight_hh_l0 f4 [256, 64]
000000 c0 49 e3 3d 49 52 22 be 34 a6 33 bd 5c 5b 59 bd
       0.11098051 -0.15851702 -0.043859676 -0.053065643
000010 52 d4 52 3d 72 c0 57 3e 85 fe 1e 3e ac 83 6c bd
       0.051472016 0.21069506 0.15526779 -0.05774276
000020 4d ff a7 bd 69 93 09 bd 5e b2 cf 3d dc ad 38 3e
       -0.08202992 -0.033587847 0.10141443 0.18035072
000030 ac 18 c5 3c f7 f9 ec bd 92 04 f9 bd 72 f1 79 bd
       0.024059616 -0.115711145 -0.12159075 -0.061021276
000040 30 4f fa bd b1 f9 3d bd 27 11 bc bd 06 19 7d 3d
       -0.12222135 -0.046380702 -0.09182959 0.061791442
000050 20 9a 69 bc 60 09 04 be 58 8e c9 3d 86 ce fe bd
       -0.014257938 -0.12894201 0.09841603 -0.12441735
000060 e2 a8 36 bb 4f 10 fe 3d be 04 31 3d af 7d dd bd
       -0.0027871658 0.12405454 0.043217413 -0.10814988
000070 8d eb 80 3b 5d 27 d7 bc 34 53 a1 3d 81 eb f4 3d
       0.00393433 -0.026263887 0.07877198 0.11958981
000080 bd 90 0c 3e 4b bd 77 bc 9f be 83 3d 88 6a 06 be
       0.13727088 -0.015120815 0.064328425 -0.13126576
000090 0c f4 c2 3d 10 e3 0c 3e 85 dc 5a be 80 70 91 bd
       0.095192045 0.13758492 -0.21373184 -0.07101536
0000a0 c4 b3 ad bd f4 89 c7 bd 59 1d 82 3d b4 dc 19 bd
       -0.08481553 -0.09743109 0.06353254 -0.037563995
0000b0 ef 0c 79 3d a4 e8 31 bc ef 4a c9 3d 3f 87 d6 3c
       0.06080335 -0.0108586885 0.098287456 0.026187537
0000c0 29 36 c4 bc 68 57 99 3d 00 30 4c 3d f1 c7 d7 bb
       -0.023951607 0.074873745 0.049850464 -0.006585114
0000d0 02 0d e0 bd 71 b8 9a be b5 ad f0 3d cf 01 54 3d
       -0.10939981 -0.30218843 0.11751882 0.051759537
0000e0 8c 13 e5 bd f5 e2 01 3d 1b cf 77 3c d2 04 90 bd
       -0.11185369 0.031710584 0.015125061 -0.070321694
0000f0 eb 20 8b bb 7c 3c a6 3c f4 8e 09 3e c0 52 f1 bd
       -0.0042458675 0.020292513 0.13433439 -0.117833614
000100 30 ad 1a be c3 93 6e be 48 aa d3 bd fb 61 25 be
       -0.15105128 -0.23298554 -0.10335213 -0.16150658
000110 d5 3a 0d be 38 d8 c3 3d 0e 28 d7 3d 02 1e e0 bd
       -0.13791974 0.09562725 0.10505687 -0.109432235
000120 60 38 a0 bc df c0 94 be cf ef 84 3d c1 1f d0 3e
       -0.019558132 -0.290534 0.06491052 0.40649226
000130 02 03 e9 bb 70 b2 25 3d 57 b9 83 bd 8d 5f 3e 3d
       -0.0071109543 0.040453374 -0.06431835 0.046477843
000140 b5 48 9d bd f5 54 40 bd 94 36 a2 bd a7 05 bd 3d
       -0.076798834 -0.04695602 -0.07920566 0.09229594
000150 69 87 2b 3d b8 2a f8 bd b5 30 e4 3c df 6d 10 3e
       0.041877184 -0.12117523 0.027855257 0.14104412
000160 eb 91 21 3e 25 ba 29 bc eb a3 83 3b 1f f7 4f 3d
       0.1577832 -0.010359322 0.0040173433 0.050772782
000170 7f 3c c4 bd 78 08 f7 3d 52 77 78 bd b8 30 3b be
       -0.09581851 0.12062162 -0.060660668 -0.18280303
000180 7f 55 c7 b9 2b 5f b6 bd db fd 69 3d e4 df f1 3d
       -0.00038019937 -0.089048706 0.05712686 0.11810282
000190 d7 32 db 3d 15 60 c6 3e 44 d0 7b 3c e9 76 6f 3e
       0.10703056 0.3874518 0.015369479 0.23385204
0001a0 9a 44 64 bd 6e 99 fa bd ef 24 5f bd 00 e9 66 bd
       -0.055729486 -0.12236296 -0.054478582 -0.05637455
0001b0 ae c0 a4 3d 17 e8 0e bd 3a 96 b3 bd cd f5 3d be
       0.08044563 -0.034889307 -0.08768888 -0.18550797
0001c0 c6 81 cb bc 21 da 24 3e 64 92 8e 3e b8 b8 2c be
       -0.024842154 0.16098835 0.27846062 -0.1686734
0001d0 9d b7 51 3d 71 c4 34 be ee 1c 63 3e d8 e4 af bc
       0.051200498 -0.17653061 0.22179005 -0.021471426
0001e0 b9 4f c0 3b 8d 5b 5b bc 80 5c cf bb c4 4f d9 be
       0.0058688787 -0.013388527 -0.0063281655 -0.4244367
0001f0 fc a0 63 3e b7 c7 06 3e 68 40 5f 3e 55 1e 02 3e
       0.2222938 0.13162123 0.21801913 0.12706883
000200 93 48 98 bd e4 80 b2 bd 71 30 8a 3c b5 4c f0 3d
       -0.074357174 -0.0871599 0.016868802 0.11733381
000210 07 16 06 be 5d a4 6c bd 03 8e bd 3d 23 ec 15 bd
       -0.1309434 -0.057773937 0.09255602 -0.03660215
000220 de 83 59 be cf fc 2b bd bd 09 d6 bd 0d 73 17 3d
       -0.2124171 -0.041989144 -0.10451076 0.036974955
000230 40 1a 83 3d 75 ba ca 3d 57 ad 95 bc ee d4 69 bd
       0.06401491 0.09898845 -0.018271131 -0.05708783
000240 cc f2 1e be 1f cf bd 3d 08 c5 a4 3d bd 0b bb bd
       -0.15522307 0.09268021 0.08045393 -0.09133098
000250 d7 89 0c bd a8 8a b0 bd 5a c2 1b bd 8b c5 db 3d
       -0.03431114 -0.086201966 -0.038027145 0.10731038
000260 11 4f 06 3c 9a 77 41 be 5b 1e c4 3c bf 33 95 bc
       0.008197562 -0.1889328 0.023940256 -0.018213151
000270 ee 24 42 bb 03 07 fa 3d 33 a7 24 3e cf f3 8b bd
       -0.0029624063 0.12208369 0.16079406 -0.06833612
000280 a0 ae c6 bd 3b 62 2b be 6b 2c 2c 3d 31 18 c7 bb
       -0.09701276 -0.1673669 0.042034548 -0.006075882
000290 f3 fa b4 bc 6c 88 1a 3d 0e e1 31 bd 09 25 34 3d
       -0.022092318 0.03772776 -0.04342752 0.043980632
0002a0 09 7a 2a be 97 58 4e 3e 32 c0 c0 bd 2b 00 be 3d
       -0.16648115 0.20150982 -0.09411658 0.09277376
0002b0 6d 35 b0 3c c3 67 04 bd 46 6a 21 be 98 6a da 3d
       0.02150985 -0.032325517 -0.15763196 0.106648624
0002c0 a5 28 b9 bd 49 e2 15 be 72 33 8b 3e 11 de 9d 3d
       -0.090409555 -0.14637102 0.27187687 0.077083714
0002d0 95 37 db bc 50 d6 b7 be d9 99 d9 3d c1 d3 cb 3c
       -0.026759902 -0.35905695 0.10625047 0.024881246
0002e0 3d 4e 1b 3e 28 25 0a be d2 00 82 3d ca 29 81 3c
       0.15166564 -0.13490736 0.06347813 0.015766997
0002f0 72 b7 e7 3c b3 04 90 bb d4 67 e1 3d 2c 29 ac 3d
       0.028285716 -0.0043950914 0.11006132 0.084062904
000300 db 05 18 be 0f c2 32 3e 21 3c e2 bb ff c1 95 bc
       -0.14845984 0.1745684 -0.0069041406 -0.018280981
000310 74 f0 2a 3d 0c a0 82 bd d7 4a 51 be 9b b1 41 bd
       0.04173322 -0.06378183 -0.20438705 -0.04728852
000320 62 ae ca 3d 8b 4d fc bd da ea ad bc 20 c8 0c bd
       0.09896542 -0.12319478 -0.02123015 -0.03437054
000330 c7 18 bc bd 00 ee b2 bd c9 8e b8 bd 45 1d 67 bc
       -0.091844134 -0.08736801 -0.09011609 -0.0141060995
000340 89 e7 96 bd 50 a8 22 bd 8d 7f 2a bc f4 05 03 bd
       -0.073683806 -0.039711297 -0.010406387 -0.0319881
000350 9b 6f 28 be a5 9a 65 bd 80 db 02 be e6 54 b1 bd
       -0.16448824 -0.056055684 -0.12779045 -0.08658771
000360 a4 6a 03 bc f8 ac 1f 3d 1a 5d c3 3d 35 39 24 bc
       -0.008021031 0.038983315 0.09539242 -0.010023405
000370 bc 75 5f 3d 64 e0 12 3e 98 90 88 3d 63 68 0a 3c
       0.05455564 0.1434341 0.06668204 0.008447739
000380 d1 fe 8f bc a6 63 2f 3b da 0e f5 bd 45 f1 e3 bd
       -0.01757756 0.0026762276 -0.11965723 -0.11130003
000390 b4 d6 7e 3d ff 72 cf 3d 6a f2 0c 3c da 97 c9 3d
       0.062216476 0.10129356 0.008602718 0.098434165
0003a0 68 d7 51 bd 9c b2 5a 3a 2e 6b d8 bd 02 af d7 3c
       -0.051230818 0.0008342655 -0.10567318 0.026328567
0003b0 a7 5d 6a ba 37 32 92 bd c7 3d 47 bd 21 5d a9 be
       -0.0008940347 -0.07138484 -0.0486429 -0.33078864
0003c0 b6 f4 4e bd 5b 8e 5a be 44 72 e0 3c 2e aa 15 be
       -0.050526343 -0.21343367 0.027398236 -0.146157
0003d0 f7 a3 6f 3d 4e 9c 23 3e 86 7d 7a bc 7d da 7b bd
       0.05850598 0.15977594 -0.015288716 -0.061487664
0003e0 89 1b 45 be 15 7c 9e 3c 2f 09 0d 3e 87 37 1a be
       -0.19248785 0.019346276 0.13773035 -0.15060245
0003f0 ab d6 7c 3c 4c 44 16 3e 6f bc 29 3d a2 7e a5 3d
       0.01543204 0.1467449 0.04143947 0.08080794

lstm.bias_ih_l0 f4 [256]
000000 a5 8d 06 be 39 48 88 bd 88 d7 1a 3e a9 d5 92 bd
       -0.1313997 -0.066544004 0.15121281 -0.07169659
000010 2d 9c a2 bd 02 f7 35 3d 41 7e fb 3b 82 11 b7 3d
       -0.079399444 0.044425018 0.0076749627 0.08938886
000020 56 56 94 bd 61 de 8a 3c 93 dd af bd 2e 46 03 3e
       -0.0724303 0.016951742 -0.08587184 0.1281974
000030 fa b4 41 3d 62 e8 98 bc fd 97 80 3d b6 61 0f 3e
       0.047291733 -0.018665496 0.062789895 0.14002118
000040 15 91 bd bd 14 55 7a bd 72 8d 6c 3d 94 87 eb bd
       -0.09256188 -0.061116293 0.05775208 -0.11500469
000050 bb f1 90 bb 15 09 ea 3b e7 12 3b 3d 29 7d 0c 3d
       -0.004423348 0.007142196 0.045672324 0.03429905
000060 5d c5 3c bd 9e 43 30 bc e8 00 b7 bd c4 0a b8 3d
       -0.046086658 -0.010758309 -0.0893572 0.089864284
000070 90 87 81 3d 34 3b f6 3d 5a 04 c4 3d ab 53 fb 3c
       0.063246846 0.12023011 0.095711425 0.030679544
000080 16 c7 92 3d 2c 87 43 3c fe 06 af bd 1d 67 7e bd
       0.07166879 0.011934083 -0.085462555 -0.062110055
000090 70 a0 3a bd 1f 36 53 bd 52 b3 cb bd 64 00 d3 bd
       -0.04556316 -0.051565286 -0.09946312 -0.10302809
0000a0 8b 95 1d 3d 1e 0c 71 bd c6 fe e7 bd 4b ac 08 3d
       0.038472693 -0.058849446 -0.11327891 0.033367436
0000b0 3f 47 e9 bd 0a 18 af b9 d9 d0 6c bc 30 3a 60 3d
       -0.11390542 -0.00033396512 -0.01445409 0.054742992
0000c0 3f d7 a0 3d 0d 94 99 3d 60 0c 0c be 76 ec 0f 3c
       0.07853555 0.074989416 -0.13676596 0.008784404
0000d0 01 b6 77 3d c2 ea 37 3c af cc cc bd db 49 c9 bd
       0.060476307 0.011225404 -0.09999978 -0.0982854
0000e0 0e c2 bc bd 18 43 51 3d ae 70 82 bd 66 89 63 3d
       -0.092167005 0.051089376 -0.06369148 0.055550955
0000f0 3d b6 4d bd 76 42 0f bd 99 40 19 bd cb de ca 3d
       -0.050222624 -0.03497549 -0.03741512 0.09905776
000100 35 ec 19 3c 6d 79 85 bd 84 bf 2f 3e 77 3f 7e 3c
       0.009394695 -0.06517301 0.17162901 0.015518061
000110 91 06 cd 3d 4b af d2 3d d0 aa a8 bd 74 e1 06 3d
       0.10011018 0.10287341 -0.08235705 0.032929853
000120 2f 69 de bc 9e b4 a3 bd d2 82 cf 3c 78 6c c6 3d
       -0.027149765 -0.07993434 0.025330935 0.096886575
000130 31 39 4c bd 82 5e 0a 3d 99 3c 83 bd 48 bd 16 3e
       -0.04985923 0.033781536 -0.064080425 0.14720643
000140 2e 2c 82 39 d7 d3 1c 3d e7 26 1a bd 9c 20 58 bd
       0.0002482845 0.038287964 -0.037634756 -0.052765474
000150 99 52 ce bc 17 80 df 3c 7e 6b 29 bd 30 b7 99 bd
       -0.02518587 0.027282758 -0.04136228 -0.07505643
000160 44 4c 6c bd 5b 0e e8 3d a1 9b 7c bd 9a 09 fa 3d
       -0.05768992 0.11330863 -0.061671857 0.122088626
000170 36 08 7f 3c 32 e1 51 3b 94 22 f0 3c cc 3d 7e 3c
       0.0155659225 0.0032025096 0.029313363 0.015517663
000180 bf 29 6d bc 4b 52 b6 3d f0 e5 3d bd c0 c7 dd 3d
       -0.014475285 0.08902415 -0.046361864 0.10829115
000190 09 5a db 3c ce fe f0 3b 55 c3 a8 bd c3 c1 5a 3d
       0.02677633 0.007354594 -0.08240382 0.05340744
0001a0 8a 42 3f 3d 41 27 64 bb db b5 ef bd 54 8a 5c 3d
       0.046694316 -0.0034813436 -0.11704608 0.053842857
0001b0 b8 3a f4 3b 91 0e 87 3d 05 7f b1 bd ff 86 bb 3d
       0.007453289 0.06594575 -0.08666805 0.09156608
0001c0 d3 3f 9b 3d 78 dd 99 3d b4 6d da 3d 91 d0 cf bd
       0.07580533 0.07512945 0.106654555 -0.10147203
0001d0 86 06 06 3e 53 19 99 3d 44 ce aa 3d aa 77 04 3e
       0.13088426 0.07475533 0.08340123 0.12936273
0001e0 e0 8c 3c 3c 70 98 05 3d fc ab 36 3d f6 6e 1f 3e
       0.011508197 0.03261608 0.04459761 0.15569672
0001f0 c3 ad 48 bd ef aa e6 3d 92 9b 4b 3d d1 d4 93 3d
       -0.048993837 0.11263072 0.04970891 0.07218326
000200 15 29 fe 3a 77 6f dc bc ce c1 c1 bc 4a f5 9a bc
       0.0019390906 -0.02690862 -0.023651984 -0.018915791
000210 8b 41 a7 bd ca c8 56 3d 66 45 6f 3d eb b6 e3 bd
       -0.08166798 0.05243758 0.058415793 -0.11118873
000220 30 4b 8e 3d 9b 19 cd bd 9e 78 f2 bc 36 60 ab 3d
       0.06947935 -0.100146495 -0.02959853 0.0836796
000230 fb 36 ff bc d3 de 28 3d 5d ad 8c 3d e5 5c 33 3b
       -0.031154146 0.041228127 0.06869004 0.0027368602
000240 5e b5 e9 bd 1e 23 9f 3d 9d 36 32 bd b1 d4 a8 bd
       -0.11411546 0.0777037 -0.043509115 -0.08243693
000250 54 43 1e bd ac 1b 99 3d 3f 12 b9 bc d0 5f 58 3d
       -0.038638428 0.07475981 -0.022591708 0.05282575
000260 98 13 73 bc b9 5a ae bd 1d df d5 bb 8c c8 c8 3d
       -0.0148362145 -0.08513398 -0.0065268413 0.09803876
000270 42 d9 e9 3d 36 88 0b 3c ae e7 9f bb 7e 70 af 3d
       0.11418392 0.008516362 -0.0048799133 0.08566378
000280 7b 96 37 bd 4c 81 5e bd c1 2d 93 3d c2 a2 9e 3d
       -0.044821244 -0.054322526 0.07186461 0.07745887
000290 ab e5 84 3b 9b 79 71 3b f0 3a b4 bd ff a1 b6 bc
       0.004055699 0.0036846164 -0.08800304 -0.022294043
0002a0 0f 44 cd bd da 75 d6 3c 36 f5 dc 3c 74 54 db 3c
       -0.10022747 0.026179243 0.026972394 0.026773669
0002b0 ff c5 07 3e 6d 20 10 3d 85 ac de 3b 07 1f c3 bd
       0.13259123 0.035187174 0.0067954683 -0.09527402
0002c0 86 3f a4 bd 80 45 00 be dc 3d 31 3d 37 47 22 bc
       -0.08019929 -0.12526512 0.043271884 -0.009904674
0002d0 23 4d 8c 3d 0c cf 55 3d ec 90 aa bc f0 a3 23 bd
       0.0685065 0.05219941 -0.020821057 -0.039951265
0002e0 43 76 ae 3d 4c b1 fa bd 13 b6 4f 3b 0d 82 4d 3d
       0.085186504 -0.12240848 0.0031694218 0.050172854
0002f0 8b 74 ef bd 3f 81 bb 3d 53 b6 5d bd db f2 04 3e
       -0.11692151 0.09155511 -0.054128956 0.12983267
000300 71 10 1c bd 36 9d 70 bd 6c 99 b1 3d f9 f2 a5 bd
       -0.038101617 -0.058743678 0.08671841 -0.08102984
000310 a8 be b4 bd 2f 39 c0 3b 4a c7 b1 3d 42 d3 2a 3d
       -0.08825427 0.005866192 0.086805895 0.041705377
000320 3b 31 f4 3d 8b 78 5c bd ae ce ed bb fd ae c7 bb
       0.119234525 -0.053825896 -0.007257304 -0.0060938583
000330 9a b1 f3 3d c7 7e c7 3c f2 21 0a be be d4 ad 3d
       0.11899109 0.024352444 -0.13489512 0.08487843
000340 a5 aa da bd 73 c7 6b 3d 28 e5 e2 3c b8 da 99 bd
       -0.10677079 0.057563256 0.02769716 -0.075124204
000350 3f 95 0c be 59 4e 8b bc ee bb b1 bd 1e f4 b0 3d
       -0.13728808 -0.017005133 -0.08678423 0.08640312
000360 44 2b 18 bd 1e cf 36 bd cc 98 9e 3d bc ab a7 bc
       -0.037150636 -0.044631116 0.077439874 -0.020467632
000370 17 10 9f 3c f6 ea f3 bd c6 e2 a0 3d 21 74 7b 3d
       0.019416852 -0.119100496 0.078557536 0.061390046
000380 7c 86 09 be 86 3e 0c 3e 8c 3e b0 3d 8e 34 4c 3d
       -0.13430208 0.13695726 0.0860568 0.049854808
000390 ce f6 18 bb 80 c4 93 bb 9b d5 b6 3d 97 aa 54 3d
       -0.0023340466 -0.0045095086 0.08927461 0.0519205
0003a0 49 41 8d bd 76 7d 7e bd 87 6a c9 3d ae 40 80 bd
       -0.06897218 -0.062131368 0.098347716 -0.06262337
0003b0 3a 82 35 bd c7 1d f3 bd 0f 5c 46 3d da 1e 04 3c
       -0.044313647 -0.11870914 0.048427638 0.008063996
0003c0 c3 68 b9 3d ad 3f c9 bc 0f 11 bb 39 b0 33 8d bd
       0.09053185 -0.024566496 0.0003568013 -0.06894624
0003d0 0b 5a ad bd 00 03 8e bd 3b 28 be 3c 78 91 3c 3d
       -0.0846444 -0.06934166 0.023212543 0.046037167
0003e0 41 a2 49 3d d9 84 ed 3d 97 64 ff 3c 52 50 10 ba
       0.049227003 0.11597604 0.031175895 -0.0005505133
0003f0 d1 36 a0 3d 68 7b f0 bd 72 90 d6 3d 4c 92 02 be
       0.078229554 -0.11742288 0.104767695 -0.1275112

lstm.bias_hh_l0 f4 [256]
000000 84 89 6c 3d 8d 5a a8 bd c2 eb 38 3e c8 e6 34 3d
       0.057748333 -0.08220396 0.18058684 0.044165403
000010 32 5e 35 3d 49 05 a1 3d df 80 5e bd f3 8e ce 3b
       0.044279285 0.07862336 -0.05432212 0.006303662
000020 08 14 2d 3d da 0a 06 3d 87 08 f8 3c 22 85 2c 3e
       0.04225543 0.032725193 0.030277504 0.16847661
000030 0b a3 89 bc 1b 5b 9e bd a5 83 05 3d 7a 8f 16 3e
       -0.016801378 -0.07732221 0.03259625 0.1470317
000040 f5 b6 8c 3d 48 7b 1a bd ad 29 ae bb 27 6b 8f 3c
       0.06870834 -0.037715226 -0.0053150267 0.017507149
000050 68 c2 b8 bc 7e 87 5d 3d 7c 4c ea bd 5e 17 26 3d
       -0.022553638 0.054084294 -0.114403695 0.04054963
000060 1c 85 86 bc 7c bb 87 3b 6f 58 2b bd 1e 67 e2 bd
       -0.016420893 0.004142223 -0.041832384 -0.11054824
000070 48 3c 9b 3d cd c6 5a 3c e8 a8 6a bc 5c 62 92 3d
       0.07579857 0.013353062 -0.014322497 0.07147667
000080 2a dd cb 3d 6c f1 2c bd 67 47 d2 bc 1d cf 45 bd
       0.09954293 -0.042222425 -0.025668813 -0.04829322
000090 38 6e ae bd f0 da e0 bd 54 69 bc bd 5e 47 55 bd
       -0.08517116 -0.10979259 -0.09199777 -0.052070014
0000a0 a2 f2 6e bb 13 ba 1c 3c 02 ae ac 3d 4c 40 86 bc
       -0.0036460538 0.009565848 0.08431627 -0.016388081
0000b0 67 99 8c 3d b7 63 17 be e9 d7 9c bc 22 16 fa bc
       0.06865197 -0.14784132 -0.019145923 -0.030528132
0000c0 0d 38 65 3c c5 79 cb 3d b9 09 43 3d 2f 3f 38 3d
       0.013990414 0.09935335 0.047616694 0.04498213
0000d0 0b af 69 3d 55 54 4d 3e ad 89 fe 3d 53 06 85 3d
       0.0570517 0.20051701 0.12428603 0.06495347
0000e0 2a b3 ae bd 7c 09 a2 3d 70 11 18 3c 52 40 bc 3d
       -0.085302666 0.07911965 0.009281501 0.091919556
0000f0 1b ac 69 3d e9 10 ff 3c 49 52 15 bc 98 83 74 3d
       0.0570489 0.031135993 -0.009113857 0.05969581
000100 97 c5 bc 3d 86 a2 24 3e 77 21 01 bd 0f e6 90 3d
       0.09217375 0.16077623 -0.031526055 0.0707513
000110 f9 5e b4 3d 62 14 20 3d 32 72 b9 bd ac 2a 9f 3d
       0.08807177 0.03908194 -0.09054984 0.07771811
000120 0f 8b 63 3d ca 01 de 3d 82 83 84 3d 04 b1 14 3e
       0.05555254 0.10840185 0.064703956 0.14520651
000130 3c 1d b7 bd 0e f3 ff 3c 87 50 09 be ed e1 93 3d
       -0.08941123 0.031243827 -0.13409625 0.07220826
000140 fc a2 53 3d 68 ca bb bc 34 73 ae 3d 97 6a ef bd
       0.051669106 -0.022923663 0.08518067 -0.11690252
000150 c5 e0 81 3d aa ce db bd 9c 28 b9 bd e8 44 b1 bd
       0.063416995 -0.107327774 -0.09040949 -0.08655721
000160 91 e4 8f 3d 55 2e e6 bd 17 a6 48 3d a8 8c d7 bd
       0.070260175 -0.11239306 0.04898652 -0.10524875
000170 7a ed 93 3c f7 51 06 bc 8c fa 4e 3d 78 95 81 bd
       0.018057574 -0.008198253 0.05053191 -0.06327337
000180 36 71 e6 3d 2c 99 30 3e 5a 2b e5 bd 7c 59 8a bc
       0.11252062 0.1724593 -0.11189909 -0.016888373
000190 2c 71 ca bd 14 89 a0 bd ef 39 21 bd f7 6a d0 3d
       -0.09884867 -0.078386456 -0.03936189 0.10176652
0001a0 4b 20 7f bd be 51 06 3e 47 80 db 3d e9 8b 6e 3d
       -0.062286656 0.1311712 0.10717826 0.058238897
0001b0 89 c9 b0 3d 22 ec 2a 3c ff 19 39 3d 2f 37 a5 3d
       0.0863219 0.010432275 0.045190807 0.08067166
0001c0 81 a9 06 be 08 6e a1 3d 68 4d 02 3c 23 21 d2 bd
       -0.13150598 0.07882315 0.007953025 -0.102602266
0001d0 ef 41 16 3e 37 e4 98 3d 8f fb 67 3d c8 2d cd bc
       0.14673589 0.074654035 0.05663639 -0.025046244
0001e0 11 5b 98 3d 50 02 2e 3d 0b 16 6b bd 55 25 a7 bc
       0.074392445 0.042482674 -0.05739407 -0.020403543
0001f0 45 9c 92 3d 29 21 e8 bd 9b 0f aa 3d 15 ad cb bd
       0.07158712 -0.1133445 0.08303758 -0.09945122
000200 ac cb 94 bd 18 66 83 3c 96 d4 91 bd b6 23 49 3d
       -0.0726541 0.016039893 -0.07120626 0.049106322
000210 b4 70 5d bd 48 c9 9e bd 5a 49 3d 3d 01 1d 9f 3d
       -0.05406256 -0.07753235 0.04621253 0.07769204
000220 5d da a5 bc f3 eb 17 3d f4 b5 99 bd 28 0b 48 bd
       -0.020245725 0.037090253 -0.07505408 -0.048838764
000230 2d 0e 6e 3d dd a4 4a bd f9 17 e7 bd d7 4d ad bc
       0.058118988 -0.049473632 -0.11283869 -0.021155281
000240 e6 da 53 bc 18 37 07 3d 2d 80 8c bc e3 bb b1 bd
       -0.012930607 0.033011526 -0.017150963 -0.08678415
000250 ae 33 db 3c 7e e4 87 3d e0 74 93 bc e3 97 14 3d
       0.026758041 0.06635378 -0.018000066 0.036277663
000260 ff bf f6 bb c7 8e b0 bb 35 3e 34 bd 2a c2 04 bc
       -0.007530212 -0.005388114 -0.044004638 -0.008102933
000270 c3 6a dd bd 5c e8 a9 3d bf 03 bb bd 70 aa b1 bd
       -0.10811379 0.08296272 -0.09131574 -0.086750865
000280 6e 91 97 bd 67 a3 b0 3b bd bf 96 bc 82 68 ab bd
       -0.074007854 0.005390573 -0.018401975 -0.08369543
000290 8d 03 6e 3d 26 1f 3a bd b5 19 8c bd fd ac 42 3d
       0.058108855 -0.04543986 -0.06840841 0.047528256
0002a0 0b 63 8e bd 0c 9d 01 bd 66 b8 0e bc 1f 9a a8 bd
       -0.06952485 -0.031643912 -0.008710956 -0.08232521
0002b0 ed 51 dc 3c 32 5e de bc 16 d4 03 bc 48 c5 40 bd
       0.026894534 -0.027144525 -0.008046171 -0.047063142
0002c0 f0 39 c6 3d 47 40 84 3d c2 c5 35 bd 93 ac a4 3c
       0.096790195 0.064575724 -0.04437805 0.020101821
0002d0 ab 99 1c be 47 35 f1 bd 62 7e e2 bd 1f 2f 5b bd
       -0.15292995 -0.1177774 -0.11059262 -0.053511735
0002e0 2f ec f6 bd b5 27 71 3d 82 12 e5 3d c1 b6 ba bd
       -0.12056767 0.05887576 0.11185171 -0.09116889
0002f0 6d d9 de bd c9 09 2e bd bf 45 9a 3d ee 6b 68 3d
       -0.108813144 -0.0424898 0.07532834 0.056743555
000300 c8 ff 15 bc ec c0 0a 3e 87 8d 00 3e d2 d1 72 3d
       -0.009155221 0.13550156 0.12553988 0.05928213
000310 fa 4b 82 bd 6a 26 42 3c 86 9a 2c bc 5e 7e b2 bc
       -0.06362148 0.011849979 -0.010534888 -0.021788772
000320 5f 44 50 3d 59 a6 89 3d 26 19 9f bd 27 bc b1 bd
       0.050846454 0.067211814 -0.077684686 -0.08678465
000330 3e 19 e0 bd 1c 0a 45 3d c1 53 cb bd c6 49 f7 3d
       -0.109423146 0.048105344 -0.09928084 0.12074618
000340 9c 39 a5 3c 3b d7 9f 3d b9 bb 5b bd 4b c4 49 3d
       0.020169072 0.07804724 -0.053645823 0.049259465
000350 a6 3b 76 3d 49 ec 11 3d f1 63 c3 3b 8a 08 93 3c
       0.06011548 0.03562573 0.0059628417 0.017948408
000360 2c 33 e9 3c a3 75 77 3c e0 1e 13 3d dc 1c e6 3d
       0.028466783 0.01510373 0.035918117 0.11235973
000370 14 56 14 bb a8 c9 8c 3d 76 0a f7 3d 80 bc 03 be
       -0.0022634314 0.068744004 0.12062542 -0.12864876
000380 a7 8b 7b bc 52 70 b4 bd 20 ae ba bd ca 22 87 3d
       -0.01535312 -0.08810486 -0.09115243 0.06598432
000390 ab 8f c1 bd 95 d2 00 3e e5 64 b1 3d a3 52 bd bd
       -0.094512306 0.1258033 0.08661822 -0.09244277
0003a0 b3 92 df bd 5b 8f 64 bc 93 6f 01 be 73 b3 8b 3d
       -0.109166525 -0.013950194 -0.12640218 0.068213366
0003b0 96 76 32 bd e3 88 92 ba 99 94 08 3c c7 c5 af 3c
       -0.043570124 -0.0011179711 0.00833621 0.021456612
0003c0 47 4c bb bd ac 61 85 3d bd 03 34 3c 72 8a ba 3c
       -0.09145408 0.0651277 0.010987219 0.022771094
0003d0 cc 85 9b bb 0e 7d 7f ba e6 ca 0b bd 0c b8 53 3d
       -0.0047461744 -0.00097461126 -0.034129046 0.051689193
0003e0 cd 5f 41 3d f7 4d 6d bd d6 95 ac bd 4b d6 d6 3d
       0.047210503 -0.05793568 -0.084270164 0.10490092
0003f0 e5 79 b6 3d 72 78 f5 bd 5e 06 b4 bd 8b c8 d0 bc
       0.08909968 -0.11985864 -0.08790277 -0.025486251

lstm.weight_ih_l1 f4 [256, 64]
000000 59 19 33 bd eb dc 3e 3d 8c 70 b2 bd a2 27 d6 bd
       -0.043725345 0.046597403 -0.08712873 -0.10456778
000010 d7 40 1d bd ef 15 36 3d bd 0b a3 3c b9 3a f6 3d
       -0.038391914 0.04445451 0.019903058 0.12022919
000020 8a 90 25 3e 8f 75 f8 bc d8 a7 a6 3d 18 54 ff bc
       0.16168419 -0.030329494 0.081374824 -0.031168029
000030 78 73 66 3d 0a 10 b9 bd 68 ac 35 bd ba 75 01 3c
       0.056262463 -0.09036262 -0.044353873 0.007901603
000040 4c f4 25 3d c5 6e 1b 3e f7 12 f4 3d 28 59 ef 3d
       0.040516183 0.15178974 0.1191768 0.11686927
000050 77 04 89 bd df 74 18 bd 71 fa da 39 03 1c 2e 3d
       -0.06690305 -0.037220832 0.00041766794 0.042507183
000060 09 ef c1 bd 90 cc 62 3d 48 a6 d2 3c 9d af 8c 3d
       -0.094694205 0.055370867 0.025714055 0.06869433
000070 09 31 04 bd 1e c1 d0 3c 73 04 e3 bc 4f 4a 01 3e
       -0.032273326 0.02548271 -0.027712082 0.12626003
000080 62 70 d8 bc 38 4b 0c 3e 16 0f e2 bc e2 6a 3d 3d
       -0.026420776 0.13700569 -0.027595084 0.04624451
000090 e4 37 51 bd b4 72 b7 3c de a0 d0 bd c5 5a e5 3d
       -0.051078692 0.022393562 -0.10186933 0.111989535
0000a0 e9 ff b1 bd ef 07 48 bd 12 98 15 bd be 77 1b bd
       -0.08691389 -0.04883569 -0.03652198 -0.037955992
0000b0 05 c9 ce 3d 52 16 df 3d 20 85 11 3d b4 96 c2 bd
       0.10096935 0.10892929 0.03552735 -0.095014006
0000c0 d3 9a da 3d 4a 5a 52 3e 95 52 c6 bd 57 18 6a bd
       0.106740616 0.20542255 -0.0968372 -0.05715212
0000d0 9a 3d c5 3d 45 78 1f 3d d2 b1 bd 3c 38 a3 de bd
       0.0963089 0.038933057 0.02315608 -0.10870975
0000e0 86 5c c9 bd 13 32 8d 3d 7a f0 08 be 39 d5 05 3d
       -0.098321006 0.068943165 -0.13372985 0.032674048
0000f0 e0 c5 9f 3d 32 18 0b bd d3 42 f9 bd be 06 3d be
       0.078014135 -0.03395862 -0.12170949 -0.18459603
000100 cc e5 f6 3d 20 3b ab 3d 9f ed 4a 3d c3 0d 67 bd
       0.12055549 0.083608866 0.04954302 -0.05640961
000110 38 7f 77 bd 8d b6 65 3d ed 51 aa bd 73 7c 81 3d
       -0.06042406 0.056082297 -0.08316407 0.06322565
000120 88 fd 2d 3c 31 29 96 3d ff da 92 bd a3 9c 58 bd
       0.010619529 0.073320754 -0.071706764 -0.052883755
000130 fb 94 bd bd be 6a 9a 3d b2 70 18 bc 0f 11 9e bc
       -0.092569314 0.07539891 -0.009304212 -0.019295244
000140 99 41 e5 bd 7d 5e 46 3e 6f 75 e4 3d 18 46 98 bd
       -0.111941524 0.19371982 0.11155211 -0.07435244
000150 dc b5 05 bc 46 62 44 bd d7 94 a6 bd 33 8d ca bd
       -0.008161034 -0.047945283 -0.08133858 -0.09890213
000160 60 43 95 bc cf 15 87 3d e3 3b ab bd bc 15 fa 3d
       -0.018220603 0.065959565 -0.08361032 0.12211177
000170 d6 15 fd bc b8 c9 c3 bd c0 f1 d2 bd c5 17 00 3e
       -0.030894201 -0.09559959 -0.103000164 0.12509067
000180 e5 de a2 bc d6 75 ca 3d d2 f9 95 3c aa 57 d5 3d
       -0.019881675 0.09885757 0.0183076 0.10417111
000190 fa c8 bf bd 26 34 ec 3c 40 8e 5f 3d be a6 51 bd
       -0.09364505 0.02883346 0.05457902 -0.05118441
0001a0 11 94 8e bd fb 3a b5 bc 70 16 3a bc fa 1b 81 bd
       -0.06961835 -0.02212285 -0.011357889 -0.06304164
0001b0 21 40 db bd 1b f5 1b 3d ca ae 2f bb db 91 ae bd
       -0.10705591 0.038075548 -0.0026807063 -0.085239135
0001c0 24 4c 05 bd ff 0d d3 3d 3e 79 00 3e 68 18 9d 3d
       -0.032543316 0.10305404 0.1254625 0.07670671
0001d0 61 6a d5 3d af 4c 3a bd b3 28 07 3d dc d3 d5 bd
       0.10420681 -0.045483287 0.0329978 -0.104407996
0001e0 ea d9 6c 3d e2 a1 6d bd 59 1a be 3d 0c 2f 0b 3d
       0.057825007 -0.05801571 0.09282369 0.033980414
0001f0 b8 30 a6 bc 7d 50 47 bd de 0f ef 3c 1f 0b 37 3d
       -0.020286903 -0.048660744 0.02918237 0.04468834
000200 d3 00 6e 3d df aa 61 3c f2 5a 16 be 3b 38 c1 ba
       0.058106255 0.013773649 -0.1468313 -0.001474149
000210 bf e3 f3 bd 74 3b a3 bd a2 d2 39 bd 47 7d 06 bd
       -0.119086735 -0.07970324 -0.04536689 -0.032834318
000220 86 79 88 3d 5e c2 78 3d f4 eb 82 3d 74 61 76 3d
       0.06663804 0.060732238 0.06392661 0.060151532
000230 4b fd 06 3e 7d 9d 45 3e 30 28 cd 3c f8 d2 51 3e
       0.13182561 0.19298358 0.025043577 0.20490634
000240 f6 6c 91 bd 15 7f 6a 3d f0 d0 82 3d e9 2c f2 bd
       -0.07100861 0.0572501 0.06387508 -0.11824972
000250 11 65 97 bd c4 ee 60 3b ba fd 48 bc af 23 10 3e
       -0.07392324 0.0034322003 -0.012267524 0.14076112
000260 fe 9d 93 bd 86 12 35 3e 9a 6f 7e 3c 46 6c e7 bc
       -0.07207869 0.17682847 0.015529538 -0.028249871
000270 bc 93 14 be d4 0b 6c 3c 40 81 86 3d 84 04 ab 3c
       -0.14509481 0.014407117 0.06567621 0.020876177
000280 eb a8 ed bd 93 c9 00 3d c5 4e 05 be 50 18 e8 bd
       -0.11604484 0.031442236 -0.1301833 -0.11332762
000290 ef ca f2 3c d0 48 13 be 80 d3 d7 bd aa 27 8f bd
       0.029637782 -0.14383245 -0.10538387 -0.06989987
0002a0 cc c3 05 3e 47 93 08 3e b2 44 f6 bd 6e 2a 4d bd
       0.13062972 0.13337432 -0.12024821 -0.050089292
0002b0 d8 8c ce 3c 90 4f 8f bd 2b bd 21 3c 6c f2 07 bd
       0.025213644 -0.06997597 0.009871761 -0.033190176
0002c0 3d 7d 1d 3d b7 0f d9 bd 0a 18 c4 bd 74 06 c1 3d
       0.038449515 -0.105987005 -0.095748976 0.09425059
0002d0 89 df 06 3e 1e 9b 19 3e 15 6e 46 bd ee c7 76 bd
       0.1317121 0.15000579 -0.048444826 -0.06024926
0002e0 4a 93 c3 3c 98 a4 c4 bd 61 f5 2f be c8 22 b3 3d
       0.023873944 -0.09601706 -0.17183448 0.08746868
0002f0 34 2d 93 bd 94 1e 35 be f2 95 14 bd 67 23 07 3e
       -0.07186356 -0.17687446 -0.03627581 0.13197099
000300 ee 50 36 bc b4 0c 0e be 27 60 5c 3d 04 3e 93 bd
       -0.011127694 -0.13872033 0.053802636 -0.07189563
000310 27 0d fc 3b ae 06 ff bb 5f c8 ee 3d ed d4 26 bd
       0.0076919976 -0.0077827787 0.116593115 -0.040730406
000320 02 5d c3 3d 31 c3 46 3d 72 0b a9 3d e9 cb 20 3d
       0.09539224 0.048525993 0.08254136 0.039256964
000330 2c b3 a0 bd 0a 68 90 3c e3 f3 cd 3d 25 e9 a6 bd
       -0.07846674 0.017627735 0.10056283 -0.081499375
000340 79 8c 58 3d 5f 3d fb 3d a5 61 b5 3d ce 52 ad bd
       0.05286834 0.12267565 0.08856515 -0.08463059
000350 62 dd 92 bd 21 32 cd 3c 4d 41 16 bd 96 47 5e bd
       -0.07171132 0.025048317 -0.03668337 -0.05426749
000360 0d 44 d2 3c c9 5b fe 3d fa 35 b5 bd 39 2f e9 bb
       0.025667215 0.124198504 -0.08848186 -0.007116225
000370 55 a8 8e bd 30 e8 6b bc d0 ef 12 bd 0d 55 e7 3d
       -0.069657005 -0.0143986195 -0.035873234 0.11295519
000380 f6 8e 9a 3d 89 50 12 3d 84 77 da bc df 2e a2 3d
       0.07546799 0.035721336 -0.026668318 0.07919096
000390 21 29 77 bd cc 4b f9 bd 0e c9 a3 bd 40 51 ba bc
       -0.060341958 -0.1217266 -0.079973325 -0.022743821
0003a0 cf 27 ae bd dd f2 93 3d da 94 18 bc 3a 50 c5 bc
       -0.08503687 0.07224057 -0.009312833 -0.024086107
0003b0 55 59 d0 bd da 32 d4 3d 8c a4 c3 3d 57 9e 7b bd
       -0.10173289 0.10361262 0.09552869 -0.0614303
0003c0 8d ed dd 3d 54 2c 11 3e 85 55 a6 3c f9 54 c2 3d
       0.10836325 0.14177066 0.02030445 0.094888635
0003d0 7d 03 f2 bd 9d cc 6f be a1 0a 5f 3c 9f e5 cf 3d
       -0.118170716 -0.23417898 0.013613374 0.101512186
0003e0 88 56 ca 3d 67 f3 e5 3d 05 d9 8a 3d 86 39 b2 37
       0.09879786 0.11228066 0.067796744 2.124604e-05
0003f0 12 1b 0f 3c cc 60 9f bd 98 e9 dc 3d d7 9d df 3d
       0.008734481 -0.077821344 0.10786742 0.109187774

lstm.weight_hh_l1 f4 [256, 64]
000000 1c 35 83 bc bc a9 c0 3d dd 16 02 3e 55 10 81 bd
       -0.016016535 0.09407374 0.12704034 -0.06301943
000010 09 b1 e3 3d 71 84 c5 3c c3 bf fa 3c 54 c4 96 39
       0.11117751 0.024111005 0.030609017 0.00028756505
000020 74 01 50 3a 1c 9a 44 bd 37 c7 1a 3d 40 68 8d 3d
       0.0007934787 -0.047998533 0.037787642 0.0690465
000030 92 40 10 bd d1 e7 cf bd d4 7b 40 3d 19 a9 55 3d
       -0.03521783 -0.10151637 0.04699309 0.052163217
000040 11 64 cb bd f0 27 e2 bd f8 3f 7c bd 66 e7 62 bc
       -0.099311955 -0.11042774 -0.061584443 -0.013849115
000050 9a 29 d0 3d 94 38 0c 3d 85 6a 09 3d 78 bb c9 bd
       0.10164185 0.034233645 0.03354885 -0.0985021
000060 c0 1f 8d 3d f8 89 a7 3d 66 54 c6 bc 87 cc a3 3d
       0.068908215 0.08180612 -0.024210166 0.07997995
000070 10 e6 0a 3d a9 96 f4 3d 2b 87 bc bc 51 4e bc bc
       0.03391081 0.11942799 -0.023013672 -0.022986563
000080 a3 dc e7 3d 21 a5 83 bd ef 63 f7 3d 27 33 c1 bc
       0.1132138 -0.0642798 0.12079608 -0.023583962
000090 e4 ce 22 3c e8 ea c6 bc 08 00 0b bd 58 ec ce 3d
       0.009937022 -0.024281934 -0.033935577 0.10103673
0000a0 39 60 fa bd f4 57 b7 bc 00 c9 3a 3c a5 ff 3a bd
       -0.12225384 -0.022380807 0.011400461 -0.045653958
0000b0 cb 41 4f 3c 9c e1 c4 3d 13 90 e6 3d 93 d6 15 bc
       0.012649964 0.09613344 0.11257949 -0.009145397
0000c0 1f 9d 7b bd 43 5c a9 bd bc b3 9e bd 58 f1 1f bd
       -0.06142914 -0.08269551 -0.07749125 -0.039048523
0000d0 4c 53 b3 3d 63 8a d6 bd cc 00 99 3c 58 01 85 bd
       0.08756122 -0.10475614 0.018677138 -0.06494397
0000e0 a1 89 a8 bc 40 6e ca bd 39 81 84 bd 8d 18 f7 3c
       -0.02057344 -0.0988431 -0.0646996 0.030163074
0000f0 39 b1 d8 bd 5d 35 91 bd ea 73 e8 bc 27 fb 4e 3d
       -0.105806775 -0.07090256 -0.028375585 0.050532486
000100 a2 e3 6f 3d b4 0e f5 3b 82 60 a1 bc 42 6e ef 3c
       0.058566697 0.0074785594 -0.019699339 0.02922738
000110 dd 7f 5f bd 22 a0 d5 bc 93 2d 85 3c 6d 5a e4 bd
       -0.0545653 -0.026077334 0.016257083 -0.1115006
000120 19 c3 fc 3c 98 94 9c 3d 93 6c df bb 72 97 9a 3c
       0.030854749 0.076455295 -0.006818363 0.018871043
000130 b6 c5 11 bd 3d b3 20 bd 16 a4 c3 bd 6f 84 e2 3d
       -0.035588942 -0.039233435 -0.09552781 0.11060416
000140 df df ad bc a4 42 80 bd 53 44 98 3d 29 05 d4 3d
       -0.021224914 -0.06262711 0.07434907 0.10352547
000150 e4 33 da 3d 25 9e 3e bd 2f c0 09 bc dd 00 e0 bc
       0.106544286 -0.046537537 -0.008407637 -0.027344162
000160 61 ce 20 bc c4 81 d5 bd ad d8 9d ba 42 4d fe 3d
       -0.00981483 -0.104251415 -0.0012042724 0.124170795
000170 e9 22 30 3c 7b d6 95 bd 34 bd 77 3c c4 10 82 3d
       0.010750511 -0.073162995 0.015120793 0.06350854
000180 1e a9 e8 3b 9a 16 d8 3d e4 7b dd bd 67 eb 0a 3e
       0.0071002385 0.10551186 -0.10814646 0.13566361
000190 57 3f f2 bd 3d 6e 4c 3d 8a b6 4d bd 4a a1 64 3d
       -0.11828487 0.04990982 -0.05022291 0.05581788
0001a0 42 8b d6 3d 2b bd 10 3d 11 0a 9e 3b 92 fa f8 3d
       0.1047578 0.035336655 0.0048229774 0.121571675
0001b0 ed 30 83 3d e8 93 83 3d ed da 08 bc 2b 6f af 3d
       0.06405816 0.06424695 -0.008352977 0.085661255
0001c0 98 76 ad 3d 63 40 b2 3c 29 90 5c 3d 7c d7 ea 3d
       0.084698856 0.021759218 0.05384842 0.11466882
0001d0 d1 98 93 3d 3c 11 5a bd 05 c3 f7 3d 20 0f 5f bd
       0.07206882 -0.053239092 0.12097744 -0.054457784
0001e0 47 50 22 3d 9d a8 bb bd 35 d1 8b 3d f6 01 05 bd
       0.03962734 -0.0916302 0.068270124 -0.032472573
0001f0 12 94 a9 bc 51 0a 21 bd 27 db fe 3d 2e 0d 21 3d
       -0.020700488 -0.03931648 0.12444144 0.03931921
000200 f0 ee d2 bd 1d e9 95 3d 61 45 19 bd 9a 44 32 3e
       -0.1029948 0.073198535 -0.03741968 0.17408982
000210 dd 05 ce 3d 97 fc d3 3d bc 64 ea bd 7c 15 34 bc
       0.10059712 0.10350912 -0.11444995 -0.01099145
000220 94 b2 1e bd b9 62 c2 bd 1a df 90 3d 2f 3b c9 3c
       -0.038744524 -0.09491486 0.07073803 0.024564354
000230 bd d2 60 3c 4f 70 b9 3d 6c 10 5d bd 00 23 b0 3d
       0.013722119 0.09054624 -0.05397074 0.08600426
000240 15 a3 7f 3c ab 03 02 3e 4c 3d 48 3c 1f 2e 45 bd
       0.015602847 0.12696712 0.012221646 -0.048139688
000250 a1 e8 5d 3d b8 28 6b bd b1 3e 6d bd b5 2a 7b bd
       0.05417693 -0.05741188 -0.057921115 -0.061320025
000260 89 83 88 3d 26 f9 57 3c 25 7a d6 3d ee 10 de 3d
       0.06665713 0.01318196 0.10472516 0.10843073
000270 4c 88 17 be 84 f7 34 3d 78 42 8c bd 73 01 39 bd
       -0.14798087 0.04418136 -0.068486154 -0.045167398
000280 ce 88 02 be a3 15 8e bc 5f 51 04 3d 61 5e a7 3c
       -0.127475 -0.017344302 0.032304164 0.020430746
000290 6c 73 13 bd 20 32 3e 3d fc c5 1c 3e 3b 23 ce bd
       -0.035998747 0.04643452 0.153099 -0.100653134
0002a0 20 de 45 bc 98 5e 1b bd e0 ee a9 3c 77 87 22 3d
       -0.0120768845 -0.03793201 0.020743787 0.03967997
0002b0 af 14 b7 bc b4 86 86 3d 78 65 d2 3d e0 c6 02 3c
       -0.02234873 0.06568661 0.1027326 0.007981986
0002c0 42 04 5f bd 38 d5 a7 bc dd c7 b0 3c 1d 1d 90 bd
       -0.05444742 -0.020487413 0.021579677 -0.07036803
0002d0 55 ae e6 3d aa 02 d2 3b dd 3d 5f bd 82 95 c0 bc
       0.1126372 0.006409009 -0.054502357 -0.02350879
0002e0 5e 1a 01 3e 5c a0 5a 3d 56 f9 09 3e 91 75 2e be
       0.12607715 0.053375587 0.1347402 -0.17037036
0002f0 52 42 99 3c 49 26 83 3d 38 f6 c4 3d 5b 04 22 3e
       0.018708382 0.06403787 0.09617275 0.15821974
000300 fb bc 39 bc 1b f6 01 3e ed 12 22 3e 69 a2 a8 bd
       -0.01133656 0.12691538 0.15827532 -0.08234102
000310 2a a3 39 bc 8d 02 ac 3d c3 18 96 bc e4 c8 f0 bd
       -0.011330405 0.08398924 -0.018322354 -0.11757067
000320 fe 37 fa 3c ac 5b 07 3e e2 42 5a 3d 77 fb d9 bd
       0.030544277 0.13218564 0.05328644 -0.10643666
000330 7a 9a cd bb 05 68 99 3d 60 0e 27 bc fb 80 58 bd
       -0.0062745186 0.07490543 -0.010196298 -0.05285738
000340 c4 a0 05 be 22 46 1a bd c1 a9 5d bd d5 8d bc bd
       -0.13049608 -0.03766454 -0.054116968 -0.0920674
000350 ca d0 16 3c c7 6f 19 3d 93 37 af bd 78 67 91 bd
       0.009205053 0.037460115 -0.08555522 -0.07099813
000360 8f 35 f4 3c a9 de e1 bd 57 13 e7 bd a8 1c b3 bd
       0.029810695 -0.11028797 -0.11282986 -0.087457
000370 fc dc f1 bd fa d7 d9 3d d5 ba f4 3d 11 a6 28 3d
       -0.118097275 0.106368974 0.11949698 0.041174
000380 94 5c 70 3d ef 2b 8e 3d da c0 98 3d 33 4c 24 bd
       0.05868204 0.069419734 0.074586585 -0.04011173
000390 d6 c3 e7 bd b6 98 95 bd 55 85 4a bd 95 0e 08 3d
       -0.113166496 -0.07304518 -0.04944356 0.03321703
0003a0 c4 02 95 3c 4d 3c 87 bd bc af 5e bd a5 a6 a3 3c
       0.018189795 -0.06603298 -0.054366812 0.019976923
0003b0 00 c2 45 bd d4 31 2c 3d 67 83 8c bd 0d 8c a1 bd
       -0.048280716 0.042039707 -0.068610005 -0.07888041
0003c0 81 89 25 3c 95 78 e9 3b eb 9c ef bc 5c 8d 3e 3d
       0.010103584 0.00712497 -0.029249629 0.04652153
0003d0 ce 65 0f bd 40 33 e2 3d 8d db c2 bd 05 0d 52 3d
       -0.035009198 0.110449314 -0.09514532 0.051281948
0003e0 c5 ac ec bb 4c 1d a4 3d ec 41 e4 bd 99 5b a2 3c
       -0.007222744 0.080134004 -0.11145386 0.019819068
0003f0 b7 51 03 bd 5b ff 3f bd 8e 5f e1 3c 22 19 a4 3b
       -0.03206035 -0.046874385 0.027511384 0.005007879

lstm.bias_ih_l1 f4 [256]
000000 12 ae 07 be 24 03 52 bd a8 9c 6d 3d 2b 67 ee bc
       -0.13249996 -0.051272526 0.058010727 -0.029101929
000010 13 36 1a be 47 f1 e8 bd c5 34 2c be d0 a9 a4 3d
       -0.1505969 -0.11374145 -0.16817005 0.08040202
000020 4a 9a e6 3b 8c a6 27 be 80 af a4 bd 35 b1 06 3c
       0.0070374357 -0.16372126 -0.080412865 0.00822096
000030 18 ec a0 3a 83 49 c5 bd 47 a0 7e bd 19 8f 98 3c
       0.0012277393 -0.09633162 -0.06216457 0.018622922
000040 e1 93 8b bc 90 2b 36 bc 9c 69 a2 3d 1c bc 9d bc
       -0.017038288 -0.011118785 0.079303 -0.019254737
000050 3e e8 8a 3d 69 22 e3 bd af ab a0 bd d6 6f 90 bd
       0.06782578 -0.110905476 -0.07845246 -0.07052581
000060 4d 98 b8 bd 31 9b 15 3d 25 ec ba bc ca d6 49 bd
       -0.09013424 0.036524955 -0.02281768 -0.049277104
000070 5e e2 15 3d fb e0 b3 3d 0f f7 02 be 1c 6d f6 3c
       0.036592834 0.08783146 -0.12789558 0.030081324
000080 89 7a a0 3d 48 38 53 3d 3c e7 35 bd c0 e5 31 be
       0.07835872 0.051567346 -0.044409975 -0.17372799
000090 36 a0 cf bd 9a 49 cb bc c0 77 a4 3d b3 b9 c4 3d
       -0.1013798 -0.02481537 0.08030653 0.09605732
0000a0 28 3d fb bd a6 65 1d be 6b a3 a4 3d 2e 91 d2 3c
       -0.12267524 -0.15370807 0.08038982 0.025703993
0000b0 fd a2 c4 3d ea 67 0a 3d c2 c0 9c bd a8 4b 4b 3d
       0.096014 0.033790506 -0.07653953 0.0496327
0000c0 05 1d b7 bc 00 4f af bd 22 22 05 3d ea 71 bf bd
       -0.022352705 -0.0855999 0.032503255 -0.09347899
0000d0 e3 e4 a2 3c 4f d9 aa bd 09 3e eb bd 00 ab 0f bd
       0.019884532 -0.083422296 -0.11486442 -0.035075188
0000e0 d5 ca d8 3b 3b ac 57 3d d1 4e df bd 2c 8d 57 bd
       0.0066159763 0.052654486 -0.10903705 -0.052624866
0000f0 de a5 5d bd f6 04 f1 3d 27 d3 ea 3d ad cd af bd
       -0.05411326 0.11768524 0.11466055 -0.085841514
000100 f2 98 9d bc fa 5c dd bd 11 da 93 bd 04 5b 43 3d
       -0.01923797 -0.108087495 -0.07219327 0.04769422
000110 43 49 4c bd fe c1 60 be 5d ae d4 bc ee 77 a8 bd
       -0.049874555 -0.21949002 -0.02596205 -0.08226
000120 3f fb 7d bb 71 5c 7e 3d 3b f7 b7 3b d6 ed f9 bd
       -0.003875449 0.062099878 0.005614189 -0.12203567
000130 d7 96 b3 bd a8 b2 41 bc d9 91 16 bd 21 4e fb bd
       -0.08769005 -0.01182238 -0.036760185 -0.12270761
000140 1a 95 8d bd 20 38 02 bc 55 f8 dd 3d 36 3f 57 3c
       -0.069132045 -0.007947952 0.10838381 0.013137629
000150 ec 2e ef bd 83 c2 ae bd 9c 8f 8f 3d 59 9f db bd
       -0.116788715 -0.08533194 0.07009813 -0.107237525
000160 15 a6 62 3c 28 c8 32 3d 44 e2 68 bd d5 ea 83 3d
       0.013833542 0.043647915 -0.05685641 0.06441275
000170 16 2a 80 3d 4a 11 a4 3d 9f 65 00 be 6c 9a b1 bd
       0.06258027 0.0801111 -0.12538765 -0.08672032
000180 17 47 92 3d 43 29 10 bd bb 9b 30 3d 9d ab be bd
       0.071424656 -0.0351956 0.043117266 -0.093100764
000190 51 64 a5 bc 58 ab 64 bd f2 c9 88 3c 73 08 c5 bc
       -0.020189436 -0.05582747 0.016697858 -0.02405188
0001a0 66 e5 2b bd 9c 4a bd 3c c1 d4 b0 3d 94 e5 f5 bc
       -0.04196682 0.023106866 0.086343296 -0.030016698
0001b0 d1 ed 56 3d 33 07 48 3d 72 bf c8 bd 0d 08 d8 bd
       0.052472893 0.04883499 -0.0980214 -0.105484106
0001c0 a3 7e 38 bd 77 4b 0c be c7 0f b1 3d 37 43 2b 3d
       -0.045042645 -0.13700663 0.086455874 0.041812148
0001d0 95 a6 03 be 0d c5 d4 3d 23 d0 b9 bd 5a c7 52 bb
       -0.12856515 0.10389147 -0.09072902 -0.003216228
0001e0 53 c3 08 bd 96 a8 51 3d 57 39 68 bd 4f 73 06 bd
       -0.0333894 0.051186167 -0.05669531 -0.03282481
0001f0 8a 19 bb bd 9e 6c a9 bd d0 89 e9 3d 5b 9c 13 bc
       -0.091357306 -0.0827267 0.11403239 -0.009009446
000200 24 c7 ab bd dd 84 56 bd 6d 5e 63 bd af 0d f7 3d
       -0.083875924 -0.052372802 -0.055509973 0.12063157
000210 d6 ba 4a 3c 80 d0 89 bd e9 cb 73 bd cd 33 c5 3d
       0.012373647 -0.06729221 -0.059520636 0.09629021
000220 b6 cc b5 3c 5e 0d 10 bd 89 92 9e 3c 49 dc 63 3d
       0.02219234 -0.035168998 0.019356983 0.055630002
000230 fb c5 97 bd 18 71 bf bd 82 d4 49 3d fb 14 82 3d
       -0.07410809 -0.09347743 0.04927493 0.06351658
000240 b3 90 f6 bc 99 6e 94 3d f2 7d 8a bd 65 6f 99 bd
       -0.030098295 0.07247657 -0.067623034 -0.0749195
000250 03 4a 6d bd dd 5a d4 bd fa 18 dc 3d b2 cb c8 3d
       -0.05793191 -0.10368893 0.107469514 0.09804477
000260 2e 7b 4c bd 87 e8 3f 3d 83 27 d0 bc 54 27 d5 3d
       -0.04992216 0.046852615 -0.025409466 0.10407892
000270 f4 d5 87 bd 8c d7 e2 3d bb ea 85 3d 25 56 07 3d
       -0.06632605 0.110762686 0.06538912 0.03304114
000280 8c 7c 33 bd 6b 50 b0 3d b7 c0 12 3d 0f 15 bf 3d
       -0.04381995 0.086090885 0.03582832 0.093301885
000290 ea 18 a0 bd ad b6 c1 bd a2 72 10 bd 78 bf 27 bb
       -0.07817252 -0.09458671 -0.035265572 -0.0025596302
0002a0 7f 58 c4 bd 68 e0 a0 bc 73 20 45 bb b2 d6 c1 3d
       -0.09587192 -0.019638255 -0.0030079156 0.09464778
0002b0 c4 84 d8 3d 78 76 2b 3d 07 18 bf 3d ea a9 ed bd
       0.10572198 0.041861027 0.09330755 -0.11604674
0002c0 ad 10 4a bd f2 b8 6a bd 60 9f 87 bd 0f 75 82 bd
       -0.04933231 -0.057305284 -0.06622195 -0.063699834
0002d0 b7 18 b1 ba 1c 55 68 bb b1 e1 a5 bc 40 7c 6c bd
       -0.0013511394 -0.003545112 -0.02024922 -0.05773568
0002e0 88 dc b7 3d 93 95 4d bd 36 91 26 3d fa 69 c0 bd
       0.0897761 -0.050191473 0.040665828 -0.093952134
0002f0 cc 4c 4f 3d 30 96 d4 3c 19 1f 1d bc 94 0c 0e bc
       0.05061035 0.025950521 -0.009589934 -0.008669991
000300 50 f7 66 3c 58 c2 95 3d 92 b8 fe 3d 40 7b 02 be
       0.01409705 0.07312459 0.12437548 -0.12742329
000310 9b f5 b6 3c a8 e1 6f bd c3 51 9e bc 9e 47 41 3c
       0.02233391 -0.058564812 -0.019326096 0.01179686
000320 f0 a1 b4 3c df 79 b1 bd f9 e6 0d 3d 68 27 c7 bd
       0.022049874 -0.08665823 0.0346441 -0.09724313
000330 92 bc d4 bd 15 1e 1e bb c5 6b ee bd a7 c9 41 3d
       -0.103875294 -0.0024126817 -0.11641649 0.04731145
000340 06 b5 c3 3c 97 c8 74 bd 32 e8 e6 bd 55 f1 bb 3c
       0.02389003 -0.05976161 -0.112747565 0.022942225
000350 a8 9b cb 3d 5f 00 d1 bd 7a c8 b7 bc 98 d5 f1 3d
       0.099417984 -0.10205149 -0.022434462 0.11808318
000360 98 e8 6f 3d ab 7a da 3d 91 69 7b bd 37 77 2e bc
       0.058571428 0.10667928 -0.061379973 -0.01064854
000370 ae c0 76 3d 50 df 89 bd dd 04 e4 bd 84 0f c0 3d
       0.060242347 -0.067320466 -0.1113374 0.09377959
000380 ad e7 f0 bd bf 2a bd bd 44 1d ea bc 58 4f 7d 3d
       -0.11762939 -0.09236669 -0.028578408 0.061843246
000390 0f a0 f2 bc d5 73 80 bd ef 87 ce bb d8 b6 bd bd
       -0.029617338 -0.06272093 -0.0063028256 -0.0926339
0003a0 18 97 8e 3d de 0e 0c be 9e 39 41 3d 17 2c c8 3d
       0.069624126 -0.13677546 0.04717409 0.097740345
0003b0 76 63 9f 3d b4 ad e2 ba 42 9d 1f 3d ee 6c f8 bd
       0.077826425 -0.0017294199 0.038968332 -0.12130152
0003c0 a3 1b 89 bb ff 0c 86 bb 5e 64 e0 bd 60 c7 d0 bd
       -0.0041842028 -0.0040909047 -0.109566435 -0.10194278
0003d0 4e 7d a8 bd 3f 2d bb bd 0a dd 95 3d 32 88 c3 3d
       -0.08227025 -0.091394894 0.073175505 0.095474616
0003e0 bb 0d 80 3d b6 d1 c1 3d 18 d7 98 bc d4 4a f6 bd
       0.06252619 0.09463827 -0.018657252 -0.12025991
0003f0 a6 11 c0 3c 19 b3 8b 3c 5d 8b 70 bd ac 14 99 3d
       0.023445915 0.017053174 -0.058726657 0.07474646
